dkl_kernel_for_Good.pth (torch, 27031 bytes, 6 tensors)

linear1.weight f4 [100, 2]
00000000: dfae 173f 3a0b 303f 03f7 b43c 5962 323f
00000010: 15b9 03be 179b 413d 8bd8 2bbf b2b1 b03e
00000020: 7b9d 543f ba31 9abe 3873 353f 2b52 643e
00000030: 8166 203f a844 893e 1c92 ae3e 6777 ccbd
00000040: d73c 3c3f b9c5 b5bd f10b 36bf d16a 5b3e
00000050: 84cc bebe 950f 04be c9f7 a1be f252 8a3e
00000060: 2ae4 0ebf 50e7 a6be 0e76 4cbe 13af d9be
00000070: b257 c03c 2ec8 92bf bd3d 223f 23ef 0fbf
00000080: 8102 103f 4a1b 933d cfc2 84bd fc3b 153f
00000090: a462 2ebe fec6 d03e d34f 9e3d c55a 64be
000000a0: 3a8c 423e da5a 44be a6f2 7c3e 1de2 e83e
000000b0: 19bd 183f c7c2 12be c54d 173f 6034 afbd
000000c0: 1ddb b73e 16aa dcbe 2f3d 9fbf cc05 fdbe
000000d0: a434 03bf ac4f fc3e cd6b 31bd 47d0 ac3e
000000e0: 5fff 643e 5789 49bc e9e9 f63e 2e96 dcbe
000000f0: c85c 363d 1f1b f7be 27ca 463e 8675 4ebe
00000100: 9363 1f3e 7c20 0dbe ca64 103f 4c96 c2be
00000110: ef55 82bf b33d f7be 1422 143f 3f05 733e
00000120: f46b 083f 2850 5cbf 7b8c 33bf 7b9f 0dbf
00000130: 1a8a f3be e4a3 923e c00c e73e bc51 3d3f
00000140: d86d 38bf 290b 48bf 38ac cc3e 7283 2fbf
00000150: 77fd f33e 215d 32be 8f0a 953e f33e e0be
00000160: a311 b9be 4f0f 103e 4e13 193e 1f9c 38be
00000170: 5191 be3e d746 1d3f 8590 5dbf b1e6 0ebf
00000180: 85b7 413f e4a3 29be 59bc eebd 6722 71bf
00000190: 9069 6fbf 0dfe 913e 8325 bfbd 3f66 03bf
000001a0: b44e a8bc 1ff8 cdbe 8293 19bf 755c c7be
000001b0: 296e 1ebf 1886 e6be d229 603f 10aa a93e
000001c0: 682d ef3d 83c3 44bf 0bc7 edbe 6b03 71be
000001d0: b121 1a3d 3181 2cbf f2eb 21bf 390a 8fbf
000001e0: f70c 003d bafe 73be b4b3 48bd 0254 f5be
000001f0: 9330 16bf 9445 f1be 8dd9 77be 07e0 0ebf
00000200: 5021 1c3f a6e2 6cbe ea8e 063f 3cef 3b3e
00000210: 997d a0bf fc4f ff3e dbde 81be 422a 59be
00000220: 87c0 31bf 175b 18bf 8e2a 4f3e 962b 1ebe
00000230: 0d52 ab3e ebe4 01bf df64 063f bfe0 04bf
00000240: 0c37 55be 4818 ee3d 42b8 03bb 243e ed3e
00000250: 24e8 273f 6b37 0bbf 1d83 833e 6451 37bf
00000260: 1db2 9ebd be7d 07bf 365c 3f3f e132 c0be
00000270: 7230 643e ebe3 ad3e 114b 6b3e 1ebc c3be
00000280: 4955 3d3f 0024 63bd 6b4a ba3d 2f86 1fbf
00000290: 1633 993e bed0 3d3d 6c72 a1be 3ac3 423f
000002a0: a26e 213e b54e c8be eb3d b7be ba50 0abd
000002b0: fc25 ca3e b806 39be ec12 eabe 4fc8 fcbe
000002c0: e294 0abf 85b1 783e 442d 073f b137 70bf
000002d0: af2a 5e3e e29d 863e e74b 033e 4fee 80be
000002e0: fcae 083f 7c9c 123f 4960 873e c678 febd
000002f0: feb8 84be d737 db3c 8dd2 ffbd 9bc6 57be
00000300: 9785 cd3e 0159 1e3f 0d5d 8fbd 5f1e 22be
00000310: 1e0e 293c fcee 2cbd d10f 9c3e a4d5 663e
0.5925121 0.6876713 0.02209044 0.69681317 -0.12863572 0.047267046 -0.67127293 0.3451057
0.83052796 -0.30116063 0.70878935 0.2229697 0.6265641 0.26810193 0.34095848 -0.09983712
0.73530334 -0.08875603 -0.7111197 0.21427466 -0.37265408 -0.12896569 -0.31634358 0.27016407
-0.558169 -0.32598352 -0.1996691 -0.42516384 0.023479316 -1.146734 0.63375455 -0.5622427
0.5625382 0.07182939 -0.06482469 0.58294654 -0.17029816 0.4077682 0.07730069 -0.22300251
0.18998805 -0.19175282 0.24701938 0.4548501 0.5966354 -0.14332114 0.5910304 -0.085549116
0.35909358 -0.43098515 -1.2440547 -0.49418485 -0.512522 0.49279535 -0.043315697 0.33752653
0.22363041 -0.012300811 0.48225334 -0.43083328 0.044522077 -0.4826288 0.19413052 -0.20162019
0.15565328 -0.13781923 0.5640379 -0.38005292 -1.0182475 -0.4828926 0.578645 0.2373247
0.53289723 -0.8605981 -0.7013623 -0.5532147 -0.475663 0.28640664 0.45126915 0.7395284
-0.7204261 -0.7814203 0.39975142 -0.68559945 0.47654316 -0.17418338 0.29109618 -0.43798026
-0.36146268 0.1406834 0.1494877 -0.18028305 0.37220243 0.6143622 -0.86548644 -0.5582076
0.75670654 -0.16566426 -0.11657018 -0.9419312 -0.9352045 0.28514138 -0.09333327 -0.5132789
-0.020545341 -0.40228364 -0.59990704 -0.38937727 -0.6188684 -0.4502418 0.8756381 0.3313756
0.116785824 -0.7686083 -0.4644092 -0.2353646 0.037629787 -0.6738463 -0.6325065 -1.1174995
0.031262364 -0.23827639 -0.048999503 -0.47915655 -0.5866787 -0.47123396 -0.24204083 -0.5581059
0.6098833 -0.23133335 0.5256182 0.1835298 -1.2538329 0.4986571 -0.25365338 -0.21207526
-0.694344 -0.5951399 0.20231077 -0.15446314 0.33461037 -0.50739926 0.5249767 -0.51905435
-0.2082178 0.11625725 -0.002009884 0.46336472 0.65588593 -0.54381436 0.2568597 -0.7160857
-0.07748816 -0.5292624 0.7475008 -0.37538818 0.22284105 0.3396295 0.22977854 -0.3822946
0.7395826 -0.055454254 0.09096225 -0.6231412 0.29921788 0.04634165 -0.3153261 0.7607914
0.1576486 -0.3912255 -0.35789427 -0.033768393 0.39482105 -0.18068969 -0.4571756 -0.49371573
-0.5413343 0.24286468 0.52803445 -0.9383498 0.2169597 0.2629233 0.12821923 -0.25181815
0.53392005 0.57270026 0.26440647 -0.124253795 -0.25922388 0.026760025 -0.12491331 -0.21071856
0.40140983 0.6185456 -0.0700017 -0.15831898 0.010318307 -0.0422201 0.30480817 0.22542435

linear1.bias f4 [100]
00000000: d65c 1dbf c153 d1be 25da 833e 266f fe3d
00000010: 63d1 a2bd d9d5 02bf 425d 9abe b026 22bf
00000020: f61e ecbd be85 2b3e 68fb b13e b8a6 783e
00000030: ce02 20bf 6ab7 d9be 7912 493d 2538 2b3f
00000040: 17b1 bb3d d0bf f4bd 8f8a 2c3e d3e4 89be
00000050: e254 eabe b119 e93e 75e7 18be c6c4 acbd
00000060: 2d14 34bf c216 813e f077 0e3f 08a2 0d3d
00000070: b370 fcbe 2adc 44bf 2505 13bf d874 e63e
00000080: 8ad8 9c3e 797b f13e 251d 7c3e 0e49 e0ba
00000090: d3bb 433c 92aa 09bf a317 1bbf 6cd5 19bf
000000a0: 6963 aa3d bd41 98be 9a82 e0bd a544 05bf
000000b0: 8d66 54be c1d0 febe 7d3f 07bf 1fce 673e
000000c0: 7fe3 c8bd 0b8e b93e 893c 6d3d 34ca 04bf
000000d0: 592f 4cbe 4f7f afbe 7e86 5dbe dae6 d8be
000000e0: d090 da3e 8f0d fcbe cf83 c63e b16b 293e
000000f0: b2bb 083f ecd9 0abf 3797 e03e 8427 abbe
00000100: dfe4 db3d b467 ab3e fbea 84bd 699b 86bd
00000110: 9fa0 8abe fa25 17bf 8ac2 ab3e 7db3 33bf
00000120: 8935 913e 5a12 7f3e ee31 1b3f 4664 2cbe
00000130: abbb 14bf dd0e 313e c251 813e 8d2b 34bf
00000140: d536 0abe ac06 d9be d5e7 033d 863e 56be
00000150: 5bfd 93be 62dd 65be fe05 2cbf 1ac0 063f
00000160: 004d 023f db36 f1bd fc7e 1cbc 54c1 93be
00000170: dcde 03bf 7028 30bf fca1 df3d a4c6 c6be
00000180: 6be6 07bf b4fa 61bd 3620 71be fee2 4dbe
-0.6146978 -0.40884212 0.2575237 0.12423544 -0.079500936 -0.51107556 -0.30149275 -0.6334028
-0.11529343 0.16750237 0.3476212 0.24282348 -0.6250428 -0.42522746 0.049089883 0.66882545
0.091646366 -0.11950648 0.16849731 -0.26932392 -0.45767885 0.45527413 -0.14932044 -0.08435969
-0.70343286 0.25212675 0.5565176 0.034578353 -0.49304733 -0.76898444 -0.57429725 0.4501102
0.30633956 0.47164515 0.24620493 -0.0017111616 0.011946636 -0.53775895 -0.6058294 -0.6009128
0.08319742 -0.29737654 -0.1096241 -0.5205787 -0.20742245 -0.49768642 -0.5283125 0.22637223
-0.098090164 0.36241183 0.05791906 -0.5187104 -0.19939937 -0.34276816 -0.21633336 -0.42363626
0.42688608 -0.49229094 0.38772437 0.16544987 0.534114 -0.5423877 0.43865368 -0.33428586
0.10737013 0.33477557 -0.064901315 -0.06572611 -0.2707567 -0.5904232 0.3354686 -0.7019575
0.28361157 0.24909344 0.6062306 -0.16835126 -0.5809886 0.17290826 0.2525769 -0.70378953
-0.1349748 -0.42387903 0.032203514 -0.20922288 -0.28904232 -0.22447732 -0.67196643 0.52636874
0.5089874 -0.11778041 -0.00955176 -0.28858435 -0.5151193 -0.688117 0.10919568 -0.38823426
-0.53085965 -0.05517073 -0.23547444 -0.20106122

linear2.weight f4 [50, 100]
00000000: 677f 6fbd 85bd a9bd efe4 c4bd ed2d e0bd
00000010: ffab a6bd 1e01 b73c 55f6 cfbd 3a12 d93c
00000020: 495b c5bd f009 5bbd 34fd 013d 5802 80bc
00000030: c87a b1bd 4792 223d aa67 c23d 53ed 10bd
00000040: 20e3 ae3b 1a33 173d e1c5 9dbd 5307 aa3c
00000050: db57 8ebd 52a3 a8bd ebab 973d 717c 2abc
00000060: 5f98 81bd df39 a4bd bf2d 05be 9e3b 24be
00000070: 1b08 9ebd 0796 cabc 0037 8a3d 7508 38bd
00000080: 1bfd 0cbe 6d51 11be 10c4 4b3d 555e 0bbe
00000090: 67bb 49bc d37c 443d 5d91 3dbd 64b3 94bd
000000a0: 1a9d 0ebc 20cf c1bc 3f1a e5bd 0b91 b6bd
000000b0: 308d a5bd 3a53 5bbd 3903 0f3d c3d7 45bd
000000c0: face 02be c091 c63c adc7 e13c 806c 603d
000000d0: 33ac 9b3d 7d18 643d 350f cbbd 5508 58bd
000000e0: d01d 783d 0d6e 17bc 675e 71bd 773e c33d
000000f0: 30d6 cabd 1a34 69bd 73a3 b8bd 805e 923b
00000100: 47a3 8dbc 2931 22bd 20ff a13c 5851 9bbd
00000110: 9742 bfbd 33cf e63a 5fbe ba3d 974e 6c3d
00000120: 968f f5bd 2b03 99bd 15a5 0abe c399 45bd
00000130: 135b 943c 2e10 ebbb 1cf9 ac3c 3307 bcbd
00000140: 56c8 a93b 9f71 90bd b961 c6bc f007 bc3c
00000150: 670e b83a 3254 ba3d 0a80 aebd 5373 1cbd
00000160: a7b7 5cbb 337a b2bc 734a a8bd c7b7 2abd
00000170: bebc ed3b fde8 483d 041f f2bc 2a2e 66bd
00000180: 8f47 12be da35 313c 2db6 f23c 3554 dcbd
00000190: d335 e5bc b850 8a3d b383 023c 00d8 933b
000001a0: 079b c9bc fb76 b9bd 9290 c0bd 83cb 43bd
000001b0: 5d35 50bd 8739 ff3c 5a7a eebc 9d3e 20bd
000001c0: 2f43 c33d 4dac 0e3d 9d00 923d e74a 46bd
000001d0: da4e 27bd 6a8b 163d 0274 88bd ebe0 85bd
000001e0: b344 9ebb cad0 15bd ab87 99bd 3af5 723d
000001f0: 4bb1 a43d b3e4 843c 33a2 8ebc 62b3 bdbd
00000200: 3331 15bd 7a8e d03c 9a23 413d 5a1f 4fbc
00000210: c0ef 21bd 633d 643d 481a a3bd f26f 813d
00000220: 03e8 1ebd 679c c83a 0de3 a1bc 4da3 463c
00000230: 9a8f f7bc 65ea 943d 0060 2abb e5dd 9f3d
00000240: 45e9 c43d ad8d 47bd 4a67 95bd bb4f a43d
00000250: f07b a03d df5f 9cbd b34e fdbb 6bf5 c9bd
00000260: 2ba6 a7bd ed38 9e3c 80ef d93c a7a7 ad3c
00000270: 13f5 debc a5f1 bc3d 4d41 6a3c e0b2 71bd
00000280: 1a83 b9bb 1aba c43c 5d70 0f3d 67cf 90bd
00000290: 8a83 193d d341 51bd 352d aabd 00ba 5fbd
000002a0: d382 c53d 2b13 af3d 2d65 b73d 9770 703d
000002b0: 50b7 9a3d a74c 5bbc 935f 61bd caa8 4c3d
000002c0: 673f 54bd 6836 8abd 9acc 02bd adea ab3c
000002d0: 57dc 523d a317 1fbd a713 71bd 4002 5d3c
000002e0: 8d6e 71bd 5f56 85bd 3a81 553d ed9c 89bc
000002f0: a724 bb3d d339 c73d fa06 f53c 8df7 0c3d
00000300: 00a6 bc3c 3345 cd3a 6754 eebb 9a25 b43a
00000310: 6df4 183d c56a be3d 9a4d d4bc f724 2dbd
00000320: 4de4 d4bd e39c 3abb 75e5 ce3d 5462 c53e
00000330: 0a3a 533d d887 173e df47 f3bd 93d5 5bbd
00000340: e4c7 1cbe 9888 563e e28f 873d 0d82 36ba
00000350: c0f8 fe3c 783c 9cbd 2df4 973e c429 cbbd
00000360: 6032 923d 8433 4b3b 441f 063e cd4f 5cbb
00000370: 408b 3ebc b57b e93d cba7 663e 621d e5bc
00000380: cf12 943d 1575 9fbd f872 0a3e f911 a53d
00000390: 3a23 b03c 903a b43d 9a13 e03c 211f 16bd
000003a0: 90c0 8ebc 95c0 a73d db49 abbd 8a06 1fbb
000003b0: 3fc8 9d3c 679d 8f3b a076 8bbd dec8 ee3d
000003c0: 5a9a 733e dd99 91be aa97 9b3d 2337 323d
000003d0: 95b3 b43d f3ad 1b3c d624 253d a277 373d
000003e0: c0b6 403e 6ac0 a0be 5fc3 b8be d766 453d
000003f0: 6622 6b3d 0acd 3f3d 00f8 b2bc e14b 643b
-0.05847111 -0.08288101 -0.09613978 -0.1094626 -0.081382744 0.0223394 -0.10154406 0.026497949
-0.09636552 -0.053476274 0.031735614 -0.015626118 -0.08665997 0.039690282 0.094924286 -0.03538258
0.005337134 0.03691397 -0.07703758 0.020755446 -0.06950351 -0.08234276 0.074058376 -0.010405646
-0.063278906 -0.080188505 -0.13005732 -0.16038367 -0.0771639 -0.024729742 0.06748772 -0.04492994
-0.13768427 -0.14191218 0.049747527 -0.13610204 -0.012312747 0.047970604 -0.046281207 -0.072607785
-0.008704448 -0.023658335 -0.11186647 -0.089143835 -0.0808357 -0.053546168 0.034915183 -0.04830147
-0.12774268 0.02423942 0.027561033 0.054790974 0.07601204 0.055687416 -0.0991501 -0.05274232
0.060575306 -0.009242547 -0.05892792 0.095333986 -0.09904134 -0.056934454 -0.090155505 0.0044668317
-0.01728977 -0.039597664 0.019774973 -0.075838745 -0.09338873 0.0017609358 0.09118342 0.057692137
-0.119902775 -0.07471307 -0.13539536 -0.04824234 0.018109834 -0.0071735596 0.021114878 -0.09181061
0.0051813526 -0.070529215 -0.02421652 0.022953004 0.0014042378 0.0909809 -0.08520515 -0.03819592
-0.0033678801 -0.021786785 -0.08217325 -0.04167917 0.007255166 0.04905032 -0.029555805 -0.05619637
-0.1428511 0.010816062 0.029627884 -0.10758249 -0.027979767 0.06753677 0.00796597 0.004511833
-0.024610056 -0.09055897 -0.094025746 -0.047801506 -0.05083214 0.03115536 -0.029111076 -0.039122213
0.09534299 0.034832288 0.07129023 -0.048411276 -0.040846683 0.03675405 -0.06662752 -0.0653704
-0.004829967 -0.03657607 -0.0749658 0.059315898 0.080416285 0.016222334 -0.017411327 -0.0926273
-0.036423873 0.025458563 0.047153093 -0.012641752 -0.039535284 0.055722605 -0.07963997 0.0632018
-0.038795482 0.0015305401 -0.019761587 0.012123895 -0.030219842 0.0727127 -0.0025997162 0.07805995
0.09614805 -0.048719097 -0.072950915 0.0802302 0.07836139 -0.076354735 -0.007730329 -0.09861263
-0.08185991 0.019314254 0.02660346 0.021198107 -0.02721647 0.092257775 0.0142977955 -0.05900848
-0.0056613805 0.024014521 0.035019267 -0.07070809 0.03747896 -0.051088165 -0.08309404 -0.054620743
0.09644093 0.08548578 0.089548446 0.058701124 0.07554495 -0.013384975 -0.055022787 0.049965657
-0.051818278 -0.067486584 -0.031933405 0.020985926 0.051479664 -0.0388409 -0.058856633 0.013489306
-0.05894332 -0.065106146 0.052125193 -0.01679846 0.0913785 0.09727826 0.029910553 0.03441577
0.023028374 0.0015660882 -0.007273245 0.0013744116 0.037342478 0.092977084 -0.02591591 -0.04227158
-0.103951074 -0.002847486 0.10102359 0.3855158 0.051569022 0.14797914 -0.11878943 -0.053670477
-0.15310627 0.20950544 0.0661924 -0.0006962128 0.031124473 -0.07628721 0.2967848 -0.099200755
0.071385145 0.0031006048 0.13097864 -0.00336169 -0.0116298795 0.11400548 0.22524945 -0.027968112
0.0723015 -0.077860035 0.1352042 0.08060069 0.021501172 0.088002324 0.027353097 -0.03665078
-0.017425805 0.08191029 -0.08363696 -0.0024265372 0.019260524 0.0043827775 -0.06809735 0.11659406
0.23789349 -0.284377 0.07597287 0.043509614 0.08823315 0.009501922 0.040318333 0.044791825
0.18819714 -0.313968 -0.36086556 0.04819378 0.05740585 0.0468264 -0.021846771 0.0034835266

linear2.bias f4 [50]
00000000: 1011 89bd a039 8fbc 1a84 343d c796 13bd
00000010: f2c1 a93d eb89 ef3d 479f 26bd d1b7 a33d
00000020: f747 ec3c a3bd b73d f01d 0e3e c076 0bbd
00000030: 0335 bd3d 1c0e 963d 92ad fc3d deea 43bd
00000040: 3706 3cbd 27af c5bd 14bf 45bd e80a e5bc
00000050: 9767 ab3c abe7 c9bd 8293 c4bd abb5 3c3b
00000060: c3ab ddbd da62 3e3e 2d93 903e f25a 19be
00000070: dd54 a6bd 6387 42be 3c08 26bd 9894 f6bd
00000080: 6b1e 6a3e d399 b1bd 8b44 a3bc 7d57 e93c
00000090: 1d3c 13be a1c0 223e c041 c83d 4707 77bd
000000a0: 5533 adbd 53b5 e0bc e0eb 8dbd cbd8 01bd
000000b0: 4e05 38bd 21fc 4f3e 886f cc3d 4133 723d
000000c0: d291 3f3d fa80 473e
-0.066927075 -0.017483532 0.044071294 -0.036032464 0.08288945 0.11696228 -0.040679242 0.079940446
0.02884291 0.08971717 0.13878608 -0.034048796 0.09238627 0.0732691 0.123377934 -0.04783141
-0.045904364 -0.09652548 -0.04827793 -0.027959302 0.020923419 -0.0985864 -0.095984474 0.0028794806
-0.108237766 0.18592396 0.28237286 -0.14976099 -0.08121655 -0.18996958 -0.040535197 -0.12040061
0.22863166 -0.08671918 -0.019930145 0.0284841 -0.143784 0.15893795 0.09778166 -0.060309675
-0.084570564 -0.027430212 -0.06929755 -0.03170089 -0.044926934 0.20311023 0.099822104 0.05913091
0.046769924 0.19482794

linear3.weight f4 [2, 50]
00000000: 1fb5 1cbd a6fb 0dbe ac90 3bbc 1167 7c3d
00000010: 3abe 593d e906 8e3d 16ec 2cbd 3729 b33c
00000020: 5f98 a3be ec49 a03b e893 123e c1b4 983c
00000030: ba49 133e 1d55 cbbe bb8f 7e3d 93fb cd3e
00000040: 38e4 02be 9452 9abd 036d 76be c163 02bd
00000050: e408 923d a56e ec3c 7ba6 123d 0112 5f3d
00000060: 4542 263e 6718 77be e924 2cbe fe14 dfbd
00000070: 6a3e 4bbd 8705 3fbd cae0 793d a63c 9c3d
00000080: afa5 14be 6455 59bd d9bd d0be f16d 533d
00000090: f6b2 e53c f15b bf3e 74d1 843c 2982 4bbc
000000a0: 80a3 d73d 317e ac3d 72e8 63bc 3a1f 22be
000000b0: e214 603e 7fac cebd c27e cfbd 0ccc b33d
000000c0: 0dd4 fa3d 506e 23be eabe 353d 4e6a 433d
000000d0: 4510 eb3d d163 adbc 09e6 5cbe facb fbbd
000000e0: 935b 2ebe e3eb 6bbe 504f 78be b28e e43d
000000f0: 0ef4 883e 3ba4 d0bd eb14 263e 2f81 d03e
00000100: 45ae a23e 5d0e 64be f472 f4ba c0c3 0bbe
00000110: 6153 e1bd 09f0 6abd 3865 893d b91b b3bd
00000120: f67c 00bd 5b60 1dbd 7ff5 6cbd 1832 14be
00000130: e007 e9bd 44f6 25bd c553 60bc e3a7 e0ba
00000140: a38a 453c 9f02 a3bc 1905 68be fa19 25bd
00000150: 4534 eabd 69ee 39be fda8 1d3d ca5e 453f
00000160: f488 4bbe fbd7 46be 27b0 07be 1dda babc
00000170: 190a b3b9 bb8e 1bbe dde5 543e 77f8 66bd
00000180: 579a 92bd e002 5bbe a2bb 883e 8b69 913e
-0.038258668 -0.13865528 -0.011448067 0.06162173 0.05315993 0.06934912 -0.042217337 0.021870239
-0.31952187 0.0048916247 0.14314234 0.018640878 0.14383593 -0.39713374 0.06214879 0.40230998
-0.12782371 -0.07535282 -0.24065022 -0.031833414 0.07130602 0.028861353 0.0358033 0.05446053
0.16236217 -0.24130403 -0.16810955 -0.10892676 -0.04962007 -0.04663613 0.06100539 0.07628755
-0.14516328 -0.05305995 -0.40769842 0.05161852 0.028039437 0.37374833 0.016213156 -0.012421169
0.10529232 0.084225066 -0.0139104 -0.15832224 0.21882966 -0.10091495 -0.10131599 0.08779153
0.12247477 -0.1596005 0.044371523 0.047708802 0.114777125 -0.02116576 -0.21572126 -0.12294765
-0.1702712 -0.23039202 -0.24249005 0.111600295 0.267487 -0.101875745 0.16218917 0.4072356
0.31773582 -0.22271104 -0.0018649981 -0.13648891 -0.110022314 -0.05735782 0.06708759 -0.08745522
-0.031369172 -0.03842197 -0.05785131 -0.14472234 -0.11378455 -0.04051806 -0.013691847 -0.0017139878
0.012056979 -0.01989871 -0.22658195 -0.040307976 -0.11435751 -0.18157353 0.038491238 0.7709776
-0.19876462 -0.19418328 -0.1325079 -0.022809083 -0.00034149064 -0.15191166 0.20790811 -0.0563893
-0.07158344 -0.21387815 0.26705652 0.28400835

linear3.bias f4 [2]
00000000: 1d60 40be 4738 c0be
-0.18786664 -0.37542936
