dkl_gp_for_Keyhole.pth (torch, 61237 bytes, 9 tensors)

variational_strategy.inducing_points f4 [88, 2]
000000 ea f9 02 3e 90 15 0c 3e b3 68 0e 3f e9 51 09 3f
       0.12790647 0.136801 0.5562851 0.5364061
000010 71 dd 01 3f a0 20 01 3f 58 40 f6 3e ec db 03 3f
       0.5072852 0.50440407 0.48095965 0.5150745
000020 1f 6f df 3e 9b 33 fa 3e 77 47 2f 3e e0 47 70 3e
       0.43639466 0.48867497 0.17117105 0.23464918
000030 d5 e5 21 3e d9 9a f5 3d dd 7a 90 3e 03 4f 6b 3e
       0.1581033 0.119924255 0.28218737 0.2297936
000040 67 f0 c5 3f 97 9f 1a 3f 83 63 b1 3f 52 29 84 3e
       1.546399 0.60399765 1.3858494 0.25812775
000050 6a 87 37 3f d7 8b 51 3f 12 36 89 3f df b8 2f be
       0.71691 0.81854004 1.0719626 -0.17160366
000060 be 2b 46 3f 03 52 3b 3f 0d 08 99 3e fc 0f c4 3e
       0.77410495 0.73172015 0.29888955 0.38293445
000070 e2 35 3d 3f d4 80 2d 3f 55 f7 aa 3e ab 75 ad 3e
       0.73910344 0.677747 0.33391824 0.33878836
000080 78 ba e0 be e2 f2 b5 3f ea e2 86 3f 45 60 8b be
       -0.43892264 1.4214747 1.0537999 -0.27221885
000090 f8 92 f9 3d d1 44 cc 3d ee 86 09 3f 6a 30 0d 3f
       0.12186235 0.09974063 0.5372151 0.55152
0000a0 a7 cc a3 3f d7 ae fd 3e d6 40 fb 3d 76 56 94 bc
       1.279683 0.49547455 0.12268226 -0.018107634
0000b0 3c 09 0c 3f 71 2e 2c 3f 8f c4 5d 3f 2c 67 81 3f
       0.5470159 0.67258364 0.8662805 1.010961
0000c0 83 cf fc 3d 23 07 8a 3e 96 af 00 3f b4 a8 05 3f
       0.12344267 0.2695857 0.5026792 0.52210546
0000d0 b2 e7 4a 3f 7f e3 78 3f ca 7f f0 3e e3 cc 04 3f
       0.7925979 0.9722213 0.46972495 0.5187513
0000e0 56 d6 82 3e bb 62 e3 3e 03 a7 76 3f 83 3e b4 bd
       0.2555415 0.44411263 0.9634859 -0.08800986
0000f0 26 51 d9 3e 7d 66 ea 3e d1 94 68 3e 3a 51 8d 3e
       0.42444724 0.45781317 0.22713019 0.27601033
000100 b1 41 04 3f f9 4c 11 3f 5a 9b ca 3e 70 49 1e 3f
       0.5166274 0.56758076 0.3957165 0.61830807
000110 4f 37 84 be e8 28 98 3f ba e5 4e 3f 5a b0 7a 3f
       -0.25823447 1.1887484 0.80819285 0.9792534
000120 c6 82 aa 3e 61 ac ca 3e 14 b6 b8 3e e7 45 d6 3e
       0.33302897 0.3958464 0.36076415 0.41850206
000130 65 15 59 3e cc 21 5c 3e 2d b1 a5 3e b4 19 c5 3e
       0.21199568 0.21497267 0.32361737 0.38496172
000140 28 96 17 3e 2f 53 29 3e 82 f2 b5 3e 4d 11 1e 3f
       0.14803374 0.16535638 0.3553658 0.6174515
000150 94 98 13 3f 10 74 31 3f b0 e4 30 be cc 36 82 3f
       0.5765469 0.6931772 -0.17274737 1.0172973
000160 a6 a3 05 3f 9d 64 29 3f e6 f2 0c be eb 59 4b 3f
       0.5220283 0.6616915 -0.13764533 0.7943408
000170 27 09 35 3f 9b 8a 5f 3f 96 92 0a 3f 02 df 1d 3f
       0.7071709 0.8732087 0.5412992 0.6166841
000180 0d da 27 3f 05 ef 0f 3f 5f e6 24 3f 6b 8d 3f 3f
       0.65567094 0.5622409 0.6441402 0.7482516
000190 99 35 6d 3f 0c 6e 97 3f a2 67 16 3f d3 a1 c9 3e
       0.9265991 1.1830459 0.5875188 0.39381275
0001a0 03 34 9a 3e 6c fd b8 3e 8c 2f 47 3f 15 54 7b be
       0.30117807 0.36130846 0.77806926 -0.24543793
0001b0 e9 dc 2b 3f 0f 53 33 3f d6 fe 07 3f 7f 45 11 3f
       0.6713396 0.7004861 0.53123224 0.5674667
0001c0 53 e4 24 3f 88 37 45 3f e4 51 6e 3f bc 12 40 bd
       0.64410895 0.7703786 0.93093705 -0.046892866
0001d0 71 b1 94 3f 6d 85 13 3f 6b a6 1d 3f 63 89 44 3f
       1.1616651 0.57625467 0.6158206 0.76772135
0001e0 fb e9 b5 3e 06 cb 44 3e 95 1e 0f 3f 9f d1 2c 3f
       0.35530075 0.19218072 0.5590604 0.67507356
0001f0 e7 8e 2b 3f e6 70 29 3f 84 be 36 3f d0 d0 16 3f
       0.67014927 0.66187894 0.71384454 0.5891237
000200 27 cd 36 3f 0e bc 3f 3f 23 47 83 3e e9 ae 9d 3e
       0.7140679 0.74896324 0.2564021 0.30797508
000210 82 5e 9c 3f 2d cc 96 3f 7a bd ed 3e 5b 37 9c 3f
       1.2216341 1.178106 0.46433622 1.2204393
000220 99 37 2d 3f bf 22 d1 3e 38 f6 8f 3f f7 0c 38 3e
       0.6766296 0.40846822 1.1247015 0.17973696
000230 9e fa 07 3f a3 10 08 3f 77 bb 12 3e 33 c2 58 3f
       0.53116786 0.53150386 0.14329325 0.84671324
000240 8f e0 2b 3d 98 f8 e7 3d 49 75 05 3f 67 d9 7d 3e
       0.041962203 0.11326712 0.5213209 0.24789964
000250 81 25 46 3e f5 81 55 3e 40 6a 4d 3b 49 21 2f 3e
       0.19350244 0.20850356 0.0031343848 0.17102541
000260 18 6f e8 3d 0c a2 f4 3e 5b b9 59 3f da 79 67 3f
       0.113493145 0.47779882 0.85048455 0.90420306
000270 ae 50 87 3f 14 39 10 3e 21 10 5f 3f 84 b0 e3 3e
       1.0571496 0.14084274 0.87133986 0.44470608
000280 7a 54 64 3f 39 3c 47 3f 69 66 82 3f 40 a4 09 3e
       0.891914 0.7782627 1.0187503 0.13441563
000290 25 64 e6 3d d4 83 d9 3d 00 29 6a 3f 48 de 95 be
       0.1124957 0.10620847 0.9146881 -0.2927115
0002a0 5f 72 75 3f 23 54 09 bd 23 7d 12 3e 19 13 bb 3e
       0.9587764 -0.033527505 0.14305548 0.36538008
0002b0 ff 8a 82 3f 9e 69 08 3f 0e 25 ac 3e 72 6d a3 3d
       1.0198668 0.5328616 0.3362202 0.079798594

variational_strategy._variational_distribution.variational_mean f4 [88]
000000 77 1e 81 3f f5 9b 50 3f c5 0d 15 bf b4 e6 13 bf
       1.0087422 0.8148797 -0.58224136 -0.577739
000010 3e 29 84 bf 54 50 6f bf d5 4c 24 3f 92 b1 15 3f
       -1.0325086 -0.93481946 0.64179736 0.58474076
000020 df dd fd 3e 71 06 0c 3f aa af 1e bf df fc 02 3f
       0.49583337 0.5469733 -0.6198679 0.511671
000030 38 15 05 3f 32 ea 78 bf 27 be 14 bf 9b f8 76 3d
       0.519855 -0.97232354 -0.5810265 0.060295682
000040 76 d1 46 bf ea b1 b3 be 42 6c d1 bc 2d f7 3f 3c
       -0.7766336 -0.35096675 -0.025564317 0.011716646
000050 fd 38 1a 3e 5b f3 a3 3e a0 98 84 bf 72 da bc ba
       0.15060802 0.32021603 -1.0359077 -0.0014408363
000060 16 0d 23 bf c7 57 c6 bb 4d de bc be d8 94 70 bb
       -0.6369184 -0.0060529443 -0.36888352 -0.0036709812
000070 09 96 22 bf 09 d0 71 3e b1 ca 42 3b b5 90 a8 bd
       -0.63510185 0.23614515 0.0029722864 -0.08230726
000080 1e d4 5e bc b7 1d cc be d0 59 4e be 57 f6 fc ba
       -0.013600377 -0.3986642 -0.20151448 -0.0019299489
000090 36 b6 60 3b 81 8d 11 3b 48 01 7f 3c bb 22 fd ba
       0.0034288294 0.0022209587 0.01556427 -0.0019312719
0000a0 08 c9 1c bb 02 f6 7d be c5 c2 86 bd b7 19 87 bd
       -0.0023923535 -0.24800876 -0.06580118 -0.065967016
0000b0 2d 8a f5 3b 95 76 0e bd a0 f4 77 bc 9b 86 8c bc
       0.0074932785 -0.034781057 -0.015134007 -0.017154029
0000c0 5c f9 8e 3d f8 f6 a7 bb d0 f3 1a ba 17 97 ef 3d
       0.06981155 -0.0051258765 -0.00059109647 0.1169874
0000d0 06 73 34 ba 66 1a 06 3e 24 59 34 bb dc 6a 3d bb
       -0.0006883595 0.13096008 -0.0027518952 -0.0028902804
0000e0 ec 8f 9b 3b 82 be 3f 3d 58 96 bb 3d 9c 00 f6 ba
       0.0047473814 0.04681254 0.09159535 -0.0018768492
0000f0 59 ed 6f 3d ad 42 8e 3a 99 cc b6 3b 17 19 87 3d
       0.05857596 0.0010853611 0.005578589 0.065965824
000100 49 4f e6 3a 31 dd cf 39 4a 36 0e 3b 71 5f a7 bc
       0.0017571236 0.00039646917 0.002169984 -0.020431252
000110 88 40 33 3d ca 6f 5c bc 1f c5 36 3b 36 86 cb ba
       0.043762714 -0.013454387 0.002788849 -0.0015527669
000120 f6 4d 30 bb 40 84 03 3c dc 18 49 ba 30 0c b5 39
       -0.0026901937 0.008027136 -0.0007671246 0.0003453209
000130 2a b9 be bb e1 98 99 3a 6b 46 81 3b 3c 57 33 3d
       -0.005820413 0.0011718535 0.003945162 0.043784365
000140 04 41 9e b8 73 e7 c9 3a e5 15 07 3c b2 d9 a2 b9
       -7.546137e-05 0.001540406 0.008244966 -0.00031061243
000150 42 60 65 3a 5d eb a0 3a 52 17 c4 3b 94 9f 34 bb
       0.000875 0.0012277175 0.0059842253 -0.0027560936

variational_strategy._variational_distribution.chol_variational_covar f4 [88, 88]
000000 e2 a4 23 3f 00 00 00 00 00 00 00 00 00 00 00 00
       0.63923466 0.0 0.0 0.0
000010 00 00 00 00 00 00 00 00 00 00 00 00 00 00 00 00
       0.0 0.0 0.0 0.0
000020 00 00 00 00 00 00 00 00 00 00 00 00 00 00 00 00
       0.0 0.0 0.0 0.0
000030 00 00 00 00 00 00 00 00 00 00 00 00 00 00 00 00
       0.0 0.0 0.0 0.0
000040 00 00 00 00 00 00 00 00 00 00 00 00 00 00 00 00
       0.0 0.0 0.0 0.0
000050 00 00 00 00 00 00 00 00 00 00 00 00 00 00 00 00
       0.0 0.0 0.0 0.0
000060 00 00 00 00 00 00 00 00 00 00 00 00 00 00 00 00
       0.0 0.0 0.0 0.0
000070 00 00 00 00 00 00 00 00 00 00 00 00 00 00 00 00
       0.0 0.0 0.0 0.0
000080 00 00 00 00 00 00 00 00 00 00 00 00 00 00 00 00
       0.0 0.0 0.0 0.0
000090 00 00 00 00 00 00 00 00 00 00 00 00 00 00 00 00
       0.0 0.0 0.0 0.0
0000a0 00 00 00 00 00 00 00 00 00 00 00 00 00 00 00 00
       0.0 0.0 0.0 0.0
0000b0 00 00 00 00 00 00 00 00 00 00 00 00 00 00 00 00
       0.0 0.0 0.0 0.0
0000c0 00 00 00 00 00 00 00 00 00 00 00 00 00 00 00 00
       0.0 0.0 0.0 0.0
0000d0 00 00 00 00 00 00 00 00 00 00 00 00 00 00 00 00
       0.0 0.0 0.0 0.0
0000e0 00 00 00 00 00 00 00 00 00 00 00 00 00 00 00 00
       0.0 0.0 0.0 0.0
0000f0 00 00 00 00 00 00 00 00 00 00 00 00 00 00 00 00
       0.0 0.0 0.0 0.0
000100 00 00 00 00 00 00 00 00 00 00 00 00 00 00 00 00
       0.0 0.0 0.0 0.0
000110 00 00 00 00 00 00 00 00 00 00 00 00 00 00 00 00
       0.0 0.0 0.0 0.0
000120 00 00 00 00 00 00 00 00 00 00 00 00 00 00 00 00
       0.0 0.0 0.0 0.0
000130 00 00 00 00 00 00 00 00 00 00 00 00 00 00 00 00
       0.0 0.0 0.0 0.0
000140 00 00 00 00 00 00 00 00 00 00 00 00 00 00 00 00
       0.0 0.0 0.0 0.0
000150 00 00 00 00 00 00 00 00 00 00 00 00 00 00 00 00
       0.0 0.0 0.0 0.0
000160 7d 73 bf be 51 16 44 3f 00 00 00 00 00 00 00 00
       -0.37392798 0.7659655 0.0 0.0
000170 00 00 00 00 00 00 00 00 00 00 00 00 00 00 00 00
       0.0 0.0 0.0 0.0
000180 00 00 00 00 00 00 00 00 00 00 00 00 00 00 00 00
       0.0 0.0 0.0 0.0
000190 00 00 00 00 00 00 00 00 00 00 00 00 00 00 00 00
       0.0 0.0 0.0 0.0
0001a0 00 00 00 00 00 00 00 00 00 00 00 00 00 00 00 00
       0.0 0.0 0.0 0.0
0001b0 00 00 00 00 00 00 00 00 00 00 00 00 00 00 00 00
       0.0 0.0 0.0 0.0
0001c0 00 00 00 00 00 00 00 00 00 00 00 00 00 00 00 00
       0.0 0.0 0.0 0.0
0001d0 00 00 00 00 00 00 00 00 00 00 00 00 00 00 00 00
       0.0 0.0 0.0 0.0
0001e0 00 00 00 00 00 00 00 00 00 00 00 00 00 00 00 00
       0.0 0.0 0.0 0.0
0001f0 00 00 00 00 00 00 00 00 00 00 00 00 00 00 00 00
       0.0 0.0 0.0 0.0
000200 00 00 00 00 00 00 00 00 00 00 00 00 00 00 00 00
       0.0 0.0 0.0 0.0
000210 00 00 00 00 00 00 00 00 00 00 00 00 00 00 00 00
       0.0 0.0 0.0 0.0
000220 00 00 00 00 00 00 00 00 00 00 00 00 00 00 00 00
       0.0 0.0 0.0 0.0
000230 00 00 00 00 00 00 00 00 00 00 00 00 00 00 00 00
       0.0 0.0 0.0 0.0
000240 00 00 00 00 00 00 00 00 00 00 00 00 00 00 00 00
       0.0 0.0 0.0 0.0
000250 00 00 00 00 00 00 00 00 00 00 00 00 00 00 00 00
       0.0 0.0 0.0 0.0
000260 00 00 00 00 00 00 00 00 00 00 00 00 00 00 00 00
       0.0 0.0 0.0 0.0
000270 00 00 00 00 00 00 00 00 00 00 00 00 00 00 00 00
       0.0 0.0 0.0 0.0
000280 00 00 00 00 00 00 00 00 00 00 00 00 00 00 00 00
       0.0 0.0 0.0 0.0
000290 00 00 00 00 00 00 00 00 00 00 00 00 00 00 00 00
       0.0 0.0 0.0 0.0
0002a0 00 00 00 00 00 00 00 00 00 00 00 00 00 00 00 00
       0.0 0.0 0.0 0.0
0002b0 00 00 00 00 00 00 00 00 00 00 00 00 00 00 00 00
       0.0 0.0 0.0 0.0
0002c0 37 d3 1b be 8f 51 48 3d c9 4e 4e 3f 00 00 00 00
       -0.15217291 0.048905905 0.80588967 0.0
0002d0 00 00 00 00 00 00 00 00 00 00 00 00 00 00 00 00
       0.0 0.0 0.0 0.0
0002e0 00 00 00 00 00 00 00 00 00 00 00 00 00 00 00 00
       0.0 0.0 0.0 0.0
0002f0 00 00 00 00 00 00 00 00 00 00 00 00 00 00 00 00
       0.0 0.0 0.0 0.0
000300 00 00 00 00 00 00 00 00 00 00 00 00 00 00 00 00
       0.0 0.0 0.0 0.0
000310 00 00 00 00 00 00 00 00 00 00 00 00 00 00 00 00
       0.0 0.0 0.0 0.0
000320 00 00 00 00 00 00 00 00 00 00 00 00 00 00 00 00
       0.0 0.0 0.0 0.0
000330 00 00 00 00 00 00 00 00 00 00 00 00 00 00 00 00
       0.0 0.0 0.0 0.0
000340 00 00 00 00 00 00 00 00 00 00 00 00 00 00 00 00
       0.0 0.0 0.0 0.0
000350 00 00 00 00 00 00 00 00 00 00 00 00 00 00 00 00
       0.0 0.0 0.0 0.0
000360 00 00 00 00 00 00 00 00 00 00 00 00 00 00 00 00
       0.0 0.0 0.0 0.0
000370 00 00 00 00 00 00 00 00 00 00 00 00 00 00 00 00
       0.0 0.0 0.0 0.0
000380 00 00 00 00 00 00 00 00 00 00 00 00 00 00 00 00
       0.0 0.0 0.0 0.0
000390 00 00 00 00 00 00 00 00 00 00 00 00 00 00 00 00
       0.0 0.0 0.0 0.0
0003a0 00 00 00 00 00 00 00 00 00 00 00 00 00 00 00 00
       0.0 0.0 0.0 0.0
0003b0 00 00 00 00 00 00 00 00 00 00 00 00 00 00 00 00
       0.0 0.0 0.0 0.0
0003c0 00 00 00 00 00 00 00 00 00 00 00 00 00 00 00 00
       0.0 0.0 0.0 0.0
0003d0 00 00 00 00 00 00 00 00 00 00 00 00 00 00 00 00
       0.0 0.0 0.0 0.0
0003e0 00 00 00 00 00 00 00 00 00 00 00 00 00 00 00 00
       0.0 0.0 0.0 0.0
0003f0 00 00 00 00 00 00 00 00 00 00 00 00 00 00 00 00
       0.0 0.0 0.0 0.0

feature_extractor.linear1.weight f4 [100, 2]
000000 cd f6 0d bf 5d ae 2a bf a8 b4 f0 3d 38 fb 0b bf
       -0.55454713 -0.6667231 0.117532074 -0.54680204
000010 61 37 42 be 48 fa cc 3e 68 c9 2b 3f 4a fa aa be
       -0.18966438 0.400347 0.67104197 -0.3339408
000020 18 a5 d9 3e 57 a1 f2 bd 40 e6 10 be 18 61 ab bd
       0.4250877 -0.118471794 -0.14150333 -0.083681285
000030 41 c4 b0 be 68 23 bc 3e 11 c3 04 bd 27 86 87 be
       -0.3452473 0.36745763 -0.032412592 -0.26469538
000040 cd 49 10 3f ce 6f f4 be fc e1 33 bf ac 9d 90 3e
       0.5636261 -0.4774155 -0.702667 0.28245294
000050 a7 5e d2 3d 86 49 d4 be 36 fa 04 bf 85 f4 45 3d
       0.1027196 -0.41462344 -0.5194429 0.048328895
000060 df aa 26 bf 7e 73 07 3f 12 64 a1 be 3c bc dd 3e
       -0.6510448 0.529106 -0.3152166 0.43307674
000070 41 06 ad 3e dd cf 79 3d e2 9f 8b bc 61 8b ab be
       0.33793834 0.06098925 -0.017044012 -0.33504775
000080 f5 12 71 3e 7c f2 33 bf c0 c3 0b bf 6c 59 e3 3e
       0.23542388 -0.70291877 -0.54595566 0.4440416
000090 d8 4f ab be 13 f6 09 3f 6f b9 f4 3e 47 0a 9d be
       -0.33459353 0.53891104 0.47797725 -0.30671903
0000a0 04 4a 3a bf ab 69 1d 3f 45 33 5b be 81 50 16 3f
       -0.7276919 0.6148936 -0.21406277 0.5871659
0000b0 35 86 2a bf 85 3a 79 3e 3c cc 15 bf 69 8b b8 3d
       -0.66611034 0.2433873 -0.5851476 0.090109654
0000c0 f9 7d f6 be c0 ce 81 bf 66 3b 04 be 2e 15 3d 3f
       -0.48142985 -1.014122 -0.12913284 0.7386044
0000d0 45 db a6 3d b5 3b 11 be 40 77 2f 3f e5 66 49 bd
       0.08147291 -0.14182933 0.68541336 -0.049170393
0000e0 b7 ec cc be d6 b6 23 3f 04 85 d7 3e cc 01 d3 3e
       -0.4002435 0.6395086 0.4209367 0.41212308
0000f0 af 7d c6 3e a0 de 99 3e 0e 3a e5 be 2f 95 3d 3e
       0.38767764 0.30052662 -0.44770855 0.1851394
000100 d3 3c fa be 59 39 06 be 5e 10 2e 3f 09 d2 22 bf
       -0.4887453 -0.13107814 0.67993724 -0.6360174
000110 8c e0 7c 3e 3f d5 ec be 00 21 7e 3b 90 6b ac bd
       0.24695033 -0.46256444 0.0038776994 -0.084189534
000120 0f 27 b9 be 5c 26 91 3e 55 af 06 bf ba 3d 2c 3f
       -0.36162612 0.28349578 -0.52611285 0.6728169
000130 54 45 05 bf a7 73 f2 3e e6 53 9f be 25 49 2c bf
       -0.5205891 0.4735386 -0.31118697 -0.6729911
000140 e3 47 f5 3e e2 95 5f be ba dc 9a be bb 85 f5 3d
       0.47906408 -0.2183452 -0.30246526 0.11988398
000150 f9 54 a2 be 6e 72 70 3e 60 ae 2f be 08 e9 50 be
       -0.31705454 0.23481151 -0.17156363 -0.20401394
000160 5f 12 91 3d 63 28 5a 3e 35 15 39 3f 02 06 e8 3d
       0.07083582 0.21304469 0.72297984 0.11329271
000170 b8 f7 3b be d4 42 1a be 18 7a 62 be fd 91 8e be
       -0.18356216 -0.15064555 -0.22116888 -0.27845755
000180 78 20 2d be 37 93 a4 3d fe 4c cc 3e 78 b0 aa 3e
       -0.16906917 0.080358915 0.3990249 0.3333776
000190 ab f6 07 3f e1 05 70 bf 42 d9 00 3f 2d 35 45 be
       0.5311076 -0.9375897 0.5033151 -0.19258566
0001a0 4d fe 47 bf 74 52 16 3f 96 a6 47 bf 1d e9 04 bf
       -0.7812241 0.58719563 -0.77988565 -0.519182
0001b0 48 9e 38 3e 0c c0 c9 bc 68 b4 a0 3e 91 1b 04 bf
       0.1802913 -0.024627708 0.3138764 -0.51604563
0001c0 c9 d7 e5 3e f5 ab c9 3e 9e aa e6 3e 85 35 a5 be
       0.44891194 0.39389005 0.45052046 -0.32267395
0001d0 f4 1e 97 3d 5f 95 32 ba 99 ef 4f 3f cf 6b 31 bf
       0.07378951 -0.0006812419 0.8122497 -0.6930513
0001e0 33 1d 5e bf 83 5f 3f bf f7 40 d4 3c 0b 94 f0 be
       -0.86763304 -0.74755114 0.025909884 -0.46987948
0001f0 f8 09 06 be 98 3d a9 be 9c a3 12 3e 40 b6 37 bf
       -0.1308974 -0.33054805 0.14320225 -0.71762466
000200 e5 4e 19 3f ce 3d 5b bf da 1a a0 be 31 bc 90 3d
       0.5988601 -0.8564118 -0.31270486 0.07067145
000210 3a 75 4a bf 02 0d c7 3e c9 71 87 be 33 d9 b6 be
       -0.79085124 0.38877112 -0.26454 -0.35712585
000220 34 06 23 3f ce b8 76 be 90 96 96 3d 2e 2e b6 be
       0.6368134 -0.24093935 0.07352936 -0.35582107
000230 1c 40 38 3e e9 9a 94 3e f7 df 42 3f ee e7 27 bf
       0.17993206 0.29024437 0.76122993 -0.6558827
000240 de f0 33 bf a0 2a fd be 97 43 aa 3d 2c 9b 67 bd
       -0.7028941 -0.49446583 0.08313673 -0.056544468
000250 85 49 be 3e 55 4d 19 3d f0 21 3f 3f 9e aa 23 bf
       0.37165466 0.037427265 0.7466116 -0.63932216
000260 64 ea 0d bf f2 be 62 be 50 3d 3c 3f 85 c0 1b bf
       -0.55435777 -0.22143152 0.73531055 -0.60840636
000270 ca 5b d3 3e ab c4 c9 3a 00 b7 a5 3e 53 1d e7 3e
       0.41280967 0.0015393695 0.3236618 0.4513956
000280 51 f5 0d 3f 91 f9 df 3e 10 eb 5f be 2b 27 b3 be
       0.5545245 0.43745092 -0.21867013 -0.3499082
000290 0c 3a 5b bb 5f 75 ab 3e d4 db db 3d bc 03 6d be
       -0.0033451347 0.33487985 0.10735288 -0.23145956
0002a0 08 39 ea bd 70 39 81 be 92 f3 93 3e 37 ec 26 bf
       -0.11436659 -0.25239134 0.28896767 -0.65204185
0002b0 2e a2 e3 3e ef fe 0c be 8a 78 db be f0 23 81 be
       0.4445967 -0.13769124 -0.42865402 -0.2522273
0002c0 dc 3c de be 96 4a 1d bf 78 b7 91 3d ac 71 24 be
       -0.43405807 -0.61441934 0.07115072 -0.16058987
0002d0 13 84 a2 be 60 a1 f6 bd ad b7 2c bd 16 5c 82 3e
       -0.3174139 -0.120424986 -0.042167354 0.2546088
0002e0 a6 1a 4f bf ce d6 45 bd c9 f6 9e 3c b6 6d 35 bf
       -0.8090004 -0.048300557 0.019404786 -0.7087053
0002f0 a0 f0 34 3f be b9 f4 be a5 b0 fd 3e b0 9b 8d 3e
       0.70679665 -0.4779796 0.49548832 0.27657843
000300 e7 a4 75 3b 1c d1 0e 3f 0e 66 1b bf b2 0f 37 bd
       0.0037482323 0.55787826 -0.607026 -0.044692703
000310 3e 52 15 bf 3b 65 dc be 7e 48 1e bb dc e3 e3 3e
       -0.58328617 -0.43045983 -0.0024152095 0.4450978

feature_extractor.linear1.bias f4 [100]
000000 f5 d7 d6 be 01 49 92 be a1 1b 89 be 9e 1a 0a 3d
       -0.41961637 -0.28571323 -0.26778892 0.03371679
000010 e3 d4 26 bf 19 47 0f bf 47 1c 3f bd c9 cc 17 3f
       -0.6516859 -0.5596786 -0.046657827 0.5929685
000020 c5 7a 17 3d a0 ae b7 be 26 36 dc 3e 62 72 24 3f
       0.036982317 -0.35875416 0.43010062 0.64237034
000030 1d d8 f6 3e 86 cb 1d 3d d7 86 9a bd e0 3d d7 3e
       0.48211756 0.038524173 -0.0754525 0.42039394
000040 8f 70 a5 3e 51 33 e1 3e 1e 50 cc 3e 65 f4 86 bd
       0.32312438 0.43984464 0.39904875 -0.06589583
000050 e6 15 2a 3f b1 30 5f bc b1 51 53 3f 5c a3 39 3f
       0.66439664 -0.013622449 0.82546526 0.7251489
000060 15 9b b8 3e 92 62 e8 3e 83 95 8f 3e df 92 d5 be
       0.36055818 0.45387703 0.28043756 -0.41713616
000070 61 b5 7d bd cd 1a 25 be 1a 73 33 bf 29 be a8 3e
       -0.061940555 -0.16123505 -0.70097506 0.3295758
000080 87 46 55 3d 3c 4e 5a 3d ac 70 ec be fd 29 21 bf
       0.052069213 0.053297266 -0.46179712 -0.62954694
000090 01 e4 5c 3d 4a 3e 0b 3f 6c 82 c9 3e 52 ba cb 3e
       0.05392838 0.5439192 0.39357316 0.3979059
0000a0 3b 4c bb 3e 6e 26 72 3e cb a6 4e 3d e0 e9 05 bf
       0.36581597 0.23647472 0.050452035 -0.5230999
0000b0 c8 ee f8 3e 12 99 04 bf cf b4 d9 be e4 1d 83 3e
       0.48619676 -0.51796067 -0.42520759 0.25608742
0000c0 d1 a6 b0 3e 72 b0 a3 be ca 09 8b 3e 26 04 35 bf
       0.3450227 -0.31970555 0.27155906 -0.70709455
0000d0 0d 92 06 3e 3f 54 16 3e 11 0d 1a 3d 1f de 10 bf
       0.13141651 0.14680575 0.037610117 -0.5658893
0000e0 50 34 f2 be 44 2b fb 3e 14 12 49 3d 5e 0e 56 bd
       -0.47305536 0.49056447 0.049089506 -0.052259795
0000f0 9c 0c 0c 3f 16 81 5c be 70 e5 05 be 3a 03 d1 3d
       0.5470674 -0.21533617 -0.13075805 0.102056935
000100 56 1b d0 3e fa a7 c7 be 88 f0 66 3e 20 89 a2 be
       0.40645856 -0.38995343 0.22552693 -0.31745243
000110 1c 07 a2 be 64 3d 43 be ef ba 10 3d 37 e7 51 3d
       -0.3164605 -0.19066387 0.035334524 0.051245894
000120 e0 35 07 bf 42 67 8d 3e d1 e8 e2 3e 18 3b 28 3d
       -0.5281658 0.27617842 0.4431825 0.04107198
000130 00 b9 81 bd 62 05 18 3d d3 c1 43 bf 9c ad ac 3e
       -0.06334114 0.03711451 -0.7646763 0.33726203
000140 bb 88 20 bd cf 05 b8 bc 46 0b a4 3d b8 be 42 3e
       -0.039192896 -0.022463707 0.08009963 0.19018066
000150 45 84 a7 be 73 eb 11 bf e3 9b 57 bf 0c 28 17 bf
       -0.327181 -0.5699989 -0.8422224 -0.5904548
000160 dc 36 18 be 8f 87 0c bf 70 39 92 bd 38 64 dc be
       -0.14864677 -0.54894346 -0.071398616 -0.4304521
000170 d1 90 56 3e 7e e4 f1 3e b3 c8 f6 3e 15 46 2d bf
       0.2095368 0.47244638 0.48199996 -0.6768506
000180 d1 12 dc be 69 be 76 3e f4 59 25 be a6 97 f6 3e
       -0.42983106 0.24096073 -0.16147596 0.48162574

feature_extractor.linear2.weight f4 [50, 100]
000000 07 e2 bb bd 23 eb bd 3d 95 0d 8e bd 75 3b a4 bd
       -0.09173971 0.092733644 -0.06936184 -0.08019153
000010 18 bd 2d bc 73 74 35 bd 65 43 8d bd b1 04 16 bb
       -0.0106041655 -0.044300508 -0.0689762 -0.002289098
000020 df d7 b7 3d 66 0c 64 3d c1 74 3f bd c3 c6 96 bd
       0.08976721 0.055675887 -0.046742205 -0.073621295
000030 6b 7e e9 bd 59 72 1b 3d 39 a3 0d bd d4 21 16 be
       -0.114010654 0.037950847 -0.03457949 -0.14661342
000040 09 df e1 3c 97 74 8a bd 66 63 fb 3b 84 f3 07 bd
       0.027572172 -0.06760519 0.0076717613 -0.03319122
000050 27 f2 95 3c 3b aa 04 be a1 77 22 3a f6 2a 96 3c
       0.018303944 -0.12955563 0.00061976357 0.018331032
000060 02 83 77 bd bb a0 de 3b 41 8a 64 bd b5 82 bb bd
       -0.060427673 0.006794063 -0.05579591 -0.0915579
000070 2a 36 ba 3d b5 e9 04 be 85 d1 6b 3d 42 ea 18 be
       0.09092362 -0.12979777 0.05757286 -0.14933112
000080 cb 8f c7 bd 40 17 f4 bc 90 2d 1f bd 55 bd c9 bd
       -0.09744223 -0.029796243 -0.03886181 -0.09850565
000090 46 70 d7 bd 63 eb 1b be ae 7b 12 be 38 9d 22 be
       -0.10519461 -0.15226512 -0.14304993 -0.15880287
0000a0 15 14 ef bd b8 7e a6 bd 42 98 16 3d 5b 14 90 bd
       -0.11673752 -0.081296384 0.036766298 -0.070351325
0000b0 f6 be 0a be 52 b8 a6 bd 25 99 bf 3d cd 8e 91 bd
       -0.13549408 -0.08140625 0.09355382 -0.07107315
0000c0 17 1c af bd 9e 94 60 3d 02 a9 ef bd 40 80 d8 bc
       -0.085502796 0.054829232 -0.117021576 -0.026428342
0000d0 2c f6 05 3d e2 91 a2 bb 2e b3 0a be b8 26 e1 bc
       0.03270547 -0.0049612382 -0.13544914 -0.027484283
0000e0 f0 e3 20 3c 45 82 bd bc 84 dc d5 bd 33 66 8f 3d
       0.00981997 -0.023133406 -0.10442451 0.07001915
0000f0 b3 42 6c bd 22 13 b1 bd 24 83 db 3c c6 f9 ae bd
       -0.057680797 -0.086462274 0.026795931 -0.08543734
000100 3d ec 54 bd 93 8d ca bd aa ef ab bd ec 62 be bc
       -0.051983107 -0.098902844 -0.08395322 -0.023240529
000110 1a f7 b7 bd 48 b6 e7 bc 63 44 61 bd 0a fc ea bd
       -0.08982678 -0.02828516 -0.05499686 -0.11473854
000120 d0 82 68 3c 49 10 d5 bb b8 44 43 bd fa 05 c9 bd
       0.014191344 -0.0065021855 -0.047672957 -0.09815593
000130 00 ab a5 b9 ea f4 3f bd 74 81 e9 3c 13 25 0f be
       -0.00031598657 -0.046864428 0.02850411 -0.13978986
000140 29 bb 00 be c0 8f 59 bb f3 98 dd ba 7b 7d ae bd
       -0.12571396 -0.0033197254 -0.0016906544 -0.08520027
000150 00 cb ac bb 28 42 22 bc c6 3e a0 bd 50 a0 01 bc
       -0.005273223 -0.009903468 -0.07824473 -0.007911757
000160 00 73 38 bb b8 98 87 3c c6 53 37 3d 5c f7 f3 3c
       -0.0028144717 0.016552314 0.044757627 0.029781036
000170 56 00 5c bb 6a 3f 9f bd e8 d3 d1 bd f4 04 04 3e
       -0.0033569536 -0.07775767 -0.10245496 0.12892514
000180 eb 8b ca 3d 43 99 7f bb 7d 30 95 3d f6 d0 2c bc
       0.098899685 -0.0039001263 0.07284639 -0.010547867
000190 af 09 b5 3d bd 27 b2 3d 6c da 5a bd 94 91 8e be
       0.088397376 0.08698986 -0.05343096 -0.27845442
0001a0 8a 82 54 bd 2d 96 9c 3d c2 bf 1e be 89 02 27 bd
       -0.051882304 0.07645831 -0.15502837 -0.040773902
0001b0 aa 68 07 bf 31 76 d5 3d 87 23 2c 3c 1b d6 59 3e
       -0.5289408 0.10422934 0.010506517 0.21273081
0001c0 cc 8f 0b 3e ae 01 dd bc 16 3d d9 bc f1 88 66 3d
       0.13629073 -0.02697834 -0.026518386 0.05628294
0001d0 3d 8f 59 be 0b ea 2b 3d f0 2b 0d 3e 72 fa a6 be
       -0.21246047 0.041971248 0.13786292 -0.3261295
0001e0 2a bd 3b 3e dd e1 40 3d 7d ae e1 3d 40 62 8e 3d
       0.18333879 0.0470904 0.11019609 0.069523335
0001f0 6c 29 a2 bd e6 2b b8 3d db 0e 80 bd e7 ae 2e bf
       -0.07918057 0.08992748 -0.062528335 -0.6823563
000200 fd 4a 59 bc 4f 6b e5 3c 9c 72 20 bd 03 52 bc 3b
       -0.0132625075 0.02800527 -0.0391718 0.0057470812
000210 a7 9a 87 3d e5 4d fe be 59 96 c5 3d 80 a8 ba bd
       0.066212945 -0.49668804 0.09647817 -0.0911417
000220 c8 86 00 3e 1d 1d 39 3e 26 3e ec 3d 99 b2 02 be
       0.12551415 0.18077512 0.115352914 -0.12763442
000230 3f 49 51 bd e5 25 4d 3d 63 48 42 3d 40 f9 74 bb
       -0.051095244 0.050084967 0.047432315 -0.003738001
000240 e2 9d 94 3d 8c 5c 0f bf 14 c3 93 3c e9 8f d3 bb
       0.07256676 -0.5600059 0.018037356 -0.0064563644
000250 ee 26 09 bd f4 76 fa bd aa b4 67 be f5 00 8f 3d
       -0.033484392 -0.1222972 -0.22627512 0.069826044
000260 86 0b bd 3d 12 c9 be 3e 7d db 26 3d c1 e1 08 bd
       0.092307135 0.3726278 0.040736664 -0.03341842
000270 cb 23 1d be 45 e2 c9 3c 83 47 7c 3d 2c 89 c8 bd
       -0.15345685 0.024644027 0.061591636 -0.097917885
000280 b4 3b 27 bc 8d bc 84 bd d8 95 62 3c a5 ba ba be
       -0.010207105 -0.06481276 0.013829671 -0.36470523
000290 08 51 39 be 56 c1 78 ba 36 a3 30 be 50 4b 7a 3c
       -0.18097317 -0.00094892585 -0.1724976 0.015276745
0002a0 d0 90 3b bf 42 89 b1 3d 7d 9b 6c 3c 4d e8 b7 be
       -0.7326784 0.08668758 0.014441368 -0.3591942
0002b0 9b de 96 3d bf b6 cb bc ba 39 86 bd d6 27 e8 be
       0.073666774 -0.024867414 -0.06553979 -0.45342892
0002c0 a0 50 5e bd d8 29 21 bf 88 b7 b0 bd bf 22 26 3c
       -0.05427611 -0.62954473 -0.08628756 0.01014012
0002d0 bb 9b 9c 3d 45 e5 93 bd 39 93 c0 bc d6 43 76 bd
       0.07646891 -0.07221464 -0.023507701 -0.060123287
0002e0 f3 14 a2 bd d8 57 99 3c 54 ca a2 bc 29 ed 9a 3d
       -0.07914152 0.018718645 -0.019871868 0.07564766
0002f0 a2 89 cb bd a0 66 5b 3b c2 9e 34 3d 7b 12 29 bd
       -0.09938361 0.0033477917 0.044096716 -0.04127739
000300 4e 7b 72 3d cf 3c 78 3b b3 78 14 be 81 d0 fc bd
       0.059199624 0.0037878042 -0.14499168 -0.123444565
000310 e6 a5 20 bd e5 b3 0e 3e 7d 60 90 3d 49 08 7e 3d
       -0.039220713 0.13935812 0.07049654 0.06201962
000320 a8 ba 2d 3c 8c 1b a6 bc 4f c9 b9 bd 72 8b 2c 3d
       0.010603584 -0.020276807 -0.090716 0.042125173
000330 f7 2b 99 3d 16 43 2b 3d 58 a5 7f bc 2f 54 b7 bd
       0.07479089 0.041812025 -0.015603386 -0.089516036
000340 00 a6 d8 ba 54 0a d5 3c a6 4c a0 bd 47 26 ae 3d
       -0.0016528964 0.026005901 -0.078271195 0.085033946
000350 40 94 2c bb 64 be df 3c e7 ab b4 3d 8e d0 31 3d
       -0.002633348 0.027312465 0.0882185 0.043411784
000360 5d f2 5d bd e2 0c 17 3d 02 d7 70 3d 4e 5b 4c 3d
       -0.054186214 0.03687752 0.058798797 0.049891762
000370 2a 71 40 bd 80 6a 26 3c 33 27 93 bd c0 12 38 bc
       -0.04698292 0.0101572275 -0.07185211 -0.011234939
000380 62 1d 8e bd 4e 27 6a 3d 79 61 c8 3d 52 59 c6 bd
       -0.06939198 0.05716639 0.097842164 -0.09685005
000390 b0 5e 3f bd 37 41 2d bd ce 67 8f bd 3b 5b ba 3d
       -0.04672116 -0.04229852 -0.07002221 0.09099432
0003a0 1b 32 9e bd 57 24 56 bd 4d 22 aa bd 00 f2 ad b9
       -0.077244006 -0.05228075 -0.083073236 -0.00033177435
0003b0 4b 97 97 bd a4 f4 89 bd bb a6 cb 3d 9e 08 37 3d
       -0.07401904 -0.067361146 0.09943911 0.044685952
0003c0 3a c5 2d 3d 51 3e 91 3d a8 8c 8d 3c e8 ee 84 3c
       0.042424418 0.07091964 0.017278984 0.0162272
0003d0 6a d2 99 bd cc 23 e6 3c a2 00 a0 bd 00 1d e4 b9
       -0.075108364 0.028093241 -0.07812621 -0.00043509156
0003e0 6d 09 5d bd 2a 2b 68 bd 0d d2 6f bd 13 48 46 bd
       -0.053964067 -0.05668179 -0.05854993 -0.04840858
0003f0 b3 98 73 bd 47 01 60 bd 7c 34 15 bd b0 20 bb bd
       -0.059471797 -0.05468872 -0.036427006 -0.09137094

feature_extractor.linear2.bias f4 [50]
000000 d2 3e 8f bb e6 b4 b9 3d fa c9 52 bd df e8 5b bc
       -0.0043715024 0.09067707 -0.05146215 -0.01342222
000010 a4 7e 2e 3e 5f b4 95 3e 17 26 e3 3d 5c 93 0d 3e
       0.17040497 0.29239175 0.110912494 0.13825744
000020 ee a6 2e bd 4d c0 17 be 46 2d 5a 3d 37 31 8b bd
       -0.042639665 -0.1481945 0.053265832 -0.06796496
000030 29 ed 9c 3a 66 03 d1 3d b3 bc ad 3d b5 67 bb bd
       0.0011972535 0.10205726 0.08483257 -0.0915064
000040 99 92 99 bd 20 c3 b4 bd 1e f3 6f bd 1d e0 e5 bd
       -0.074986644 -0.0882628 -0.058581464 -0.11224387
000050 9a 0a c1 bd bd d3 8e 3d 45 65 79 3e 50 a5 1f 3d
       -0.0942585 0.069739796 0.24355038 0.038976014
000060 57 32 44 bd 67 9d 03 3d da fd 17 bd ff 70 7a bd
       -0.04789957 0.032132532 -0.037107326 -0.061142918
000070 c3 6c 8c bd 7f 67 92 3e 9b 49 a0 bd 1f 31 c5 bc
       -0.06856682 0.28594586 -0.07826539 -0.024071274
000080 66 5c 3f 3d 89 95 8f 3c c6 58 77 3d 26 de 23 3e
       0.046718977 0.017527359 0.060387395 0.16002712
000090 9a e2 bc 3e 25 27 cc bd f6 1f 08 3e 55 1b b5 3e
       0.36891633 -0.09968404 0.13293442 0.35372415
0000a0 1f 78 84 3d 3d 92 a7 3b 22 d3 0d be 88 6e d9 3c
       0.06468224 0.0051138685 -0.13850072 0.026541963
0000b0 76 12 1a bd 50 02 34 be 96 89 1c 3d 68 1a 21 3e
       -0.037615262 -0.17579007 0.03821715 0.1573273
0000c0 f2 34 4f 3c 4d 30 1c 3d
       0.0126469005 0.038132

feature_extractor.linear3.weight f4 [2, 50]
000000 10 99 89 3d c7 e8 be 3e b8 03 00 be f3 d3 68 be
       0.067186475 0.3728697 -0.12501419 -0.22737102
000010 95 ce 4a 3e 51 7a 31 3b 99 2e 8b be 38 f4 b2 be
       0.19805367 0.0027080963 -0.2718399 -0.3495195
000020 87 c4 ba 3e 58 0c fa 3c 70 ac db bd ba 80 57 bb
       0.36478063 0.030523464 -0.10726249 -0.0032883123
000030 f1 99 b8 3d ed d3 78 be 66 a4 df be c9 e2 80 bc
       0.09013737 -0.24299593 -0.43680114 -0.01573314
000040 01 19 8b be 1a 0c ce 3d c2 d0 90 be e7 03 a5 bd
       -0.27167514 0.10060902 -0.2828427 -0.08057385
000050 44 53 10 3d e8 b7 27 be e8 d9 53 be fd f7 4c be
       0.03523566 -0.16378748 -0.20688593 -0.20016475
000060 a1 b3 2b 3e 67 03 cf 3e e4 1a bc bd ff da 09 be
       0.16767742 0.40432283 -0.091848165 -0.13462447
000070 b0 14 16 3e 57 c9 8b 3e 93 de c8 3d 60 c6 28 3e
       0.14656329 0.27302048 0.09808078 0.16481924
000080 13 3c 8a 3e d3 d4 a3 3c 32 83 cd bc 9b 24 ba 3e
       0.26998958 0.019998943 -0.025086973 0.36356053
000090 80 7d 85 bd 50 b7 1d 3c 3d f0 9a bd e7 bf 8b be
       -0.06518078 0.009626225 -0.07565353 -0.27294847
0000a0 64 60 f2 3e 9b 49 42 3d 66 6c 0b bd 38 84 07 3d
       0.47339165 0.047433477 -0.034038924 0.033085078
0000b0 8c 65 20 3d 16 af 29 39 8a 60 5d 3c a4 61 43 3d
       0.039159343 0.0001618232 0.013511786 0.04770054
0000c0 ed d4 6f 3d 15 87 69 3d cf 3c b4 bc f3 0a 90 3e
       0.05855267 0.05701359 -0.022001652 0.28133354
0000d0 74 16 c8 bd 74 6b 29 3d 96 41 02 3c b3 8b 70 3d
       -0.097699076 0.04136224 0.007950207 0.058726978
0000e0 e3 99 d8 bd 82 2c a6 be 9e 4b a8 3e eb 8c a6 bd
       -0.105762266 -0.32455832 0.3287019 -0.08132347
0000f0 60 83 6c 3d 30 01 0b 3e a7 eb 32 bc 6d 25 b6 bd
       0.057742476 0.13574672 -0.010920442 -0.08893857
000100 22 5b 51 be b3 93 33 be 2e 06 7a be 9c 65 88 3d
       -0.2044492 -0.17536812 -0.2441642 0.066600055
000110 4c 55 ff ba f1 ee ba bd 10 97 52 bd 83 73 21 be
       -0.0019480377 -0.09127606 -0.051413596 -0.1576672
000120 da ac 79 be cd 8b ba 3d ca d2 9e 3d e3 fa 53 3e
       -0.24382344 0.09108696 0.077550486 0.20701174
000130 70 4d 0c be 95 4f b6 bd a7 9d e1 bb 7f 5c 2f 3e
       -0.13701415 -0.08901898 -0.0068852487 0.17125128
000140 0b eb 76 bd 2e 52 10 3d 71 46 6f 3e 89 9d 2e be
       -0.06028275 0.035234623 0.23366715 -0.17052282
000150 e3 5c 39 3e 8b 9f 27 bd 53 8b d5 3d ee 77 db 3d
       0.1810184 -0.040923636 0.104269646 0.10716234
000160 0c 97 aa 3d c1 80 44 be 10 87 a4 3e 67 53 18 be
       0.08329591 -0.1918974 0.32134295 -0.14875565
000170 0f 9a 80 bc 68 bc a3 3d 56 98 b2 bd c0 82 7d bc
       -0.01569846 0.0799492 -0.08720462 -0.015473068
000180 44 de 8b bc 5a 9e 85 be 2e a2 ae 3d 2b c7 12 be
       -0.017073758 -0.26097375 0.08527027 -0.14333789

feature_extractor.linear3.bias f4 [2]
000000 ec 8c 64 3c 92 9b 2a 3e
       0.013949614 0.16660908
