dkl_kernel_for_Depth.pth (torch, 50513 bytes, 16 tensors)

likelihood.noise_covar.raw_noise f8 [1]
00000000: 340a 5f7c 30a1 10c0
-4.157411521244786

likelihood.noise_covar.raw_noise_constraint.lower_bound f8 []
00000000: 2d43 1ceb e236 1a3f
0.0001

likelihood.noise_covar.raw_noise_constraint.upper_bound f8 []
00000000: 0000 0000 0000 f07f
inf

feature_extractor.linear1.weight f8 [100, 2]
00000000: 5155 1a50 542b e4bf 5618 7295 c2b3 d1bf
00000010: fc4c db48 c906 d53f 1261 c890 e9ed e23f
00000020: 6665 689a ce26 da3f 4d9c 84b3 613b e6bf
00000030: 084c a303 27a4 e9bf 5740 5322 b054 c23f
00000040: 7cd2 70ab 1a8d ae3f 82e4 e660 f16a c63f
00000050: 9600 459b fa86 d43f ad4e 1a19 2772 d9bf
00000060: 1ef9 9928 08eb d4bf 9406 4825 2108 dbbf
00000070: bbe1 c047 a8cc e3bf 604c 71eb 9556 95bf
00000080: f007 656a f241 e0bf 5d49 4328 c55f eb3f
00000090: bdd7 c5fb 1970 d73f e682 5032 ee7d c6bf
000000a0: 35e8 c03d 093c e33f 1b33 1760 aa71 b8bf
000000b0: d8bf c815 58c9 bebf e40d cb68 b401 e3bf
000000c0: eb2c b915 0b08 943f 8277 c5c7 e46f dfbf
000000d0: e4c9 1b6e 540d e5bf ea39 0e90 679b da3f
000000e0: b422 6925 f6a2 c33f 1bc2 f167 6bf6 e2bf
000000f0: 678f 0860 cee3 a5bf 4b32 e39b ab7b d83f
00000100: 1c49 a9b6 f189 e03f c420 3fde 7684 e3bf
00000110: c08d f747 0873 a83f 30fa 8365 9bf5 b93f
00000120: a70e 5e8b 2bb0 d53f 1660 b0fe de21 e6bf
00000130: 9998 6814 382b d0bf af92 8cbd a1e7 e3bf
00000140: 13af 9fe6 3e9f 8c3f 06cd 19c8 9985 e33f
00000150: 5153 c362 0c82 e73f f6dc 8617 93ac d8bf
00000160: f1e9 5732 86fd debf 5d0c 2246 3662 e53f
00000170: 748c ed50 967a da3f 86b8 443a 0b79 c6bf
00000180: b2cf 0847 7ebe de3f 744d 7278 d416 c5bf
00000190: d1b4 6590 6b3b dfbf cc7e 1078 34e3 c73f
000001a0: 5ce4 c2af d7db b53f d9e8 12d4 d45e d73f
000001b0: bb7c b631 ab67 db3f 091e ae4d b571 d03f
000001c0: 5d62 fce9 5da3 dc3f 211a 7c13 1061 e0bf
000001d0: a8f2 eab4 af8a a93f d422 b5a8 b3d1 e73f
000001e0: 57f9 c31a 5867 e83f e435 5a5a 48fd d2bf
000001f0: 60a4 5087 ff49 97bf 8420 8473 eed4 e2bf
00000200: 664e 89e1 3913 d13f 1516 34a2 589a e73f
00000210: cb76 1d8f 7540 df3f f47d f367 6ab4 e5bf
00000220: 5306 c386 a887 a2bf 2d2c 22d8 68b8 e13f
00000230: f8b3 8ac5 8505 e63f d52a 4f34 f1cf da3f
00000240: c84e afc4 aecc cebf 70ff 56c2 2433 e13f
00000250: 45a5 1e65 85b7 d7bf a0da 9f69 1fe7 d7bf
00000260: 68c1 0f2a e98e cc3f 6cc1 891f eebc c8bf
00000270: 9091 0e5f bddf e4bf 4751 34b3 8fbd e53f
00000280: f235 8c0a f191 e53f 19b7 f7a4 d279 e6bf
00000290: d0d1 2bc2 f0d6 d93f e223 6205 8f83 c43f
000002a0: 775a 3e41 4e71 d53f 9fe5 4725 7503 e6bf
000002b0: 782d 70d0 4aa5 a83f 190f b233 1b62 b43f
000002c0: 06d7 e546 ab3b f0bf ab5d dbd6 1937 a4bf
000002d0: 09e1 ab1c c788 bfbf 0a49 da47 1411 d83f
000002e0: 96a7 e6cd cfc7 cd3f dc3a 30ec 1a65 c33f
000002f0: 317f 5f7a c265 d1bf 4852 7d2d c14e e83f
00000300: 8ae2 77e5 4c24 cf3f 176e b4a0 cd4c dabf
00000310: 6a71 d04b 920b d43f ce78 7cdf 0af9 d9bf
00000320: 21b5 ac0c e096 c43f 5782 49f6 cbc6 babf
00000330: c8c8 6c95 486b c23f 8da7 7edf 4632 f33f
00000340: fdf1 33b5 fe35 f0bf 4f50 e07c b468 d6bf
00000350: be1e 2961 5d5a c23f a0d1 31e6 0cb5 c53f
00000360: 6f98 f5ff c993 c73f 78cf d337 2922 debf
00000370: 349a 6144 9bd1 debf 8813 9d03 4e9e c03f
00000380: 1d00 d7a5 46c4 e2bf 887c 1b26 6e4a c63f
00000390: 96fc 8049 4a71 c13f c260 ce8c deaf e63f
000003a0: 4c15 73c4 5687 d53f c245 dcd8 acc6 e23f
000003b0: e8d1 1b7a 4fb1 d53f 821e 1054 9701 e7bf
000003c0: 1dd7 eed6 a2eb e33f f362 b9af 3868 b73f
000003d0: 2b54 e441 f015 b1bf 0ab8 d6f7 6e9f d6bf
000003e0: ac0e 4bce 05a3 d13f 7d5a d9b6 70c5 dabf
000003f0: d076 33db 28ba b8bf b06d 8291 ad87 b93f
00000400: ac05 1e2e 519e ebbf b62f 3f38 fb74 cfbf
00000410: 0906 aa5f 12a9 e1bf 20fc e0ed ae90 bcbf
00000420: 283c 6ae5 d4e1 e83f 3c25 1164 1e51 b4bf
00000430: 84a0 9826 34e8 c93f a7a4 021c ded6 e1bf
00000440: 796a 8738 5986 d73f ebb1 6d68 b9fb b53f
00000450: 08ff 40a1 80a2 e33f 6567 ba1c 78b2 d93f
00000460: 3139 bca6 89fe edbf b015 16e9 a2e3 e53f
00000470: bb06 9179 11fb e2bf 9c44 1e08 7879 c63f
00000480: f953 d502 e9fd e1bf 8ea7 80ea adc2 d2bf
00000490: feef 4c74 53ef e1bf f833 e0d1 5bfe d0bf
000004a0: 9156 891a 4424 c13f 3eb2 79da ccee d93f
000004b0: 763e 5441 aea8 dfbf ddd8 b1cf 6993 e0bf
000004c0: 1dc6 8c29 9be6 ccbf 1b50 8ee0 45aa a63f
000004d0: 1019 a579 1482 e1bf 3008 7de0 9bec aa3f
000004e0: 8be5 1959 f960 d13f 0a40 fecb 320e c0bf
000004f0: 3479 d8e5 8025 d93f ad9e 1137 2320 dabf
00000500: 0526 c35d fc84 da3f bd88 8c04 4b6f efbf
00000510: cc14 1e97 9bd5 bc3f 6b8c 8aa5 6ce8 b7bf
00000520: 400f d01c 044e d73f a4b6 1580 8cc6 e73f
00000530: aba7 490c e853 d8bf 78dd 4c7f b178 dd3f
00000540: 1089 d470 6c36 bdbf e06b a86c 2654 a7bf
00000550: 1be0 91fa e42a d83f c6cf 77df cb11 e7bf
00000560: 2c31 b9c3 2b2f dabf 1786 25a3 9733 eb3f
00000570: 2835 ba3e 39e2 b53f d051 eb38 d024 b4bf
00000580: f0a1 c9fc 3ced ce3f 504f 59f7 7b31 cabf
00000590: 0654 6bba a0f7 ddbf 6e93 a78c ba32 d33f
000005a0: 6b63 3417 ef97 d6bf c497 c0b4 2fa9 eabf
000005b0: 0e1d afdd ad5f e4bf f6bc 35e8 02f5 e0bf
000005c0: 0f15 40c5 d46d dd3f 09ac cc84 68de d4bf
000005d0: da97 3f85 bee7 90bf 08da fa72 978a c33f
000005e0: f055 972f 9173 ebbf 8305 213d 2b0b b9bf
000005f0: 2304 48f0 33d8 dfbf 97ba 35cf b3aa d83f
00000600: 8cc3 a80e 8500 c23f 3c18 4ca5 1bc3 c23f
00000610: 0679 5a82 926d f8bf fb12 693e 5ac9 a23f
00000620: 3aad f7f0 596c e6bf e1f9 2b9d 9e41 a4bf
00000630: 505a 2625 ac33 bfbf fc72 0f3e a759 c8bf
-0.6302892269620007 -0.27659668535523474 0.32853920092493616 0.5915420367992132 0.40861859396826217 -0.6947487360201962 -0.8012881346752474 0.143209473381378
0.05967028944761396 0.17513863784350653 0.3207384601883033 -0.3975923295158548 -0.3268452068804367 -0.42237118378407357 -0.6187325860437832 -0.020838110442423008
-0.5080501630802683 0.8554406916030463 0.3662171324461914 -0.1757180925060517 0.6010786253093615 -0.09548439832651605 -0.12025976688232676 -0.5939580961934863
0.019561932755363037 -0.49120444783135764 -0.6578771734769444 0.4157351404946029 0.1534106905621876 -0.5925805120624007 -0.04275364801676922 0.38254823897731133
0.5168388908007588 -0.6099199620012077 0.047752627167735096 0.10140391567618035 0.33887756929491747 -0.6916346525567885 -0.2526378821661495 -0.622025366032707
0.013975612080649158 0.610058680364461 0.7346250466313028 -0.38553311631717635 -0.484223889506807 0.6682387704644374 0.41373212721936814 -0.17556896538866712
0.48037678658442495 -0.16475921517540437 -0.48800171948717 0.1866212450267909 0.08538578072593012 0.36516304693544793 0.4282024369694672 0.25694019876434077
0.4474711213129348 -0.5118484860002505 0.0498862179133302 0.7443483634061416 0.7626152537120942 -0.29670914481616095 -0.022743218072865168 -0.5884926086591951
0.2667984678748553 0.7375910919224135 0.4883092782600726 -0.6782733946128574 -0.036191240740219975 0.5537609311444435 0.6881741388548326 0.41894178493809636
-0.24062141994237707 0.5374931140613466 -0.37057623743983853 -0.37348161044011796 0.22311129144464847 -0.19326569118448889 -0.6523119789676901 0.6793898105702646
0.6740651327142457 -0.7023709508918926 0.40374392473247855 0.16026485216960312 0.33504063006822754 -0.6879220703259995 0.04813607973491235 0.07962198268984046
-1.0145676392980376 -0.03948288676991337 -0.1231808133123914 0.37604243294585216 0.23266027024993424 0.15152298481594684 -0.2718359179543653 0.7596135986773982
0.24329529957301005 -0.4109376973517284 0.3132062664388032 -0.40582534622980126 0.160854345501698 -0.10459589732045892 0.14389903350963196 1.1997746210349505
-1.0131823614348143 -0.35014068789428604 0.1433827137391201 0.16958771934481565 0.18419766424193848 -0.4708350224675466 -0.4815433662210211 0.12983107735103894
-0.586459468751858 0.17414643154822707 0.1362698420434511 0.7089684248085393 0.33638543304944757 0.5867523418002565 0.3389471714465615 -0.7189442293028636
0.6225141714009826 0.09143404283657812 -0.06674100502671425 -0.3534810467052699 0.2755751146871528 -0.41830079895354527 -0.09659056998813331 0.09972653200605097
-0.8630758190849313 -0.24575748678614467 -0.5518886440697212 -0.111582692218676 0.7775673371087395 -0.07936277335206382 0.20239879498081248 -0.5574789568974169
0.3675749828377444 0.0858722572281249 0.6135867261400287 0.40151789479715766 -0.9373214966342741 0.6840376427141361 -0.5931479811044577 0.17558193584821857
-0.5622448973978172 -0.2931322851242094 -0.5604645987982619 -0.2655248212402621 0.13391925140119956 0.4052002080486864 -0.49467045192520886 -0.5179947907006653
-0.22578753975680935 0.04426782957230576 -0.5471289039494724 0.052586432603235145 0.2715438242081169 -0.1254333015499472 0.3929140324197704 -0.4082115209371107
0.4143668094298792 -0.9823355759474662 0.1126343959750386 -0.09339026490720108 0.3641367226957648 0.7429869176537136 -0.3801212425229276 0.4604915373961016
-0.11411168818134265 -0.04556388927831967 0.37761806935987047 -0.7209224094972277 -0.40912908662427827 0.8500478922325695 0.08548314839773197 -0.07868672742490124
0.24161493628640995 -0.20463513925153132 -0.4682390041828629 0.2999712346630109 -0.3530233122451622 -0.8331526308363597 -0.6366795854345655 -0.5299086127614874
0.45982856047369663 -0.32607472389889886 -0.01650903404506452 0.15266697992565548 -0.8578573159708736 -0.09782667391211501 -0.49757097687694535 0.3854188464673966
0.14064086166174794 0.14657922335772067 -1.5267510501794859 0.036692447775328284 -0.7007264810940008 -0.03956313770867204 -0.12188220889070434 -0.19023600130358165

feature_extractor.linear1.bias f8 [100]
00000000: 381c 589d 3380 b5bf be54 6705 4878 d93f
00000010: 8e5b 92ba 29a8 dcbf 5bb6 e891 fcc3 abbf
00000020: 0fca b97d e8c6 d7bf fec8 974d dc99 e5bf
00000030: d842 aa94 788d dcbf 003f f711 d40b e1bf
00000040: 5f98 d3d3 dc7d ec3f 8627 919f 3840 dc3f
00000050: 4237 ace3 3164 e43f 0e67 c061 8628 d4bf
00000060: 54c8 bd65 70db c3bf 5d3a c9fe a466 e3bf
00000070: 689e 51d2 ce4f e4bf dd81 7d48 225d de3f
00000080: 81c2 76c9 3072 d23f 1321 c596 6977 dcbf
00000090: d604 c527 69fa e83f ac3b acd2 942b e4bf
000000a0: 9a6a 367d 718f e53f cf09 c6bd cabb d0bf
000000b0: 6159 c0e0 d91f e73f 3080 e2f0 055b d33f
000000c0: 9630 0a32 8936 e0bf 5a80 dd4b 874a debf
000000d0: 4747 2d7b 38d1 dfbf 4cdf c08e 1da0 e7bf
000000e0: 903d 547a 9dfd e33f f96c f8d8 ee02 cf3f
000000f0: c6b0 309f e844 c23f 9a03 8be1 7af1 e5bf
00000100: 5468 8617 6713 c2bf cdec f452 0305 9f3f
00000110: a6f2 feab 9e05 c73f d117 000a 3cb0 babf
00000120: ee90 5439 df36 e43f a8af ddd9 c3c5 c1bf
00000130: c2c2 a8d6 356e dcbf dff0 77d1 1e09 c6bf
00000140: c075 ce4d 575a b6bf 3f9e 4ae5 b171 d33f
00000150: 7ba8 c0f8 71df c13f 76fc 26ff 5253 9e3f
00000160: 6b6f dae4 5d17 d43f d5fc a737 998c da3f
00000170: ec29 736c 1807 d83f e93c cf24 5814 dc3f
00000180: d1a9 439c 8479 ec3f 150e 52be 11c5 dabf
00000190: 141d 497a b891 d53f 23ef 2cce 77d3 d0bf
000001a0: 1724 3b61 9f1c c83f 0954 852c de45 d73f
000001b0: 9b2c 1c0c cdc1 e93f 1043 a230 4365 d7bf
000001c0: b35e 60df 0eac dbbf 595e 0d1e 1d13 d33f
000001d0: 5f86 a382 b545 bc3f 1ea8 81ca 7b6e d13f
000001e0: 93f0 de1c e579 da3f 8d73 4451 94b3 c53f
000001f0: 94ab eb58 9b09 e73f 2b99 2402 926f d2bf
00000200: e32b 427e 058b d13f fc64 dbbd 5232 d1bf
00000210: 5012 1aa9 d5fe 97bf 8bc1 6e09 5f9d dabf
00000220: 1008 51d7 2d17 e2bf 7481 0316 aa0c e53f
00000230: 5447 128c 339b c23f d0ee bc2d 0b01 e2bf
00000240: 9dd5 28ba 7703 c2bf 7005 cf66 297d d43f
00000250: a23e 56d1 ed64 eabf 9203 a4cb 430d e6bf
00000260: f95f b8d5 df59 e53f f48f e69d 8b0b c7bf
00000270: 1c45 08df 2881 e63f 63b2 408a 6d2f d63f
00000280: fa7f 90e5 eb9a d9bf ddbc be2a 9b13 e23f
00000290: 1f3d dad2 3aec e73f 3112 f914 ad7a c43f
000002a0: d4df 8a94 d299 d1bf 3871 8e8a f243 dd3f
000002b0: 3d7b d996 817e e03f ec3c 58d4 7611 cebf
000002c0: 9b1a d1a2 878f e0bf 4002 9689 ff01 ddbf
000002d0: b6bf 6242 d2e3 c53f c1ef f9f3 fe9c e2bf
000002e0: 3dc0 327e 3e93 e7bf 3f91 8183 23b1 c3bf
000002f0: d552 4df1 1219 a1bf 9a57 c0b0 71d0 c33f
00000300: 64e5 37b9 2f8a dd3f 8e5e 13ae 7bb5 c73f
00000310: d794 4925 73f0 ccbf ff31 06e0 ba33 d3bf
-0.08398745147143039 0.39796638992022426 -0.447763855170188 -0.05422963410488243 -0.3715153911390709 -0.6750318065153633 -0.44613470571588953 -0.5326938963789587
0.8903640877949889 0.44141975004878764 0.6372308203442361 -0.3149734453778458 -0.15513424842680712 -0.6062798477449395 -0.6347421748914259 0.47443444327475764
0.28821963953217994 -0.4447883579600937 0.7805677201032732 -0.6303199877455561 0.6737601705129521 -0.2614619115121543 0.7226380719828677 0.3024306156530683
-0.5066572167720718 -0.4732988587256891 -0.4971448138140783 -0.7382953441765294 0.6247088803519762 0.2422770080018848 0.142727925996388 -0.6857275395524198
-0.14121712349589421 0.0302925605185294 0.17985900305020158 -0.10425162548207757 0.6316982383473524 -0.13884781015383152 -0.44422670328917147 -0.1721533320231918
-0.08731599473545426 0.3038143862890798 0.13963150640603658 0.029614731620082733 0.3139261946578162 0.41483145175147956 0.3754330691414498 0.4387417182415008
0.8898337413823417 -0.4182781561468983 0.33701908056214447 -0.26290698179558286 0.18837349174126025 0.3636393961690492 0.804907344486668 -0.36555557011983897
-0.4323765927706333 0.29804161009585567 0.11043867530272554 0.2723683812715779 0.4136898786489464 0.1695428273023051 0.7199227081995212 -0.28805971345208786
0.2741101963990202 -0.26869648495410536 -0.023433054395825714 -0.4158551780810959 -0.5653294759179079 0.657795947070595 0.14536136950897094 -0.5626274007149394
-0.14073082532710837 0.32013926544103466 -0.8248204315768428 -0.6891192414624234 0.6672209905837 -0.18003983697883508 0.7032665592288683 0.34664476872675304
-0.40008065622714606 0.5648933253159175 0.747586643048553 0.15999377750462565 -0.27501358514882424 0.4572721818056098 0.515442652347566 -0.23490796440498884
-0.5175207309738029 -0.4532469600308424 0.17101505509844878 -0.5816645398294825 -0.736724134903859 -0.15384334489056958 -0.033394424396339474 0.15479870920597422
0.46155922973374275 0.1852259254435364 -0.22608794518160977 -0.30003234746325796

feature_extractor.linear2.weight f8 [50, 100]
00000000: a48b 44d3 cce6 94bf 5ff9 064e f66e ccbf
00000010: 2b79 5963 29e3 b4bf 99b4 76a6 d52d b6bf
00000020: 0360 bc68 54be c6bf f41a 4785 02c8 953f
00000030: 5f76 f9d6 0d8e b03f f8cd 65de 1134 9dbf
00000040: f9a1 402a d606 c3bf ddb1 a50e 5f15 cc3f
00000050: 5f58 e24b a8c0 c23f 005e 1f19 7bba 3dbf
00000060: 51e5 32aa 0798 c73f a512 b2cf 78f5 b33f
00000070: 80f6 4878 8590 7d3f 8633 8f3b ae7a cfbf
00000080: 83c8 d58e 0fad bb3f ec2e 9c1a 57cf b8bf
00000090: 8b4f 051f 376d cd3f b7e3 19f2 3aa1 b23f
000000a0: 6e0f 09b4 2602 d7bf cc27 f382 c4ec cc3f
000000b0: 493b 130e fe50 d0bf 6453 24b8 5ee7 cc3f
000000c0: ce24 12a0 9ac6 b4bf 09ec 1309 0a40 a7bf
000000d0: 92cc 4058 2c40 acbf 6199 4826 7403 bf3f
000000e0: f8ee 7fda acec ce3f 9903 923b 4ab3 d7bf
000000f0: 57dd 33c8 9bd4 cb3f c9f5 e420 ead7 b03f
00000100: 798e 6d06 0ad2 c2bf c6ce 11f2 94d6 c53f
00000110: b8da d5c3 a7ce cabf f44e 11cc 0a21 8bbf
00000120: e12d 4437 7c06 cdbf 9628 d9bf 6573 b7bf
00000130: 4c88 0380 3ca6 91bf 052a ead1 aa18 c0bf
00000140: 7970 613a 9fae d23f 42f5 3676 c9d4 c23f
00000150: 1aa7 02f5 b954 cb3f 751e 8fc4 a3d5 ca3f
00000160: 8b37 4169 cdcc bebf 3613 150b e6fd d0bf
00000170: a259 5003 a2c7 cc3f e307 f2d6 0e7e c1bf
00000180: fcdc 03f3 b642 cf3f a01d 6684 9caf 94bf
00000190: 66c3 8ae5 3b3f cf3f ef85 ac7f d304 c3bf
000001a0: 8d81 bf78 5590 cebf 79bc d27c 5dd5 d1bf
000001b0: dd6b 0e64 7938 d23f 410e f880 b413 b43f
000001c0: 34e2 2636 6e63 973f a1a7 568c 5a9d c5bf
000001d0: bf2a 20e6 ff10 ad3f 6628 0193 9312 c23f
000001e0: 9c36 e36b ae32 c63f 06c8 9a39 9511 ca3f
000001f0: 61ad b340 0eb7 cd3f 342a ab7f 5ccb b1bf
00000200: 7c54 3353 77aa c8bf 891f ac66 0797 acbf
00000210: 91c5 576c 2ed0 c53f 7edf e860 f212 a13f
00000220: 5efc f0f3 863f c03f efcb 13fc c480 ca3f
00000230: 60ce 26d1 1720 d0bf 9cfb 3f73 3f81 a2bf
00000240: c39d d3a7 5285 bfbf e2f8 667b f725 c9bf
00000250: 3986 4f1c 8d85 d13f ac89 7f66 1cb4 933f
00000260: e5d5 efaf 4d1e b6bf b377 ba1b c75b a9bf
00000270: 8e20 052d 7762 cd3f 91e8 630a 6058 ba3f
00000280: 3077 41b6 f4b7 ce3f 4e87 ac3e 0e87 cdbf
00000290: 4a4c ada9 82d2 c03f 5251 60d4 5b46 cbbf
000002a0: f97a 7a36 9928 b4bf bded 24fe 8a52 c53f
000002b0: 626f 0f41 4229 c8bf 7719 9e55 bdd7 b63f
000002c0: ac1d f269 7fc4 b5bf 7201 a2ae cf5a ae3f
000002d0: 6cfd 70a6 e866 b73f 5ef7 52a3 04e9 b4bf
000002e0: 79b2 3acf cf4d ce3f 7074 fb53 7460 bbbf
000002f0: df7b 8119 a80a c8bf 183b 3d5e 1b3e cabf
00000300: 1ae0 b650 f2ae bebf f0de 1b77 64e3 bcbf
00000310: 1cb2 3fa2 4014 d2bf 85ae 92ec fa59 b73f
00000320: 8901 47b0 09d4 b03f 7f92 4778 3958 c23f
00000330: adfe eb39 1d2b b43f 88a8 47ed a477 ca3f
00000340: 208d 9017 035e c43f 7c13 349e 2a47 9f3f
00000350: ab03 0fb2 996a b63f 8dc6 a49f c356 b23f
00000360: 3e74 49f6 5289 c93f a143 cd34 cfa9 d0bf
00000370: 1f35 bdc7 154b c2bf b3ff 9635 8b06 b8bf
00000380: 5a0e e297 ef3f c0bf 719e 3e3a 3a14 b1bf
00000390: a0ce f441 56c9 903f b2bf a6fb 0c08 bb3f
000003a0: 7462 5007 873d d2bf e941 83e5 5afe b73f
000003b0: b8f3 1b6b 9797 d0bf 50c5 9c33 8f7a b7bf
000003c0: 78e0 6f74 3ecc ca3f 319f 94e1 664a d1bf
000003d0: 24ee fbd8 f700 b63f fff3 2a60 b009 cebf
000003e0: 8f2e 29f3 7126 aabf 7f99 abc6 503c b83f
000003f0: 3545 361f c64b cbbf 7ed0 3dbf 67c4 d0bf
00000400: 727d ce08 4fe8 bbbf 0293 267d c4ef c23f
00000410: 7451 1a6f 56e1 cbbf 2c36 3eb9 33b0 a7bf
00000420: 485a a817 446f c23f cdf6 9795 c292 c5bf
00000430: c8c0 83e0 a778 d03f 1722 9446 da0e c8bf
00000440: e700 7467 c7f6 d13f dc38 58e9 2107 b3bf
00000450: d58c 82e9 b447 b13f e28b 37bd 556d bd3f
00000460: 47dc 2503 65ea babf 7a6a a8be 3743 cdbf
00000470: cc51 0eaf f42e c5bf f031 58f7 bb60 bcbf
00000480: 85c8 6f8b f6dd be3f e496 d391 0fa2 d13f
00000490: 2e6f 8685 4dc6 c5bf 3ab2 f062 43d9 d03f
000004a0: 3a5d 1e52 2fb0 c9bf 4008 7c95 0d06 a2bf
000004b0: 3aed 9fe4 3628 c4bf 6d67 65cc 16fe c03f
000004c0: e8ce 866b 9b3b cf3f 88f1 e205 882b b83f
000004d0: ffe1 75b1 b94b c8bf 64b6 6f23 3c23 9c3f
000004e0: c36d 922e 5258 a8bf 7931 b022 5562 c73f
000004f0: 26ec 0ea3 c632 d0bf 7655 44c0 6471 d0bf
00000500: e25a 9bec 6851 c2bf 060c cddd 65b1 cabf
00000510: 1525 356c cdf9 bdbf 72f4 a62e 3723 a43f
00000520: 05be c8e8 6df6 bd3f 6c25 2d02 7bdb aabf
00000530: 8811 3ab7 6f4e c7bf 5fd3 b505 940d acbf
00000540: 6822 0e21 1581 c5bf 81d5 31bc 76d9 c5bf
00000550: f100 aee2 eb42 c83f 1b38 10ee 853f b43f
00000560: bf29 14d0 7627 d23f 2809 3094 855f cc3f
00000570: a1c5 074d 0f33 d2bf f090 21ef db23 b4bf
00000580: 3704 d5d1 daaa c13f a071 ad1f 75d0 683f
00000590: 997a 1136 5d7b bfbf f741 e9b5 1555 cbbf
000005a0: 9bbf 3dcc 80c4 ccbf e76b 07db 4ee4 c33f
000005b0: 9c52 801d 3dd2 b6bf 908e 4033 08d3 cc3f
000005c0: 1e8a c8d6 646b a83f b887 62f3 f9d2 bfbf
000005d0: 2cf5 0d99 cf89 c73f 5855 090f 0a19 90bf
000005e0: 400f 6e29 d70d 993f 5eb4 4e46 11fc a03f
000005f0: 41dd b5ff 6d69 bd3f c2c5 5010 ddba a83f
00000600: 92ee 69e2 43e6 c0bf f2f2 48c8 533c c13f
00000610: ba39 a3c1 6f3f d03f 83e5 f533 9163 cd3f
00000620: 5e75 1430 1d6a c23f b272 0eba 46cd c33f
00000630: 8c66 cd92 3e1c ba3f dc40 b0b1 abd4 aebf
00000640: 78c4 8429 209d 95bf 4ef6 ad91 dbab c9bf
00000650: da4c d3c0 51dc a2bf a883 3232 3799 c5bf
00000660: 657e ee47 793a c8bf 863c 0ff2 0cad b3bf
00000670: 7f88 bd37 bba2 b43f e306 847c b27f b4bf
00000680: e908 be05 5607 ccbf 2fec d8eb 76aa c43f
00000690: 35f4 b5bc 49e7 cc3f 396d c3e7 7253 b9bf
000006a0: 295f c6d0 e572 c33f 64ac fc0a 08cf 9fbf
000006b0: 6267 e526 a1a0 aa3f a184 21bd 990f d2bf
000006c0: 4727 1be2 523c c43f 0c68 549e 5638 a6bf
000006d0: cd11 203f 0945 cc3f 6afb a2d5 f7f4 a1bf
000006e0: d4b3 d751 1c01 cebf e02d 4231 902f bc3f
000006f0: 7761 066a f87e c1bf 9493 81dc 2a7b ca3f
00000700: 2aa0 c29e 2776 a03f d934 5bf9 1344 b53f
00000710: dc58 07e6 de98 b7bf 5715 8912 bb8f a43f
00000720: 29f0 4809 ed86 c83f 8cb9 4714 1618 d4bf
00000730: 5e38 fb78 dea7 bd3f ff92 d30e 908a b03f
00000740: 1fb0 729c 9695 d1bf 893a 4e64 2572 c93f
00000750: 9282 598a 96fd c6bf 8f92 1f08 4266 b5bf
00000760: 1788 b537 956b c5bf ece9 11d5 ed00 92bf
00000770: 5320 446e f712 b7bf 144a f415 8682 c0bf
00000780: 460c a05e c4c4 d03f 52e3 57a8 8dc8 85bf
00000790: e241 fa47 d6e3 cb3f fbd4 9e45 7762 c73f
000007a0: 5b32 f3f7 caa8 b8bf ff65 6cc1 e3e7 d7bf
000007b0: 5cfa c8a6 191b b93f be04 d528 a87a cfbf
000007c0: 7f24 a384 019e cc3f de60 0d1f 763d ab3f
000007d0: 2ac8 58e8 4411 c43f f263 715f 4abf a23f
000007e0: df53 2122 50c0 cfbf 59c2 88d7 318d c3bf
000007f0: 33d1 29d7 381b cb3f 42dc 585d 1f8c a43f
-0.020411682505379183 -0.22213629541324573 -0.08159121203923252 -0.08663688005499849 -0.17768340219549836 0.02127078951323376 0.06466757295989954 -0.028518943022801196
-0.14864613593205414 0.2194022008437874 0.1465044374969606 -0.00045362000775869826 0.18432708559502456 0.07796435423558508 0.007217904440549483 -0.24593141468212937
0.10810944783387026 -0.09691376113567757 0.22989548697171033 0.07277267847702161 -0.35950629788953037 0.2259755744365165 -0.25494338392757193 0.22581085196784578
-0.08115545661907506 -0.045410455330021256 -0.0551771028262006 0.12114644941957443 0.241597754182173 -0.37031799142283145 0.217425797228979 0.06579459479413353
-0.1470348864923954 0.17061101741602708 -0.20943162023805484 -0.013246616699837933 -0.22676041315604237 -0.09160457547946729 -0.017235703767149155 -0.12575278520337477
0.29190808011276875 0.1471187426776997 0.2135231443729076 0.20964476678476598 -0.12031253642746102 -0.26549674112566224 0.22484231149492212 -0.13665948386557067
0.24422346940966821 -0.020201154309260283 0.24411724765880222 -0.14858478292539654 -0.23877972026731378 -0.2786477774597596 0.2846969105827933 0.07842567585617478
0.022840234809082996 -0.16886455395188896 0.05677032169486073 0.14119190862612924 0.1734216715616882 0.20366158783650706 0.23214891585608213 -0.06950929753217211
-0.19270221292996215 -0.05583975914311085 0.17041569032839424 0.033347677545349605 0.12693869506071825 0.2070547324034062 -0.2519588034149134 -0.036142332857699716
-0.12312809560136544 -0.19647115254878772 0.27377631916724315 0.019241756206506075 -0.08639989419301448 -0.049528333792508226 0.22956742952579073 0.10291099790257109
0.23998888873296087 -0.2306840711617561 0.1314242676258764 -0.21308467740949283 -0.07874448375740063 0.16658151063334783 -0.1887591188122953 0.08922942486069539
-0.08502956711355719 0.05928658491848439 0.09141401351461348 -0.08168057429699391 0.236749626337218 -0.10694052744243421 -0.1878252148189565 -0.20502035237810712
-0.11985697241368634 -0.11284473331386002 -0.28248611302004334 0.0912167384691945 0.06573544076582584 0.14331739781404804 0.07878286995036872 0.20677625261243215
0.1591190209447655 0.030544916063280678 0.08756409260878566 0.07163641593504107 0.19950329805115702 -0.2603643432276446 -0.14291641476521819 -0.09384985025735552
-0.1269511691681256 -0.06671489641177587 0.016393039489413952 0.10559159416038602 -0.28500533785112414 0.09372490027750015 -0.2592524095523987 -0.09171385774677288
0.20935803113366425 -0.27016613034583076 0.08595227286780777 -0.23467068381970077 -0.05107456296226786 0.0946703419718684 -0.21324993633292313 -0.26198762584613877
-0.10901349987988398 0.14794212447045402 -0.21781425881330174 -0.046266189921066875 0.14402056842000577 -0.16854126266837569 0.2573642437482815 -0.18795326658461484
0.28068719008298476 -0.0743275828064926 0.06750040722777169 0.11494956845812923 -0.10513907744267313 -0.22861382302729166 -0.16549547717717272 -0.11085104740795493
0.12057438759055301 0.27551640740271766 -0.17011422176153118 0.2632606950963098 -0.20068923482606654 -0.03520243119966482 -0.15747724688831416 0.13275418262747554
0.24400656462022785 0.09441423553193407 -0.1898109547144173 0.02747816053663711 -0.047548835930878684 0.18268837159883924 -0.25309911655102935 -0.2569209935766915
-0.1431094317728912 -0.20853875475049238 -0.11709293262278593 0.03933117336735216 0.11704146321493887 -0.052455753341358186 -0.18208118864653167 -0.05479109353738098
-0.16800178636573837 -0.17069896878426152 0.1895422798952562 0.07909428655713706 0.28365869827453233 0.22166509376263233 -0.2843664409875491 -0.07867216671144539
0.1380265736170558 0.0030290877888729667 -0.12297613687540333 -0.2135340822446918 -0.2247467992087849 0.1554049081304065 -0.08914548845525377 0.22519018652484535
0.047694350451156206 -0.12431299392713313 0.18389315579762788 -0.01572051731848964 0.02446685972564855 0.03317312224621881 0.11488997929506174 0.048300655595436406
-0.13202713542328987 0.13465354232348364 0.25387185964509806 0.2296010497773687 0.1438633427396025 0.1547020348051738 0.10199347576181078 -0.060216298523416006
-0.02110719922456325 -0.20055718053110855 -0.0368371532328184 -0.1687382693389996 -0.1892844773510546 -0.07685929212242301 0.08060808287476283 -0.0800735048287851
-0.2189738777197541 0.1614521648023994 0.2258083507003065 -0.09892957838331008 0.15194390005194094 -0.031063199682801815 0.052006755827007436 -0.2822021815282572
0.1580909351380859 -0.04339857752547979 0.2208568151692262 -0.03507208330983398 -0.23440889354915717 0.11010075762367633 -0.13668732811926151 0.20688377158071758
0.03215144932738696 0.08307003820228277 -0.09217637172637033 0.040159078610069336 0.1916176123939988 -0.313970107846125 0.1158427281727383 0.06461429941152728
-0.2747551467716693 0.1987959613583892 -0.17961389308313308 -0.08359158228229034 -0.16734566898509293 -0.017581668977507833 -0.0901331562237158 -0.1289832694242966
0.26200970879307695 -0.010636431407861888 0.21789053453950574 0.182692440981249 -0.09632557443109972 -0.3735284222508141 0.09806976625348213 -0.24593069070582446
0.22357195831708407 0.05320328835540676 0.15677701325472643 0.036615680838345 -0.24805642763627042 -0.15274642013675324 0.21176825052283163 0.04013154997340297

feature_extractor.linear2.bias f8 [50]
00000000: a301 1cc2 528e cebf 33be 4186 532c babf
00000010: 6529 b04f c950 dabf 7ded d820 29be b6bf
00000020: 7c55 8900 f43e c5bf 9b15 9948 5fb9 c23f
00000030: 542c 6b60 cfeb b6bf c3f9 6cc5 359b ca3f
00000040: f909 59e2 e1ab cc3f a42d daef af93 ce3f
00000050: 1c82 c24f b36c c1bf 6eb6 de49 96df d23f
00000060: 6d2a 275d f92a de3f 0b6e 310f 04b7 c7bf
00000070: ce34 c452 554c ca3f 6bfa 2d31 b846 c83f
00000080: a580 6ab2 e001 d93f f954 fec0 e5e1 bb3f
00000090: 06c0 a7e2 a745 e33f 4dd8 9933 7697 d03f
000000a0: 647f c0dd 70bd c5bf 1db5 aab7 2d40 adbf
000000b0: 727e c82e 4295 c83f fe8b aac6 927f c93f
000000c0: e4e8 2ba3 fe1b d13f 00ae 6bf9 097c 3bbf
000000d0: 80ab 3796 2597 873f 5ea6 e970 b376 d03f
000000e0: 942a e647 d37e 93bf a7ad a422 a0dc d33f
000000f0: 819c 0e76 808c c53f ac5b 57a5 62e1 b83f
00000100: 10b9 f710 d6e1 b4bf 2732 0ca0 11f1 d4bf
00000110: 6235 cfee ea02 b7bf aa1e bae0 54c9 c0bf
00000120: 49fa dfed 1f00 cdbf 8411 8575 655c c33f
00000130: b84b 0cf6 226f d7bf 499f c9bb ba98 d23f
00000140: 3601 54f0 4a10 a3bf 1e91 0f21 1799 d43f
00000150: eac0 ab5c 6090 b63f 4cbb fe6e 02d5 d6bf
00000160: c819 10f1 cf92 c43f ab48 3b23 8c2f d73f
00000170: a5bb 5dba 0062 c1bf b029 0473 f0a9 ee3f
00000180: 80be 2a53 45d5 adbf 2d7c 64a5 b60e d23f
-0.23871836164472623 -0.10223886516336549 -0.41118080884975533 -0.08883912136018597 -0.16598367716020934 0.1462821106417039 -0.08953567604037121 0.2078616346352203
0.22399543335093577 0.23888205729995804 -0.13612977404137971 0.29489667142738696 0.4713729295441798 -0.1852727007088649 0.2054545072682345 0.18965818787906427
0.39073960708084093 0.10891567193751318 0.6022529055462662 0.25924449004321987 -0.1698437769673503 -0.05713026873614011 0.1920550087388509 0.1992057294893072
0.2673336595031641 -0.00041938060296217716 0.01151875843694028 0.2572449305213008 -0.01903848768555834 0.31034091361172006 0.16835027470117228 0.09718910729075841
-0.0815709868836374 -0.3272136748280751 -0.08988827066715069 -0.13114415143012553 -0.2265663062571142 0.1512572120501653 -0.3661582377255246 0.29057186449653166
-0.037233678662234856 0.3218438933238462 0.08814050924752662 -0.3567510684905997 0.16073035498284427 0.36227706375678775 -0.13580330943974875 0.9582445379649496
-0.0582677520773105 0.2821480384026838

feature_extractor.linear3.weight f8 [2, 50]
00000000: 9b52 645a f424 d13f 74ce aa55 de32 bf3f
00000010: 21fc 8a10 923e c7bf b750 3f9f a0e3 c7bf
00000020: 065f 96df 1461 b93f 0219 d672 ce41 d3bf
00000030: c0b0 caf1 1621 c1bf 0706 72c8 d2e1 cabf
00000040: 0a8f 4678 a16d afbf 8b80 1f36 dbeb c83f
00000050: be19 4288 d38c b93f d441 7dc4 3231 cebf
00000060: 967f 33df e1b2 b6bf 4fe1 9e57 41a8 c13f
00000070: b8b4 0abc 1262 ce3f dbeb c44e 1168 d3bf
00000080: 708c b1dc 7dbf c73f 503e 0c7f 4d2f d1bf
00000090: cfbf 2525 2f6b bebf 41a1 5dd9 4d45 8d3f
000000a0: ce2f 07b1 475a acbf 1478 bef4 4943 a93f
000000b0: 0629 80da 32ec d6bf dd02 5934 6d0e d13f
000000c0: fb72 7e62 8f26 cebf a0ea bc14 e2b7 aa3f
000000d0: ce29 4c33 0faf c0bf 9903 8512 c732 cd3f
000000e0: 8270 dbb4 b266 b43f 2608 3676 6cd1 ce3f
000000f0: 933c 3b29 4d11 ce3f e212 b5ad f71f a2bf
00000100: 701c aec4 d53c 86bf 4a9d 44cf a87d bc3f
00000110: 5bc0 7ea5 3aa9 c73f cc10 4d45 e586 a63f
00000120: 161a 7e8a 7ac0 a93f 0727 7a96 dfea d33f
00000130: 3f8b 596e 6ba4 d0bf 7289 204c 60c8 c7bf
00000140: 7705 c057 8ffe c13f 275c e865 32c9 d63f
00000150: 5026 2960 10b6 c83f b8c4 a820 7c1d cfbf
00000160: 00ad 5fea b871 cf3f a54b 4e35 7a5a c53f
00000170: e4ee 30eb 34f7 c23f 1506 5cc8 4545 c4bf
00000180: 8050 371d b9a6 8f3f cddb 65bc 8c1f c23f
00000190: 3d8f 514f 7bce c6bf ae26 bf81 cbb2 a3bf
000001a0: 45a7 29ee e271 b03f 61b9 3ca7 66ed c03f
000001b0: e580 a2c1 031b c3bf b121 d47b 932f d63f
000001c0: 8bd8 5731 a6fd aebf 2894 51d4 8744 c93f
000001d0: e084 a511 5210 ba3f 3550 368a fe1b 743f
000001e0: c9f4 c1b9 3daf cbbf 0908 9463 0147 d13f
000001f0: c7f5 c27d 9a80 d53f c4ff 435c 8e29 d3bf
00000200: b64a d1ba f29f c0bf 2448 2cb9 ac74 d23f
00000210: 6770 ec52 7d67 a4bf 63b9 c415 7da8 c83f
00000220: 06db 6177 a30a d43f 3913 8bc8 bdfa d33f
00000230: b2c3 e645 54b5 ce3f c0c3 be7c c7f9 963f
00000240: cd0c 6cf9 9512 cf3f 70c9 d8eb 05ef b03f
00000250: 33e9 fa3b dd34 bc3f e8c0 c4af a0a3 b1bf
00000260: 7796 34a0 639d b1bf 06b6 4b20 af46 d0bf
00000270: 757f 2de0 e1f6 c03f 8434 8138 a183 dbbf
00000280: 1d4b 928d 583d c8bf 33db edb0 3314 c0bf
00000290: a220 40b4 10f8 acbf 3842 cc0e cf45 b8bf
000002a0: 259d 326e a25a a7bf 8ef0 5412 2deb c5bf
000002b0: 9690 9e2b c38d d1bf 0aa4 e959 cab9 b8bf
000002c0: 95d9 4516 da3e c23f b773 f476 e74b d43f
000002d0: 742e 2d7a 7182 b03f 81ab 5b7a 581f c4bf
000002e0: 9203 b07d c1ed c5bf addf 34cf 8b39 b63f
000002f0: 9e07 ac8f 8e1d d7bf 74a1 c30e 419b c4bf
00000300: 631e 6cd2 e302 be3f 68f2 4c6a 57f8 c43f
00000310: d01b f1a8 2bd7 bfbf 6330 1d28 07c1 c7bf
0.26788052394230427 0.12186994163021742 -0.18159700210341703 -0.18663413787601765 0.09913759668995334 -0.3008915063332013 -0.1338223152755571 -0.21001658236859574
-0.06138329117973569 0.19469776289679816 0.09980508877388325 -0.23587641329005626 -0.0886670274662705 0.13794724253035404 0.2373679559872579 -0.3032267827254011
0.18553136135151105 -0.26851212889684906 -0.1188230004970585 0.014292343326545722 -0.05537628208148214 0.049341498495081876 -0.3581664212985206 0.26650552856521675
-0.23555176076197157 0.052184166938294085 -0.13034238819848415 0.22811211017872493 0.07969204822023992 0.2407661034777117 0.23490299714328397 -0.035400142626292
-0.010858221115780803 0.11129241047148244 0.18485196190659078 0.04399792166671687 0.050296620755990215 0.31121053404841387 -0.260035379184206 -0.18580249516623898
0.14058105263397255 0.35603008224410576 0.1930561513457172 -0.24308730692567848 0.2456580299761768 0.16682365038704208 0.14816915019934307 -0.1583640316312517
0.015454717830756914 0.14158782195201383 -0.17817632077196235 -0.03847347220250917 0.06423776926535847 0.13224490323905072 -0.14926192240546424 0.3466538151992849
-0.060528939746221054 0.19740388743517312 0.10181153231453122 0.004909509941530434 -0.21628543443868 0.26995882725179904 0.33597433358576406 -0.2994113827735385
-0.12988123056364537 0.288371258576378 -0.03985206258059364 0.19264186442292006 0.3131493249742764 0.31217903694441734 0.23990872777133415 0.022437207211343013
0.24275469473659542 0.06614720352152914 0.1101816436229555 -0.0689030102846605 -0.06880781804337653 -0.2543142142666003 0.13253425069978744 -0.4299090434840951
-0.18937212860745314 -0.12561651362531165 -0.05658008766482793 -0.09481519805218219 -0.04561336131274122 -0.1712395038138123 -0.27427748927790085 -0.09658493704922946
0.14254308784047667 0.3171328221958975 0.06449040634941544 -0.15720659231677916 -0.17131823193633672 0.0868155842662179 -0.3611790087744512 -0.16098798008830395
0.11723159682525756 0.16382878008325297 -0.12437699198299801 -0.18557824572269785

feature_extractor.linear3.bias f8 [2]
00000000: 7467 fb67 94b8 c13f 2693 bfcb bcfe c03f
0.13844542577026753 0.1327739710678994

mean_module.raw_constant f8 []
00000000: 4827 1ff0 09db 0b40
3.481952548933723

covar_module.raw_outputscale f8 []
00000000: 283d 2470 ccd1 dc3f
0.4503050894863514

covar_module.base_kernel.raw_lengthscale f8 [1, 2]
00000000: ff69 c455 37b0 d9bf d911 dc12 6fd8 e03f
-0.40138038039881957 0.5264201515533912

covar_module.base_kernel.raw_lengthscale_constraint.lower_bound f8 []
00000000: 0000 0000 0000 0000
0.0

covar_module.base_kernel.raw_lengthscale_constraint.upper_bound f8 []
00000000: 0000 0000 0000 f07f
inf

covar_module.raw_outputscale_constraint.lower_bound f8 []
00000000: 0000 0000 0000 0000
0.0

covar_module.raw_outputscale_constraint.upper_bound f8 []
00000000: 0000 0000 0000 f07f
inf
