dkl_kernel_for_Balling.pth (torch, 27213 bytes, 6 tensors)

linear1.weight f4 [100, 2]
0	0xbf1d6b96	-0.6149229
1	0x3ef8bd27	0.48581812
2	0xbf243041	-0.6413613
3	0xbf0bb79b	-0.54577035
4	0xbfae9776	-1.3639972
5	0xbdc9b809	-0.09849555
6	0xbef4fc2c	-0.47848642
7	0x3caf9420	0.021432936
8	0xbeb2306b	-0.34802565
9	0x3ef273c2	0.4735394
10	0xbf8efd71	-1.1171094
11	0xbf060ab5	-0.5236009
12	0xbf9d2819	-1.2277862
13	0xbf1437c5	-0.578976
14	0x3dc0934d	0.094030954
15	0xbf0463fb	-0.5171506
16	0xbe242baa	-0.16032282
17	0xbedd9d9c	-0.4328431
18	0xbe431792	-0.1905196
19	0xbe979191	-0.29603246
20	0x3ea50a2e	0.3223433
21	0xbeb79837	-0.35858318
22	0xbef39261	-0.47572616
23	0x3ebeb4b3	0.37247238
24	0x3ee51585	0.4474298
25	0x3e9c9e98	0.30589747
26	0xbdd7cef5	-0.10537521
27	0x3e014a1f	0.12625931
28	0xbebbd4ad	-0.36685696
29	0xbd8dc140	-0.06921625
30	0x3da3732d	0.079809524
31	0xbed391c5	-0.4132215
32	0xbe9a200e	-0.3010258
33	0x3e7b6a9d	0.24552388
34	0x3d39b2d7	0.04533657
35	0x3ef7f405	0.4842836
36	0xbe9e6c76	-0.30942124
37	0xbe6fc5c6	-0.23415288
38	0xbf0a6f27	-0.54075855
39	0x3e9b4d68	0.30332494
40	0xbeaf24b3	-0.34207687
41	0xbf28b671	-0.65903383
42	0xbc9d1742	-0.01917613
43	0xbeec6bdf	-0.4617605
44	0xbf22ad8d	-0.6354607
45	0x3f1892e0	0.59599113
46	0xbf144d8a	-0.57930815
47	0x3ec4dbaf	0.38448855
48	0x3ee9a89a	0.45636445
49	0x3e117f4b	0.14208715
50	0xbe8feed9	-0.28111914
51	0x3ec8db18	0.39229655
52	0xbf41f091	-0.757577
53	0x3f2da904	0.6783602
54	0x3bf47c9a	0.0074611427
55	0xbe065ba6	-0.13120899
56	0xbedfc8c0	-0.43707848
57	0x3f4fe3ea	0.81207144
58	0xbef6d879	-0.4821203
59	0x3f0baba3	0.5455877
60	0x3e2985ba	0.16554919
61	0xbf027a96	-0.509683
62	0xbf2a008f	-0.664071
63	0x3f3fc259	0.74905926
64	0x3f005df5	0.5014337
65	0x3e14e435	0.14540179
66	0x3f555947	0.8333935
67	0xbe2000eb	-0.1562535
68	0xbebf47b2	-0.37359387
69	0xbe880ada	-0.2657078
70	0xbec8fd7c	-0.39255893
71	0xbe30a369	-0.17249836
72	0xbd95ed97	-0.07320707
73	0xbdf29454	-0.118446976
74	0x3f0a188d	0.5394371
75	0xbeca1674	-0.39470255
76	0x3f1a8a2f	0.603671
77	0x3d6cc688	0.05780652
78	0x3e9fbe37	0.3119981
79	0x3ecf3335	0.40468755
80	0xbe79aa34	-0.24381334
81	0x3e473238	0.1945275
82	0x3ed3a939	0.41340044
83	0xbec039a1	-0.37543967
84	0xbe6d2d91	-0.23161913
85	0xbf02b865	-0.51062614
86	0x3e09076f	0.13381742
87	0xbedaa07f	-0.42700574
88	0xbecc2a89	-0.39876202
89	0xbf160014	-0.5859387
90	0xbf5d1507	-0.8636021
91	0x3f4c232e	0.7974118
92	0xbea031f7	-0.3128812
93	0xbe156162	-0.1458793
94	0xbe2e7cd5	-0.17039807
95	0xbdd51aa5	-0.10405473
96	0xbf05ce10	-0.5226755
97	0x3d6f3197	0.058396902
98	0xbee1b360	-0.44082165
99	0xbf0fc436	-0.5615877
100	0xbf3f25eb	-0.74667233
101	0xbf0a85c2	-0.5411035
102	0x3e462716	0.19350848
103	0xbe2350a0	-0.15948725
104	0x3f1e9fa5	0.6196235
105	0xbf11ac2c	-0.5690334
106	0xbf41e916	-0.75746286
107	0x3f006c7b	0.5016553
108	0xbe6cfb23	-0.23142676
109	0xbe3be4a4	-0.18348938
110	0xbf893b32	-1.072119
111	0xbf250e94	-0.6447537
112	0xbf324ff2	-0.69653237
113	0xbee0b6b9	-0.43889406
114	0x3e9ac904	0.30231488
115	0xbda0fb8f	-0.07860481
116	0x3ebb39ff	0.36567685
117	0x3f72d865	0.9486144
118	0x3f4103a5	0.75396186
119	0xbf3017e4	-0.68786454
120	0x3d8339b9	0.06407494
121	0xbd7f5223	-0.06233419
122	0xbe881875	-0.2658116
123	0xbe2139d2	-0.15744713
124	0x3e4f011b	0.20215265
125	0xbe2f02e0	-0.1709094
126	0xbe83e138	-0.25757766
127	0xbc9beb76	-0.019033175
128	0xbe7c9f73	-0.246702
129	0x3ec26456	0.37967175
130	0x3e00e185	0.12586029
131	0x3e3a24e7	0.1817814
132	0xbc61304c	-0.013744425
133	0xbf6f4570	-0.9346533
134	0x3f22b920	0.6356373
135	0xbda66378	-0.08124441
136	0x3e2da838	0.16958702
137	0xbe8098ea	-0.25116664
138	0xbd0f7134	-0.03502007
139	0x3e4146cd	0.18874665
140	0xbe08a59b	-0.13344423
141	0xbf3f9e12	-0.7485057
142	0xbe9149a6	-0.28376502
143	0x3f20f062	0.62866795
144	0x3eca458d	0.39506188
145	0x3d5549a4	0.052072182
146	0x3d769c59	0.0602077
147	0x3ea2b9cb	0.31782374
148	0xbe060137	-0.13086401
149	0x3f2a840a	0.66607726
150	0x3ebf0614	0.37309325
151	0xbf347e5d	-0.70505315
152	0x3f1e047d	0.617256
153	0xbdff885e	-0.12477182
154	0xbf7f3f87	-0.9970631
155	0xbde83cea	-0.113397434
156	0x3f3fabda	0.748716
157	0xbf1cda15	-0.61270267
158	0x3e5e6447	0.2171794
159	0xbe636bcd	-0.22209091
160	0xbf2da3c3	-0.67828006
161	0x3f13b9a0	0.57705116
162	0x3e2a5369	0.16633381
163	0x3eeb0245	0.4590017
164	0xbf3d4adc	-0.7394235
165	0x3f13815b	0.57619256
166	0x3f10c26a	0.5654665
167	0xbe319d3a	-0.17345133
168	0x3eeaca19	0.45857313
169	0x3ebfde12	0.37474114
170	0xbf12990e	-0.5726479
171	0x3eb5e928	0.35529447
172	0xbb742696	-0.0037254444
173	0xbdf7a264	-0.120915204
174	0x3f1e7680	0.61899567
175	0x3e8ae926	0.27131003
176	0xbf0a4e80	-0.5402603
177	0x3eeff1af	0.46864077
178	0x3c60e270	0.013725862
179	0xbd7309c0	-0.05933547
180	0xbe63811e	-0.22217223
181	0xbf88f84c	-1.0700774
182	0xbe7d3ac4	-0.24729449
183	0xbe94f4e8	-0.290931
184	0xbe0bfda7	-0.1367098
185	0xbed09f6f	-0.40746638
186	0x3f139933	0.5765564
187	0xbe22e9e9	-0.15909542
188	0xbf3152ff	-0.69267267
189	0xbee8205c	-0.45337188
190	0xbf5b1393	-0.8557674
191	0x3f13f996	0.5780271
192	0xbda62566	-0.08112602
193	0xbeb88814	-0.3604132
194	0xbf36515f	-0.7121791
195	0x3eb82210	0.35963488
196	0xbf058873	-0.5216133
197	0xbf51a660	-0.81894493
198	0xbec92c82	-0.3929177
199	0x3ef9d3ab	0.48794302

linear1.bias f4 [100]
0	0xbf1b71d1	-0.60720545
1	0xbeea6254	-0.45778143
2	0x3e74dbd0	0.23911977
3	0xbf2fd913	-0.68690604
4	0x3eac1086	0.33606356
5	0x3e1475b9	0.14498033
6	0x3e283d88	0.16429722
7	0x3f221685	0.6331561
8	0x3f243992	0.64150345
9	0xbea73715	-0.32659212
10	0x3ed6c2cb	0.4194549
11	0x3ec3eac1	0.3826504
12	0x3dd978c1	0.10618735
13	0xbe45a38b	-0.19300668
14	0xbec7391a	-0.38910753
15	0xbeeb0a5b	-0.45906338
16	0x3df0f313	0.11765113
17	0xbb6d9bef	-0.0036256274
18	0xbd5df008	-0.05418399
19	0x3f459349	0.77177864
20	0xbf1314c0	-0.57453537
21	0x3da3fb0d	0.080068685
22	0x3c7ce547	0.015435523
23	0xbe03b87e	-0.12863347
24	0x3ead63ff	0.33865353
25	0x3ec64610	0.38725328
26	0xbee54b4a	-0.44784003
27	0x3ea17eee	0.31542152
28	0xbee45d9a	-0.44602662
29	0xbec6e5d3	-0.38847217
30	0xbf173c6a	-0.5907656
31	0x3c77ce90	0.015124932
32	0xbe3ab3d4	-0.18232661
33	0xbec15290	-0.37758303
34	0xbe0fc516	-0.14040026
35	0xbd5592e9	-0.052142058
36	0x3dd82fd6	0.10555999
37	0x3f08dbb0	0.53460217
38	0xbf1776c2	-0.59165585
39	0xbe2473a8	-0.16059744
40	0x3f016899	0.5055023
41	0x3ef27a9b	0.47359166
42	0x3e49f1ba	0.19721118
43	0xbe59e966	-0.2128044
44	0x3e985d9c	0.29758918
45	0x3cf3101c	0.029670767
46	0xbd783c48	-0.060604364
47	0xbcf38ac1	-0.029729249
48	0xbec2bb04	-0.38033307
49	0xbe327817	-0.17428623
50	0x3eef5827	0.46746942
51	0xbdd32b20	-0.1031096
52	0xbf2bdd9c	-0.67135024
53	0x3c64009b	0.01391616
54	0x3f0496de	0.51792705
55	0x3deb8c3b	0.11501356
56	0x3ef5bac0	0.4799404
57	0xbef2bef5	-0.47411314
58	0xbef974a5	-0.48721805
59	0x3e08a8f9	0.13345708
60	0x3e8e0684	0.27739346
61	0x3f1d8554	0.6153157
62	0x3e1585d8	0.14601839
63	0x3f0becf1	0.5465842
64	0xbf0a6d08	-0.5407262
65	0x3e30c0cf	0.1726105
66	0x3b02f136	0.0019980199
67	0xbd1478fa	-0.036248185
68	0x3eb77646	0.35832423
69	0xbf079b94	-0.5297177
70	0xbdae772d	-0.08518825
71	0xbec0b601	-0.37638858
72	0x3ea8b8e7	0.3295357
73	0xbf21a0af	-0.6313581
74	0xbeb9e167	-0.3630478
75	0xbf014cd7	-0.50507873
76	0x3f04aa3e	0.5182227
77	0x3ed59778	0.41717124
78	0x3f13aa4e	0.5768174
79	0x3f2e2e00	0.6803894
80	0x3e1fa4dc	0.15590233
81	0xbd48e3f4	-0.049045518
82	0x3dcf850b	0.10132798
83	0xbd8d71c8	-0.06906468
84	0xbc3203ff	-0.010865211
85	0xbf08a02d	-0.5336941
86	0x3e99c495	0.30032793
87	0xbee4f2c7	-0.44716474
88	0x3eba33d9	0.36367682
89	0x3dc28234	0.094974905
90	0x3d632f6f	0.055465158
91	0x3e995df1	0.29954484
92	0x3dbb6b4c	0.09151325
93	0xbec2e42c	-0.38064706
94	0xbec081d7	-0.3759906
95	0xbe97383f	-0.295351
96	0xbed9f278	-0.425678
97	0x3e92739f	0.28603837
98	0x3b21d534	0.002469373
99	0xbe5d77d9	-0.2162775

linear2.weight f4 [50, 100]
0	0x3cdb504d	0.026771689
1	0x3dbd2b0a	0.09236725
2	0xbbfde21a	-0.0077479007
3	0xbd44aac7	-0.04801443
4	0xbe3047e6	-0.17214927
5	0x3da93623	0.08262279
6	0xbdb4f727	-0.08836203
7	0xbd5a349e	-0.053272836
8	0xbc6e1646	-0.014531678
9	0x3d5ac977	0.053414788
10	0xbdd29722	-0.102827325
11	0xbde5e4c2	-0.11225273
12	0xbd1ddd47	-0.038541105
13	0xbd59cc6d	-0.05317347
14	0x3d10cc8a	0.035351314
15	0xbcfd320d	-0.030907655
16	0x3d57ce6a	0.052687086
17	0xbcb55da0	-0.02213937
18	0xbd88ad18	-0.0667364
19	0xbe0f8339	-0.14014901
20	0x3d70e15d	0.058808673
21	0xbd85b604	-0.06528857
22	0xbd90993f	-0.070604794
23	0xbd852c25	-0.065025605
24	0xbdfb0178	-0.122561395
25	0xbde385b6	-0.11109488
26	0xbce6533a	-0.028115857
27	0xbd0e2a8f	-0.034708556
28	0x3be37767	0.006941724
29	0xbcdadcda	-0.026716638
30	0xbbbc0400	-0.0057377815
31	0x3d3b8ed0	0.045790493
32	0xbe2f984d	-0.17147942
33	0xbe4c7595	-0.19966729
34	0xbda485f7	-0.08033364
35	0x3d341660	0.04396665
36	0xbdba331a	-0.09091778
37	0xbe441f8a	-0.19152656
38	0x3da7638a	0.081732824
39	0x3d5b6407	0.05356219
40	0xbe47f284	-0.19526106
41	0xbd2667b4	-0.040626243
42	0xbdd86c88	-0.10567576
43	0x3c09a933	0.008402157
44	0xbca1e896	-0.019764226
45	0x3d9e628b	0.07733639
46	0x3cb2f480	0.021845102
47	0xbe1808e2	-0.14847139
48	0x3d9a0510	0.07520497
49	0x3daa412b	0.08313211
50	0xbdeeda1e	-0.11662696
51	0xbe398d05	-0.18120201
52	0x3dbfdea8	0.0936864
53	0xbd3110aa	-0.043228783
54	0xbe259bde	-0.1617274
55	0xbdc15cfb	-0.09441563
56	0xbd7b9c11	-0.061428133
57	0x3d1d5353	0.038409542
58	0xbd304eba	-0.04304383
59	0xbe4bbd01	-0.19896318
60	0xbd02f020	-0.031967282
61	0xbdc475f9	-0.09592814
62	0xbc57a286	-0.013161307
63	0xbde3fb52	-0.1113192
64	0x3db8d0a5	0.09024171
65	0xbe024f9a	-0.12725678
66	0xbe17d14c	-0.14825934
67	0xbd32263d	-0.043493498
68	0xbd9dd629	-0.077068634
69	0x3db7e453	0.08979096
70	0xbdbff9ee	-0.09373842
71	0xbd9cc038	-0.0765385
72	0xbe3108fd	-0.17288585
73	0xbcb7f3c0	-0.022455096
74	0xbc758ce7	-0.014987207
75	0xbd60ae73	-0.054853868
76	0xbc8d5df1	-0.017256709
77	0xbd5f92d7	-0.054583397
78	0xbdbdaab1	-0.092610724
79	0xbd380758	-0.04492888
80	0x3ca87b00	0.020566463
81	0x3ba78b00	0.0051130056
82	0x3d1faa80	0.03898096
83	0xbe1d7bc1	-0.1537924
84	0xbe4d96f5	-0.20077117
85	0x3cf18c2d	0.029485786
86	0xbe342a47	-0.17594253
87	0xbdafc4b0	-0.08582437
88	0xbd95e193	-0.073184155
89	0xbcaa80e0	-0.020813406
90	0xbe2cf685	-0.16890915
91	0xbcc444d6	-0.023958605
92	0xbd0fc5df	-0.035100814
93	0x3c8dd20d	0.017312074
94	0xbd7076ed	-0.058707166
95	0xbdb9ad70	-0.09066284
96	0xbd9e7c8f	-0.077386014
97	0x3d8432ff	0.06455039
98	0xbd87263f	-0.06599092
99	0xbc5531e7	-0.013012386
100	0x3c84de53	0.016219294
101	0xbc469580	-0.0121206045
102	0x3cb7632d	0.022386158
103	0xbda1cd4b	-0.07900485
104	0x3da82aa8	0.08211261
105	0xbd93bd6d	-0.072138645
106	0xbd6f6453	-0.058445286
107	0xbdaa9ba2	-0.08330466
108	0x3d854dda	0.0650899
109	0xbd4acf9a	-0.04951439
110	0xbd0b9a2d	-0.03408258
111	0x3d5702da	0.052492954
112	0xbc2a024d	-0.010376525
113	0x3da8fd67	0.08251458
114	0x3cfa6f8d	0.03057077
115	0xbc0b18da	-0.008489812
116	0xbd897b10	-0.067129254
117	0xbdc34f2a	-0.09536584
118	0x3ce2c0a0	0.027679741
119	0x3bfb231a	0.0076640965
120	0x3dba8345	0.09107069
121	0xbdbc45f5	-0.09193031
122	0x3ca4901a	0.020088244
123	0x3d188150	0.037232697
124	0x3d61ef8a	0.055160083
125	0x3d46e4a7	0.048557904
126	0xbbe86c67	-0.0070930007
127	0xbdc3021a	-0.09521885
128	0xbca2ac2d	-0.01985749
129	0x3dca4da0	0.09878087
130	0xbd99a312	-0.07501806
131	0xbd88b9ea	-0.06676085
132	0x3dba5b47	0.09099441
133	0xbbd50a1a	-0.0065014483
134	0xbd091133	-0.033463668
135	0x3c3ab880	0.011396527
136	0x3d2bf047	0.041977193
137	0x3c112b33	0.008860397
138	0x3da4d7dd	0.08048985
139	0xbab992cd	-0.001415813
140	0xbd2c5030	-0.04206866
141	0xbd3f64f3	-0.046727132
142	0xbbfc7d1a	-0.007705343
143	0xbca005c7	-0.019534005
144	0x3d8a7a7f	0.067616455
145	0x3d3efc27	0.04662719
146	0x3d9dc370	0.07703292
147	0x3da07900	0.07835579
148	0x3daee428	0.08539611
149	0xbdc28ee8	-0.094999135
150	0xbcb99b33	-0.022657013
151	0xbc1ca733	-0.009561348
152	0x3d92a908	0.071611464
153	0xba59ff33	-0.0008315921
154	0x3d1b449a	0.03790722
155	0xbc184627	-0.009294069
156	0xbdc8efb8	-0.09811348
157	0x3c02cf40	0.007983983
158	0xbb0c4567	-0.0021403672
159	0xbd7ccb7d	-0.0617175
160	0x3dc77af2	0.09740247
161	0xbda448b2	-0.08021678
162	0xbdad8d70	-0.08474243
163	0xbd93108d	-0.07180891
164	0xbdb9f928	-0.09080726
165	0xbca51a87	-0.02015425
166	0xbd5adbe3	-0.053432357
167	0x3da7f1b3	0.08200397
168	0x3d5b497a	0.05353687
169	0x3d429f2a	0.047515072
170	0x3daff293	0.08591189
171	0xbda91ed8	-0.08257836
172	0xbd7618bd	-0.060082186
173	0x3daca615	0.08430115
174	0x3d952755	0.072828926
175	0x3c818620	0.015811026
176	0x3d6509aa	0.05591742
177	0x3cd1c0a0	0.025604546
178	0xbbf80900	-0.0075694323
179	0xbd091e43	-0.033476125
180	0x3d0fa7a0	0.03507197
181	0xbda64d85	-0.081202544
182	0x3dc9d4ef	0.09855067
183	0xbdb4a94a	-0.08821352
184	0xbd9b0f10	-0.07571232
185	0x3d9605e5	0.07325343
186	0xbd6d60ba	-0.057953574
187	0xbd48251d	-0.04886352
188	0xbcc24ec7	-0.023719205
189	0xbdb2c90d	-0.08729754
190	0xbb9bbecd	-0.00475297
191	0xbc6a4233	-0.01429801
192	0xbca42d67	-0.02004118
193	0xb9f724cd	-0.0004713893
194	0xbd899013	-0.06716933
195	0xbc8e0840	-0.017337918
196	0xbc4326b3	-0.011911082
197	0xbdca8ff3	-0.098907374
198	0xbd97ff83	-0.07421782
199	0x3d9dad1f	0.07699036
200	0xbdc42d98	-0.09579009
201	0xbca2829a	-0.019837666
202	0xbd70f640	-0.058828592
203	0x3dcb67cf	0.09931909
204	0x3d96b9ea	0.07359679
205	0x3d49a8b7	0.049233165
206	0xbd515930	-0.051110446
207	0xbdb4ae30	-0.08822286
208	0xbc8053e0	-0.015664995
209	0x3d7a81a0	0.061158776
210	0x3c3fccb3	0.011706519
211	0xbd60004a	-0.054687776
212	0xbdb7bc0f	-0.08971416
213	0x3dacfc5d	0.08446572
214	0x3ca44820	0.020053923
215	0x3d8bde57	0.06829517
216	0xbdb2d082	-0.08731176
217	0x3c582327	0.013191975
218	0x3dbf431a	0.093389705
219	0xbdc710b0	-0.0971998
220	0xbdc18aca	-0.094503
221	0xbdbc51e5	-0.09195308
222	0xbd495eba	-0.049162604
223	0xbc265600	-0.01015234
224	0x3d48ab0a	0.04899124
225	0xbd0e20aa	-0.03469912
226	0x3da21a6d	0.079151966
227	0x3da78537	0.081797056
228	0x3d89c410	0.06726849
229	0xbda598da	-0.08085795
230	0x3d20545d	0.039142955
231	0x3d68ac0a	0.056804694
232	0x3d960607	0.073253684
233	0xbdb918cd	-0.090379335
234	0xbcab4a8d	-0.020909572
235	0xbd4fd210	-0.05073744
236	0xbd1a1f3a	-0.037627436
237	0x3cee9a4d	0.02912631
238	0xbbb6eb1a	-0.0055822255
239	0x3d31e023	0.043426644
240	0xbd983120	-0.07431245
241	0xbcfedf00	-0.031112194
242	0x3d2f74d0	0.04283601
243	0xbd1722c0	-0.036898375
244	0x3c49d567	0.0123189455
245	0xbd88ceb5	-0.06680051
246	0x3db0c5e5	0.086314954
247	0xb9595000	-0.00020724535
248	0x3d168e07	0.03675654
249	0x3bb08ee7	0.005388129
250	0x3c2011c0	0.009769857
251	0x3dc24daa	0.094874695
252	0xbd2c5353	-0.04207165
253	0x3db3185b	0.0874488
254	0xbd29bdd7	-0.04144081
255	0xbb4cc733	-0.0031246662

linear2.bias f4 [50]
0	0xbe44e763	-0.19228892
1	0xbcaa1027	-0.020759655
2	0xbd29d230	-0.041460216
3	0x3dd713e0	0.10501838
4	0x3da0d225	0.07852582
5	0xbc639e28	-0.013892688
6	0x3da64db5	0.0812029
7	0xbd378415	-0.044803698
8	0xbdc7a4ac	-0.097482055
9	0xbe1ab01a	-0.1510624
10	0xbd7a7e5a	-0.061155654
11	0x3dc2b0ff	0.095064156
12	0x3ce0da5f	0.027447877
13	0x3beda497	0.0072522867
14	0xbe015cd5	-0.12633069
15	0x3e1fd575	0.15608771
16	0x3c9025e0	0.017596185
17	0x3d58d6fb	0.052939396
18	0x3d8a2afd	0.067464806
19	0x3d15866e	0.036505155
20	0xbd665454	-0.056232765
21	0xbd62979b	-0.055320363
22	0xbe677f1f	-0.22607087
23	0xbdc46d4e	-0.09591161
24	0xbdb37a5b	-0.08763572
25	0x3d53b342	0.051684625
26	0x3e2010cc	0.15631407
27	0xbda2898c	-0.07936391
28	0xbdb3cc3f	-0.08779191
29	0x3dcbbbed	0.099479534
30	0xbde071d5	-0.10959212
31	0xbddf66f4	-0.109083086
32	0xbd25416e	-0.0403456
33	0xbdcb13f9	-0.09915919
34	0xbdf2cb0a	-0.11855133
35	0xbe224b02	-0.15848926
36	0xbde25ef6	-0.110532686
37	0xbd0e65ea	-0.03476516
38	0x3e264703	0.16238026
39	0x3da95e3c	0.08269927
40	0xbd188c14	-0.037242964
41	0xbd7c7e81	-0.06164408
42	0xbc9f6db8	-0.019461498
43	0x3e561744	0.20907313
44	0xbd8685e2	-0.06568505
45	0x3dbe3493	0.092873715
46	0xbda61f71	-0.08111466
47	0x3e1dc945	0.1540881
48	0xbdacd1ce	-0.084384546
49	0x3e4883c8	0.1958152

linear3.weight f4 [2, 50]
0	0xbdefd814	-0.117111355
1	0x3dce84fd	0.10083959
2	0x3de0507d	0.10952852
3	0x3cd3ab10	0.025838405
4	0xbdb11bef	-0.08647906
5	0x3ee74a65	0.45173946
6	0xbca0f50f	-0.019648103
7	0x3f09c448	0.53815126
8	0x3da4ab54	0.08040491
9	0xbdae7431	-0.085182555
10	0xbed43915	-0.414498
11	0x3d924654	0.0714232
12	0x3d929bbd	0.07158611
13	0xbb75a993	-0.0037485107
14	0xbdfd1249	-0.12357003
15	0xbc53b041	-0.01292044
16	0x3d8e8fad	0.06960998
17	0xbef01e5c	-0.46898162
18	0x3c9546e0	0.018222272
19	0xbe709385	-0.23493774
20	0x3e09431a	0.13404503
21	0xbc8ebe61	-0.017424764
22	0xbd032057	-0.032013264
23	0xbe16511f	-0.14679383
24	0xbe100152	-0.14063004
25	0xbe842e14	-0.25816405
26	0x3e73e087	0.23816119
27	0xbe974c4b	-0.29550394
28	0x3d1f9d0b	0.038968127
29	0x3d5fc904	0.054635063
30	0x3da20066	0.07910232
31	0xbe025e07	-0.12731181
32	0x3c1fc376	0.009751191
33	0xbd0cf596	-0.034413897
34	0xbda67e65	-0.081295766
35	0xbdc92dc2	-0.09823181
36	0xbdb172a7	-0.08664446
37	0xbda33b9c	-0.07970354
38	0xbd07f998	-0.033197016
39	0xbc40c5e4	-0.011765931
40	0xbced7ded	-0.02899071
41	0xbed53dac	-0.41648614
42	0xbe625108	-0.22101223
43	0x3e7a7f94	0.2446273
44	0x3d3424e8	0.04398051
45	0x3ad88cac	0.0016521416
46	0xbe24eae3	-0.16105227
47	0xbe948daa	-0.2901433
48	0xbd859abc	-0.06523654
49	0xbd1e6425	-0.038669724
50	0xbd0b5fe4	-0.034026995
51	0x3ddf572a	0.10905297
52	0x3e015b0d	0.1263239
53	0x3d96d04d	0.07363949
54	0x3cd38ca6	0.025823902
55	0xbde9620f	-0.11395656
56	0xbdfd35da	-0.12363787
57	0xbee30e0c	-0.44346654
58	0x3c9bd18c	0.019020818
59	0xbccea7b3	-0.02522645
60	0x3d2cb9d6	0.042169414
61	0xbdf5fd9f	-0.12011265
62	0xbd61ac7b	-0.05509613
63	0x3eb1c572	0.3472095
64	0xbd99ba46	-0.07506232
65	0x3db144ee	0.086557254
66	0xbd6b94a1	-0.05751479
67	0x3eef2091	0.46704534
68	0x3d98aef4	0.07455245
69	0xbe4f630e	-0.2025263
70	0xbd9bc283	-0.076054595
71	0x3db155e2	0.08658959
72	0x3e32906b	0.17437904
73	0x3d375eb7	0.04476806
74	0x3dac9ead	0.084287025
75	0x3e9b3e74	0.30321085
76	0xbea9af5f	-0.3314161
77	0x3e9f74ac	0.311437
78	0x3e08ab33	0.13346557
79	0xbe0bb3d5	-0.13642819
80	0x3ce85a99	0.028363513
81	0xbe9ae654	-0.3025385
82	0x3ea31e4c	0.31859052
83	0xbd901128	-0.07034522
84	0xbdb311f1	-0.087436564
85	0xbd849191	-0.06473077
86	0x3c12a5eb	0.008950691
87	0xbddf5c48	-0.10906273
88	0xbdea80b4	-0.114503294
89	0xbe681773	-0.22665195
90	0x3e0f8998	0.14017332
91	0x3ed4e28c	0.41579092
92	0x3e6de566	0.2323204
93	0xbee158d8	-0.44013095
94	0x3dc491e3	0.09598138
95	0xbe886305	-0.26638046
96	0x3c8f84e5	0.017519424
97	0x3e583641	0.21114446
98	0xbece147c	-0.40250003
99	0x3d1e1d2f	0.03860205

linear3.bias f4 [2]
0	0x3e7235e1	0.23653366
1	0x3ea59d56	0.323466
