dkl_kernel_for_Length.pth (torch, 50535 bytes, 16 tensors)

likelihood.noise_covar.raw_noise f8 [1]
00000000: 9ece 2bc2 2c6a 07c0
-2.926843182527434

likelihood.noise_covar.raw_noise_constraint.lower_bound f8 []
00000000: 2d43 1ceb e236 1a3f
0.0001

likelihood.noise_covar.raw_noise_constraint.upper_bound f8 []
00000000: 0000 0000 0000 f07f
inf

feature_extractor.linear1.weight f8 [100, 2]
00000000: 9913 b1d7 5621 eebf 8e53 9091 9a42 e7bf
00000010: 6630 20c5 fc88 e0bf 6940 fe29 1bb0 cebf
00000020: 25d2 b545 a3cf e93f 52a0 d0c6 4489 c53f
00000030: 7f9e 85c7 eb44 b03f 2f99 ec78 b238 b33f
00000040: 7076 0c33 31df e73f 6372 e9cc 8439 e23f
00000050: 8658 ab2e 68d8 f2bf 4e62 de64 511b ce3f
00000060: e858 94fb 67a8 e4bf 58bf f704 fb3c babf
00000070: c0ba 6f66 ba56 80bf 3022 b7ea 68e4 a93f
00000080: 952d 9e31 3b44 d9bf 6477 0ce9 2147 c23f
00000090: 0934 490b ff6e ba3f 4a3b 5a22 ed94 bb3f
000000a0: 1ab9 f0aa 692d d9bf 61b5 ff07 ee8b f1bf
000000b0: d910 6c81 e5ec be3f ec8d 8b3a 8172 c13f
000000c0: b1ec b888 e636 d33f 118b 437a 4a09 da3f
000000d0: 2dda f9eb a93f 993f b3ef c92d 1e90 b63f
000000e0: d5bd 892f 803e ecbf 0edc 00ae 0606 c33f
000000f0: 6311 8098 a8ab df3f bbae 7899 0449 c1bf
00000100: a8bd 86a5 2dfb f1bf 0b7a 42e4 dd3f 9a3f
00000110: 2711 3e15 7558 d3bf 2ea0 64dc bb52 ce3f
00000120: 0e8f a86e f79a d53f b0e5 461b 7112 a1bf
00000130: c1aa d380 6ddf d2bf 4eaa 3c34 a7d2 d73f
00000140: e2e1 0312 1aa7 e0bf 8049 920d 5e63 7ebf
00000150: e043 02df 6097 d4bf 9722 d740 89ea eabf
00000160: f017 bea4 18e0 a13f 5e44 d865 f609 e4bf
00000170: 39d3 9df7 6166 c33f 9928 d2b6 9a00 c43f
00000180: 00e4 9084 f707 57bf 8678 52ab da55 d33f
00000190: fd02 a87a 4e85 e23f 473c 068f 263d d3bf
000001a0: c4a7 b53b 7158 d93f fd65 8930 66af e63f
000001b0: 40f3 4d45 65cf ab3f 7331 024f 195b e0bf
000001c0: e564 2957 bcf2 c2bf 891c 9110 b4f9 cd3f
000001d0: 47c7 eb2e 9ed1 d5bf 1c8c 9d2c a6dc c9bf
000001e0: 760a 113b e8ff e93f 516e 03ca 18ad da3f
000001f0: a5b4 2b5e 36ad a63f 36b6 7117 2ae2 c43f
00000200: 9082 18fc c126 a63f 9334 9319 76f3 d2bf
00000210: 4a6e 5edb 72db e5bf 6892 868f ce22 d2bf
00000220: 881d d841 6150 e2bf b7e2 1fc1 16e7 cfbf
00000230: 2e8c f5eb 0976 be3f b9cd e0e6 62f5 c83f
00000240: c35e 83dd 9512 d43f 6e0f 8f77 ac3f ebbf
00000250: ba5f 5cd5 51dd d73f cf3d 716c 24f1 cb3f
00000260: 0bc1 0049 770b c8bf b643 1dbd 56c7 c2bf
00000270: b799 638c 09b5 e1bf e436 e1cc ec02 bdbf
00000280: 8d78 6642 c76d d3bf d1cf 14a8 2a33 e4bf
00000290: aae8 faae 96c2 d03f 49b7 6747 92ff cbbf
000002a0: c6b6 7aa0 ea4d dabf 7264 4cd8 c44f e1bf
000002b0: f644 df29 6557 e8bf 6beb 8e08 82ac d33f
000002c0: 77c7 f71b 82b7 bc3f 2bdc 0426 d496 da3f
000002d0: 7778 c5e9 afc0 d33f 865f 2cdb 84fa cf3f
000002e0: cd2a 1702 6989 ca3f bc03 8cef dd1e bfbf
000002f0: 8e38 537e 722a c7bf dbc0 275b 4bac c03f
00000300: 4090 62e7 9812 953f 8cfc 7968 0abb b83f
00000310: 3122 d4fc 9abc c5bf 6bd5 145a 4f62 c73f
00000320: f8ec 8479 bdc2 ce3f 256c e3d9 8497 d6bf
00000330: 149c d1a9 bba3 c73f 45b1 2cbd 3f95 dc3f
00000340: c1c8 a9c6 b317 e93f 8b5b 58a8 f23c e03f
00000350: cbdd fa1c 05d8 e6bf 2ee1 17e2 9e37 c4bf
00000360: 2419 fd30 d277 c0bf 05a0 c02f ba7d d93f
00000370: bb2c b976 5f76 edbf 8444 5a87 4d1f c2bf
00000380: b599 1ea4 5bbd d0bf 8b02 0e73 50ef ccbf
00000390: fcba a9bc b150 c93f 8584 0d05 224b ea3f
000003a0: 4785 2d77 65d8 d53f fa59 f1dc 76c6 d23f
000003b0: 0ec1 7b30 7d21 e93f 7712 1883 85e5 e33f
000003c0: 0af7 5521 b913 d7bf 16ce 2e5e b01c d53f
000003d0: 1d6e f490 784a d53f b019 1794 52f3 e33f
000003e0: 2738 a5d3 084c d23f 3b83 57d5 2d92 9a3f
000003f0: 2e52 d814 6149 d53f 932e 98bc 4791 d9bf
00000400: e5ff 9702 367e db3f 2e79 51df c8b7 b63f
00000410: cbb4 a1fa 41e3 e13f 2d34 2f23 1f64 d73f
00000420: 0744 d758 2e5d e4bf 96fa 0e4d 4e3e c83f
00000430: a2a7 fa76 2997 c13f 4260 5d9c 228d efbf
00000440: 5b0a f3c0 93f5 d5bf e667 f381 b552 e0bf
00000450: 2c66 7f43 7be9 d03f 00f2 f1e1 5c54 7cbf
00000460: f39b 71bb f326 d7bf e936 2481 3879 93bf
00000470: 8048 7a45 ab3c d4bf 2f7b 7314 37d1 d4bf
00000480: b6c8 5309 5328 c9bf df3c 2fd9 d32a d4bf
00000490: bcf6 2f1f 3d16 b2bf 9866 1166 095d a7bf
000004a0: 291a e689 7f89 e2bf a68f 960f c341 efbf
000004b0: 6455 7f18 a81d d73f 6830 0ae9 1fa0 d13f
000004c0: 8177 73ce e0b1 b23f df96 fe90 0869 c63f
000004d0: ff96 56da 2de5 d9bf 4384 01dd 685b b43f
000004e0: 9e19 0adc 4e06 e0bf 789f 78cd bbf7 c23f
000004f0: 590e b673 d4f7 ce3f 1808 ac99 b03e ca3f
00000500: b88f f4e0 bd7f bfbf f525 b3cd dcdc e13f
00000510: 0097 aace 1820 66bf ec73 b9c2 2778 c7bf
00000520: 1f6a 7e90 ed6a b43f a168 fee6 d1c2 f5bf
00000530: 001b caa8 35c1 b7bf 4169 f38e 6d7a e2bf
00000540: 47aa 0f0f cb5a d5bf 8eb2 dcfc acbf d03f
00000550: 8ce5 6039 784e e6bf 935e 263b 6b6c e4bf
00000560: dd25 a0ad e925 d03f cb93 cf8f 2426 cabf
00000570: 7fc9 186f 4ef9 ca3f 2004 0339 bd79 983f
00000580: 7e71 0076 d5eb d5bf a2cb 83be ce4c e03f
00000590: d628 4a39 a1af e0bf a036 02ea 590c e0bf
000005a0: 5ff9 ca1f 9eb7 c93f 4904 766c b743 c53f
000005b0: 919c 44f4 cb7e db3f bb9e dc47 e35b d73f
000005c0: 8d03 38d5 6cde e23f 5dc3 fe8c d105 d6bf
000005d0: c35d 6a47 ecd7 ee3f 3cbd b778 e966 e73f
000005e0: 7029 f45a e25e e73f 574d 0ca2 af11 eb3f
000005f0: 98fe 250a 0b3e cf3f 78dc e030 d0c1 c4bf
00000600: a803 5f0a 178b cf3f ac7e 9b2e b3b8 cabf
00000610: 5f13 b043 bb11 96bf b45e f1ff 035a e53f
00000620: bb10 bba5 a781 df3f 15e0 a5df 2643 ea3f
00000630: c928 80fc ee86 eb3f 7579 04af 4fbd b53f
-0.941569730065214 -0.7268803446810226 -0.5167220926391678 -0.23974933195541162 0.8065964089897234 0.16825160701523828 0.06355165120259619 0.07508387996913223
0.7459951397938323 0.5695213319955424 -1.1778337309856695 0.2352086775324715 -0.645557395330596 -0.10249298926623618 -0.007977920771705782 0.05057075371911812
-0.39478950353142156 0.1427957904751863 0.10325616860900778 0.10774118508036881 -0.3933967751826387 -1.0966625511603854 0.12080225381584188 0.13630690916680466
0.3002258620433152 0.40681707324817845 0.024656920459586274 0.08813656442538224 -0.8826294830777736 0.14862140175111488 0.49485220806697877 -0.13504083150598042
-1.1238228288528749 0.025634257370819962 -0.3022740085073274 0.2368998361719163 0.33758340651023466 -0.03334382493944632 -0.2948869474482017 0.37223224736468274
-0.5203981735094738 -0.007418982882102632 -0.3217394044705184 -0.8411299005902774 0.0349128438092946 -0.626216124454128 0.15156197157525655 0.15626844336322135
-0.0014057080427518631 0.3021151230876814 0.5787727733259939 -0.3006073376390685 0.39602309065832864 0.7089110324843088 0.05431667777063476 -0.5111204665313792
-0.148032705840513 0.23418284233978096 -0.3409190614903434 -0.20204617670523894 0.8124886659282555 0.41681499221679014 0.04429025554223046 0.16315199036346123
0.04326444818821529 -0.29610970017967836 -0.6830381664798975 -0.2833744432084928 -0.5723120008487266 -0.24923977308187314 0.11898862848970346 0.19498859666201243
0.313634363480997 -0.8515226683743842 0.37288328014392 0.21829657835995284 -0.18784991325947717 -0.14670833810899148 -0.5533492795919334 -0.11332588197657462
-0.3035753391685681 -0.6312459261739553 0.2618767460622943 -0.21873692022875904 -0.4110056464368025 -0.5409874176576877 -0.7606683557334282 0.3074040492608023
0.11217511351403951 0.41545585358420806 0.3086356909678964 0.2498327322180069 0.20731842615199128 -0.12156474207223672 -0.18098288696495896 0.13025800658170436
0.020578755495663126 0.09660401392646828 -0.16981828065060392 0.18268768213753658 0.24031799729878123 -0.3529979827705481 0.18468423644955634 0.4466094348342902
0.7841433410779005 0.5074399269095563 -0.7138696256651483 -0.1579474071475117 -0.1286566485598054 0.39829878485988984 -0.9206998175444804 -0.14158028706564008
-0.26155749347017415 -0.22605329149157102 0.19777509414731032 0.8216714953124585 0.34133278501947867 0.29336330009883194 0.7853380152646723 0.6217677650862034
-0.3605788064522676 0.32987603375951957 0.33267034679167456 0.6234524624240319 0.28589077633376053 0.025948253771164814 0.3326037124218456 -0.3994922010176449
0.4295783067063879 0.0887418313227257 0.5589914221906381 0.3654859393689687 -0.6363746390508148 0.18940142405150046 0.13742559728171694 -0.9859784177779221
-0.34311384051048827 -0.5100963152028697 0.26425057975356725 -0.006916392157219509 -0.3617524462228509 -0.01901710785118996 -0.3162029436581477 -0.3252694797246702
-0.19654310183938656 -0.31511398515153916 -0.07065183650407908 -0.045631688794583514 -0.579284447988191 -0.9767775825935032 0.36118509666751764 0.2753982330111797
0.07302670517262123 0.1750803668957621 -0.4046129829606428 0.07951980014469577 -0.5007700250287603 0.14818522961399672 0.24193816804846582 0.20503814223781158
-0.12304293386529153 0.5582107560705355 -0.002700851871241805 -0.18335434921291893 0.0797565915840228 -1.3600634597010315 -0.09279189463459758 -0.5774448196419045
-0.3336665770608857 0.261698958335537 -0.6970788117097739 -0.6382347255011659 0.25231401401160075 -0.20428902647031885 0.2107332270112003 0.02390189800712872
-0.34251915477377526 0.5093759270661062 -0.5214391821803257 -0.5015077181321494 0.20091606666933168 0.16612904354045302 0.4296140561513733 0.3649833871627199
0.5896515049390573 -0.34410513657626557 0.9638577837785579 0.7313124997871578 0.7303325439873287 0.8459089436532093 0.24408090587165954 -0.1621647108711135
0.2464321900024775 -0.20876159454109222 -0.021552015310607128 0.6672382353671851 0.49228850540772456 0.8206972473262818 0.8602213794377117 0.08491991064918188

feature_extractor.linear1.bias f8 [100]
00000000: a7ee 93c8 e3d9 c1bf 19c2 c97f ba6f c8bf
00000010: 38b6 ee81 01ac d63f c2df 0e39 1826 e33f
00000020: 9c18 9b69 5f7a d03f edbb a815 5e40 bfbf
00000030: f7bd 2e64 ed34 e4bf dc2e 5692 d195 e5bf
00000040: fdb6 e6ec 7d59 cabf a80b e3df b89a 8f3f
00000050: 90d0 9332 8590 a53f 5725 a0a7 f598 e4bf
00000060: 807f 8128 c99b de3f 17b4 a7be 0013 d43f
00000070: e31a f2c2 8412 c53f 8088 bb9c 9203 e73f
00000080: 9ebc 1486 3ba0 ba3f 76d9 167d 7ef2 d6bf
00000090: 389b c8fd 9e8a e4bf 61b0 13ac 57fa e1bf
000000a0: 6040 ce3e 7c0d dbbf 6ffc 7623 b239 d1bf
000000b0: 700e 3abf 2df5 dabf 4254 bbd3 66b4 ddbf
000000c0: e5c0 3994 7200 e5bf 3dcc be8f 8ff9 e73f
000000d0: 8c11 98af adc4 e9bf d4d5 d48a 229c e5bf
000000e0: 68d3 9dcc 861e e9bf 2037 7d65 ed89 9ebf
000000f0: efd2 b345 0737 7ebf ffcc 1758 71e6 e63f
00000100: 3922 12fa 53ac d7bf 65e3 25fa b30f e5bf
00000110: d619 094b 137e b43f d47f 98d2 8d75 a63f
00000120: edcf b887 e229 edbf e69e e1da c88e 9a3f
00000130: 8948 ca17 479a bcbf e69f 17dd 3569 d63f
00000140: a029 5fb0 6496 d1bf f1c5 6882 dc7d d53f
00000150: 900f 6a33 c948 c3bf e94f 16a2 df43 debf
00000160: 5bb3 e831 606c c73f 1e99 7afc 2607 6e3f
00000170: 6b15 3720 e11d d43f 6bfb e9c9 4bd6 e9bf
00000180: 6798 5716 e023 e8bf 20fc 970a 008a d73f
00000190: 6e14 54d8 97eb dabf db5f 1f13 b7b4 e13f
000001a0: 1d2f 7df4 2ab1 b7bf 0616 cfb7 61a7 d53f
000001b0: e25c 5f53 8480 e1bf 1873 5dc0 a6d0 d23f
000001c0: 9575 8107 a6fb e33f f5f2 bd31 edaa e83f
000001d0: 9c98 c26b 102a eabf 3815 56ce f785 e93f
000001e0: a97c f825 fb9b ed3f b026 1050 7a16 debf
000001f0: 207e a47e d6ad dd3f 1dac cb0b ff8e e1bf
00000200: 9d64 c0f6 0beb c8bf 55f4 acf7 bd2c b4bf
00000210: a0a5 739e 702c c0bf 5058 455c 7678 b03f
00000220: c423 b3c2 4fa7 d8bf 14cd 9059 2e8a e1bf
00000230: fcb3 6bcc 30d9 6c3f 5cfb b7da 651c cbbf
00000240: 7f75 2c48 04d4 ea3f 5ed7 acf9 7f91 e3bf
00000250: 7d0e 55ba 11ce 8fbf d2fb 535a de28 bcbf
00000260: 6fa4 0b72 0e4e e5bf 0e9f d548 3b89 d63f
00000270: d793 678b 1d26 b9bf 4239 730d 80b3 9abf
00000280: d9a0 0029 da61 ec3f 80b8 9ba7 7960 e6bf
00000290: 195a 9759 b352 cc3f 586a dd23 09db e2bf
000002a0: 0c1b 0b18 3440 c4bf 89ab 18e1 ac9f ccbf
000002b0: a3ae 400c 46f0 e4bf 7d82 964d b270 cf3f
000002c0: d345 79f4 a732 e83f e8e9 3932 d7d1 e1bf
000002d0: a2a4 df07 dfc1 d53f fed2 134d 6c0d cb3f
000002e0: d50d 4510 f06d d4bf 9836 24f1 5bba ed3f
000002f0: c5a4 254f c533 e03f 8c68 fb90 e420 dabf
00000300: 6c14 0bb0 ae8d d0bf cbc4 b264 fe7c d73f
00000310: 4d9b 1f62 7a11 e93f d0a1 2381 afb0 c03f
-0.13946196836319766 -0.19090968360571095 0.35424840630261967 0.5984002222457934 0.2574690371806214 -0.12207592037951516 -0.6314608532611022 -0.6745384081018204
-0.20585607593005043 0.01543182786224924 0.042118227409362 -0.6436718248307142 0.47825840907716355 0.31365984553014087 0.16462764281114692 0.7191861210997246
0.104007454142208 -0.35855066505191446 -0.641921516104822 -0.5618093834759855 -0.4226980794273967 -0.269146475442489 -0.42121452021112926 -0.464135844010631
-0.6563046355277292 0.7492139632726161 -0.8052586011477145 -0.6753094398069899 -0.7849763866821435 -0.02982302600803799 -0.007376697928738392 0.7156302185598234
-0.36989306851367904 -0.658166874475779 0.08004875738070125 0.043865615804179164 -0.9113629008120349 0.025935304984527806 -0.11172909098448448 0.3501715334991772
-0.2748042795543828 0.33580696807174976 -0.15065875063384881 -0.47289267376731786 0.1829948657699799 0.0036655198526488594 0.31432369371426344 -0.8074091857559841
-0.7543793140764706 0.36779786142864346 -0.420629464395751 0.5533099530684881 -0.09254711598367434 0.3383411688813286 -0.5469380977982861 0.2939850691380328
0.6244688173862182 0.7708650561831677 -0.8176347832384354 0.7976035146718123 0.92529065529006 -0.4701219350687138 0.463735221552243 -0.5487055998213496
-0.1946730570641976 -0.07880770966308266 -0.1263561986627737 0.0643381095190716 -0.38521188748978497 -0.5481178044632622 0.0035215333076536997 -0.21180413417456634
0.8383809480325651 -0.6115112186878198 -0.015529764651211803 -0.10999860482478077 -0.6657783725214709 0.35212595093479215 -0.09823784497673614 -0.026075363942078107
0.886944847186011 -0.6992767594908997 0.22127382158824174 -0.5892377567755132 -0.1582093350791286 -0.22362290373834195 -0.6543302764234408 0.24562672413323475
0.7561836027982117 -0.5568653088551487 0.3399579598322565 0.2113471390108756 -0.31921006764261267 0.9289989194673636 0.5063196702805263 -0.4082576194611043
-0.2586476058170948 0.3670040114767061 0.783383552214994 0.13039201551079183

feature_extractor.linear2.weight f8 [50, 100]
00000000: 295b ed3f 688d b83f cf91 1c31 a216 a7bf
00000010: 72f8 6ef8 0506 dfbf e898 cbbd 57af d53f
00000020: 95b3 a9fa 32d1 8dbf b2ad 0eac 248f 16c0
00000030: dc2b 16ea 4958 b0bf 4cf4 eb62 915e a8bf
00000040: c0c5 c5f1 c75d 83bf 1e58 2abd b5e1 b73f
00000050: ece0 cffc 0cb0 f13f 4ad9 cddf e00a ad3f
00000060: 0201 626f f895 c43f 4696 6476 c576 e13f
00000070: afd8 a824 a811 0840 9d3f 23ef ba3d d1bf
00000080: 65ea 5cf5 3ec7 0fc0 ddc2 2978 e598 b83f
00000090: 554f 2244 7e15 b73f 1e75 cd7f d8d1 b7bf
000000a0: 204c a48c 46dd 9fbf 05b2 6e9a 9de1 b73f
000000b0: 5f26 a852 3bf0 b03f 4663 77b5 c10d ac3f
000000c0: 0d49 a686 ab6b b43f 333a 50c3 088c cabf
000000d0: 749f 8c64 1236 d73f d1de b2e2 ac43 b5bf
000000e0: 8485 6f1b 89f6 9d3f 089d f1f2 1f5d b7bf
000000f0: 8bdc 019d 4bce d9bf 46c6 ebd9 c869 b83f
00000100: a389 d546 c8b9 b13f 8add 7993 4936 a83f
00000110: 3f37 962f 5103 1a40 c4da 9cd0 b95b d83f
00000120: a142 5161 c545 b63f b51e e4aa a022 d9bf
00000130: fbc5 68db bb02 b4bf e73e aac3 0f29 f9bf
00000140: b864 4b7a c9ae 9ebf bb9a a3cb c7f9 d2bf
00000150: 5983 91cf af93 a3bf bcb5 31dc 9627 d33f
00000160: 45bb 6878 de36 d93f 77cb 5190 fb45 b6bf
00000170: 5afb cebd f2b1 d7bf a06c a1d4 a662 93bf
00000180: 18ab 63c1 87e3 88bf 2b13 7d98 5bf9 e13f
00000190: 001c 03db b37b 5e3f 3125 957d ac87 d03f
000001a0: 7820 5a20 31cd d7bf 2db1 f0a6 e29f f7bf
000001b0: d5b8 4f55 52d9 b13f fbdf a9b9 156d f43f
000001c0: 89c7 ca1b 02f6 9e3f f08e 6495 1871 dc3f
000001d0: d87e f52c a7d3 82bf d5ec 8bb7 314d aa3f
000001e0: dce9 8379 cfb7 e03f 534d 8334 0dcf dd3f
000001f0: 3545 f17a 88c5 b23f c4e4 bc29 dfee 9ebf
00000200: c4ad 198e 1ee3 f1bf 72d1 bb4f 9cc1 d9bf
00000210: 99c6 acfd cb5a 16c0 d3ca 9ba2 d4cb e53f
00000220: 4511 f513 d8ed b63f ae0f 5c67 e5b8 aa3f
00000230: 5272 5a57 a78d f4bf a64b ac4f 1c58 ae3f
00000240: cc1f 3fa3 a6ac 973f 31e4 1191 6085 b13f
00000250: c258 1664 73ba e93f 93f7 acce d782 c03f
00000260: 9ef2 795c d583 aa3f 0fda a2c3 fa3c debf
00000270: 9c2a 2281 13d8 0cc0 38d4 039f d380 c33f
00000280: f7a7 45af 547b db3f e0e6 7a51 d9c4 783f
00000290: 3363 6952 98a6 f43f 7cbd 26a2 af45 b9bf
000002a0: 989f 5c9a f1a3 b93f cc17 8ea9 6146 9e3f
000002b0: c566 32a4 a2b6 b53f 0d7b 1774 a9e1 c03f
000002c0: 8c3a a581 202e e13f 5be6 5f73 2dea b73f
000002d0: ffb9 c430 d366 a43f fc0d e97f b1f6 923f
000002e0: 0da3 b373 ace0 cabf b5a5 782d ae0e aa3f
000002f0: c442 eddb aeea c43f fbc4 fd63 62aa b6bf
00000300: cba9 fc82 17c5 e5bf ff0c a3c2 dc40 d53f
00000310: 4c0a 6693 d56b cf3f 8cca 93e1 0a5f d6bf
00000320: b9e0 24b5 f0e6 d0bf bcd2 5d15 f1ff d5bf
00000330: 2cfd dc64 3150 d0bf 6d9a a953 2335 cfbf
00000340: 3897 29ea 6064 d0bf fe56 9b94 952a d4bf
00000350: ee6c cb31 2f12 b9bf 5d51 a2a7 c53f b53f
00000360: 7e58 0e81 8215 ccbf ff9a 9566 1e48 c9bf
00000370: 7ca0 31b2 884b a7bf 8bb2 9940 e98a d8bf
00000380: 4b73 2622 72ea d5bf 9b90 4978 792d d8bf
00000390: c151 0869 0f00 c9bf c1d4 a646 0c73 d1bf
000003a0: 64a5 335f 4148 cfbf 14db 62d9 3865 d0bf
000003b0: 40e4 f0b1 4c5f 8d3f 8a14 6eaf b421 ad3f
000003c0: e16d a683 c3d4 b5bf 2cbd 5c51 4eab b2bf
000003d0: 0023 7833 2a4c 66bf e629 aa95 a3b5 a53f
000003e0: 7381 e6c4 f992 b7bf 254c 77c2 e1dc d5bf
000003f0: 2ad2 1a08 d103 d1bf 1683 9587 b41c abbf
00000400: c61b ef5c 74b1 d03f 46a4 ab13 6a7e b2bf
00000410: cf5b 1ddf 60a3 d13f 7610 61f5 a2fc d5bf
00000420: b952 7286 5c66 b13f abae 91db 7fda b1bf
00000430: 2de4 2a0a f140 cabf c0ca 30aa 307d d2bf
00000440: 8640 6133 0693 aabf c7fc 074d f934 d0bf
00000450: 85db ce51 b18e d2bf 0ccb 5da6 4d91 d1bf
00000460: 0c11 5101 024b 90bf fb96 d5ac 7458 d3bf
00000470: aca1 2e5e a430 9cbf 6141 441e abc4 c9bf
00000480: 7a8a 978b 33f2 d2bf 3564 f7f4 0eea d6bf
00000490: 820f a76e c557 ccbf 5fd5 098b 0d11 b8bf
000004a0: 19e1 1fdb 8937 c83f 504e 39a3 74f7 d4bf
000004b0: d4ef 19f2 f529 963f 233e ccb3 1440 d7bf
000004c0: 103e ca8e 77f1 ce3f bc27 3570 2bc3 a9bf
000004d0: 0775 a236 9b26 ccbf 2480 57af ed84 b8bf
000004e0: e35f e163 4ef0 d6bf 4ea6 91ea 957b cfbf
000004f0: 24b8 ce23 4872 c93f 53d8 2b82 9dfb d7bf
00000500: b334 e570 5c73 d7bf 0a64 7454 d13d d43f
00000510: 0c83 0370 394a d0bf 2b6f 6a94 5613 b13f
00000520: cd7c 1d0f 490e d3bf 4000 175c 70f7 6d3f
00000530: 73d2 ddfd db49 d7bf 2fe7 98cb d49d cdbf
00000540: f622 f750 d2a7 acbf c04a 8d7f 87ea 8dbf
00000550: f171 698b 0fac cbbf e953 c833 cd74 b6bf
00000560: 8110 9d9b 625f cdbf 0a01 b1ca 07fe c73f
00000570: 8587 7862 c1cb d7bf cb74 8082 0d85 cdbf
00000580: 7bab c336 8d14 d2bf b827 5a23 a511 d0bf
00000590: ba7b d20d 615a cbbf 9862 b3f4 7bc0 c8bf
000005a0: f480 ad4c 4a64 cbbf 6cde 178a 7bd3 afbf
000005b0: 1b66 0ad7 4ae5 b8bf 7712 64e3 6c15 b63f
000005c0: 557b a337 7070 d1bf 9db6 ba78 c63e d3bf
000005d0: 329e a3b1 5f6b ab3f 7de3 c8ad 64ba d0bf
000005e0: 76a9 b67a c29d d1bf 52f3 b1ef a808 a0bf
000005f0: a7fb 16ff 20e0 cbbf 2f66 3c32 79c0 d5bf
00000600: c24d 7a4c 77e3 d0bf 78f8 68c8 3f5a d2bf
00000610: 7ccb 4140 0d46 d6bf 9763 23fe b307 b63f
00000620: 2f1e b1fd fb51 cdbf 48f5 6f56 c496 d4bf
00000630: 0ed8 f109 eaf2 d5bf 2b56 6aa9 b154 d5bf
00000640: 10fe fa01 8580 823f 449d df60 9954 9c3f
00000650: cf6a a1b9 04aa afbf 00c3 4be4 5622 933f
00000660: 2c49 bd2b ed73 b2bf fa91 b103 bf7f ae3f
00000670: aff6 bcb6 ea00 a6bf ab00 fabd d74d b0bf
00000680: 0013 2460 e5ee 76bf 0c72 aec6 06be b0bf
00000690: 3bb1 9b34 160b b6bf e095 372e 1dc3 7b3f
000006a0: 8ed3 c039 354a a53f b63d a93d d469 b4bf
000006b0: 4b97 c535 ee7a b93f 1069 d422 39a9 89bf
000006c0: efb2 607b 7204 b9bf 2952 cc8e 5012 b7bf
000006d0: 4d3d 9632 556f b73f cf56 c3d6 7a7a acbf
000006e0: 7625 3998 cffa a23f b4c1 f930 73e5 91bf
000006f0: 5cad 4585 b198 afbf d5d0 187d 1cd9 b43f
00000700: dbfb d7e3 87ba b73f c0b3 1548 c992 963f
00000710: a065 27f2 a509 b7bf f644 5289 27da b7bf
00000720: 6d53 1b35 062b b73f 945b c101 3f07 b7bf
00000730: 6045 23c3 15e6 613f cdab ee89 6226 b03f
00000740: ca95 054c da5c a33f 2f15 f6b2 0bfb afbf
00000750: 450c a661 1bee b23f 8615 e139 4b5c a63f
00000760: 3eaf f70c a5aa b3bf e9bc 1519 8fb7 b83f
00000770: f6cf 6bbd 1579 b2bf 8079 7826 aa4e 93bf
00000780: d6fa f775 bda9 a6bf 9c1e e94a d4ef b8bf
00000790: 9959 2bb2 8f75 b93f 806b 21f7 d117 533f
000007a0: 4c03 7890 cf4f 903f c390 ab90 58c7 b7bf
000007b0: ddf3 2a4b af02 b43f cab2 2c8c 4066 a73f
000007c0: 5ed3 d3fc 3d92 a53f 58bf 3368 bee6 91bf
000007d0: ce76 5d1f 9dd1 a63f 243f 8f3e 4219 95bf
000007e0: fcb5 4bb3 e597 b9bf cee0 d5d1 6308 a43f
000007f0: 00df dd7d f9a5 4c3f 6b96 f005 cbf0 b53f
0.0959077030250738 -0.04509455537325701 -0.4847426344021023 0.33882707152078106 -0.014559171938538099 -5.639788330455689 -0.06384717907910392 -0.04759649593868484
-0.009456216874897616 0.09328781002327033 1.1054811358899839 0.0567236207197533 0.1608267349111046 0.5457484543191604 3.0086214889552916 -0.2693927131012915
-3.9722880524616806 0.09608301337881238 0.09017171061924263 -0.09304574127368823 -0.031117536863416118 0.09328637142488823 0.06616564529408596 0.054792455102591606
0.07976791417448599 -0.2073985055617001 0.3626752836157643 -0.08306389364849599 0.029260771083391215 -0.09126472169156241 -0.4032162698053489 0.09536414451920291
0.06924106339787399 0.04728918004269207 6.503239387076802 0.38059850094161285 0.08700212121881147 -0.3927385014398895 -0.07816671473189978 -1.5725247996487555
-0.029963634576095827 -0.29649538885716326 -0.0382361355666549 0.2992913389524252 0.39397393950178056 -0.08700535081315573 -0.37023609672535474 -0.018931013801517182
-0.012152729596399278 0.5616891840259987 0.001860547676231894 0.25828087104726466 -0.37189891967182787 -1.4765345116712283 0.06972231467054553 1.2766320469363552
0.030235321947379688 0.4444028338350412 -0.009192758616961269 0.05137019506033772 0.5224377988191082 0.46576242569172627 0.07332661630177457 -0.03020809833762851
-1.1179490614693899 -0.40244205271235167 -5.5886687885955775 0.6811316657970913 0.08956671225775377 0.05219189535821954 -1.2845834171522665 0.0592659804589382
0.02311954852464719 0.06844142476792638 0.804010100825302 0.1289930113943539 0.05178705934392734 -0.4724718962201288 -3.605505951743295 0.15236897720720477
0.42940251461425255 0.006047104739701686 1.2906726092534881 -0.09871957501194645 0.100157833276738 0.029565359090632445 0.08481804379189402 0.1318866555074795
0.5368807346474838 0.0934170157123843 0.03984699220960763 0.018519185478238484 -0.20998149537560842 0.05089325242108648 0.16341195810902864 -0.08853735867684868
-0.6803090627993752 0.33208388335715705 0.24547834107586863 -0.34955093411478155 -0.2640954751000311 -0.3437464436204143 -0.25489458894658656 -0.2438091429241526
-0.2561266218893823 -0.3150991393316501 -0.0979337212151454 0.08300433485630294 -0.2194064264446673 -0.19751338967326856 -0.04549815345018346 -0.38347846325522345
-0.3424344380853667 -0.37777554270565766 -0.19531433704891124 -0.27264696979120734 -0.24439255856058673 -0.2561781046783136 0.014341925793006749 0.05689777986030105
-0.08527776683916201 -0.0729264210356077 -0.0027218651046080344 0.04240142061196987 -0.0920864206041239 -0.3416065596658789 -0.2658579424999369 -0.05295337824896344
0.26083096576297427 -0.07224143009411063 0.27559682644408395 -0.3435447117119631 0.06796816141497687 -0.06974028692791971 -0.20510685917341345 -0.2888909971253888
-0.0519029557914346 -0.25323326609209257 -0.2899592684656727 -0.2744936108276057 -0.015911132173884332 -0.30227391126969366 -0.0275293047413087 -0.20131434419500763
-0.2960327971651747 -0.3580357925653204 -0.22142856505353953 -0.09401020664684755 0.18919490050735346 -0.3276034921629831 0.02164444246453441 -0.3632861858213536
0.24174398872536118 -0.05031715149614466 -0.2199281708498477 -0.09577832728200569 -0.3584171271700127 -0.24595903352319443 0.19880010364926293 -0.3747323771671109
-0.36641608262000175 0.3162730526688057 -0.25453029574241337 0.06670132754737483 -0.29774691082088794 0.0036580271268747133 -0.3638830165066686 -0.23137912694238014
-0.05596787680003061 -0.014607485370708218 -0.2161883764955657 -0.08771975053998883 -0.2294734248954491 0.1874398936943254 -0.3718112432126122 -0.23062294838101702
-0.2825043711479151 -0.2510769696460744 -0.21369565176880007 -0.1933741516902685 -0.21399811500578603 -0.06216035900791614 -0.09724872350707196 0.08626442481551942
-0.2724876921983442 -0.3007064990041302 0.053553572115387374 -0.26137654277004413 -0.27525388702147013 -0.031316069850595554 -0.21777737098269975 -0.33987264543393086
-0.2638834235051172 -0.28675837107937907 -0.3480256202230334 0.08605503992602191 -0.22906446349428353 -0.3217020839800466 -0.34295130702173615 -0.33329431099386636
0.009034194109857757 0.027666470086754616 -0.06184401288984064 0.01868568199546683 -0.0720813972268714 0.05956837577904035 -0.04297574501695799 -0.06368778598880691
-0.005598922727817479 -0.06539957380886835 -0.08610667023066736 0.006777872072665642 0.04158178644175968 -0.07973982339284799 0.09953202069081361 -0.01252979886571784
-0.09772410881187076 -0.09012320982248724 0.09154255375891758 -0.055621947017852606 0.037069785434662814 -0.01747684465812123 -0.06171183349473594 0.08143785528301646
0.09268998444166192 0.022044320130067296 -0.08999097024879754 -0.09317252256939298 0.09050024792243301 -0.08995431702474682 0.0021849083942490494 0.06308570735443127
0.03781778505325979 -0.06246220168672278 0.07394572385787608 0.04367289620908381 -0.07682258192624844 0.096550887703177 -0.07216010927714919 -0.018854769323405574
-0.04426376404807335 -0.09740950421211853 0.09945009326779654 0.0011653471415431216 0.015929454033542442 -0.09288552791582831 0.07816596589232412 0.045701996909291845
0.042131363976216404 -0.01748178015708332 0.04456797607302364 -0.02060416704972491 -0.09997401835763492 0.03912651001422916 0.0008742778988865829 0.08570546050085574

feature_extractor.linear2.bias f8 [50]
00000000: b7cf b5fb ded0 d63f 509c 3117 8cf5 d7bf
00000010: 20db 2175 ea7f 93bf 3d9c 5848 6829 d43f
00000020: a0e6 c268 5218 943f 8ee6 3146 0b78 d33f
00000030: 4515 e216 f509 e03f ec56 5a8b 7aaf cbbf
00000040: 1256 b9eb 001d b8bf 432c efd3 e79b b13f
00000050: 27ca 57f4 539a d1bf afbd fea5 32a8 94bf
00000060: 8772 5e0b f498 a3bf efb7 43da 592b a73f
00000070: 7a28 421f b7d6 b0bf b501 0dcd 3712 d2bf
00000080: 6345 9c99 bfb4 ce3f 641c 62da 4b2d adbf
00000090: f9e4 f437 9d20 c1bf e5b1 fece 6115 d0bf
000000a0: 3911 8cb8 8e6f d6bf eedd 3924 fbf0 d6bf
000000b0: 3d75 b518 84b3 d5bf bcbe fcc4 6635 d03f
000000c0: a0c5 9bb5 e20c d13f 1542 912c 295a b1bf
000000d0: ecbd ecf3 081a a93f e86e 8c2e fd6f cebf
000000e0: 0512 f94f d19a afbf d708 ea2e 2aa6 b4bf
000000f0: 65ec 0560 2120 ad3f 31a5 5ca5 a5d9 d23f
00000100: abb1 bc34 2fbf 9f3f 841b 1eb6 e976 b0bf
00000110: 9afd d0a5 165b b73f d02c 73b5 f386 abbf
00000120: 0e51 0a11 2f85 aabf 706d 0cb9 8aff b0bf
00000130: d15f 716c 7cac c83f 3865 7549 2e4b 933f
00000140: d41b 232d a607 d7bf f893 1713 825e d93f
00000150: 9bfa 73ea c192 d7bf b046 bb8f 758e b43f
00000160: f4ec 9a60 3a49 ca3f 8edd 0161 6724 b83f
00000170: 64d0 d399 9645 aabf 902e c20c 1c34 91bf
00000180: 3b41 d50e 4f28 d0bf c7af a9e7 6601 adbf
0.35649847584795274 -0.37436201348322573 -0.019042647742448016 0.31502730431606435 0.01962403072750496 0.3042019067284877 0.501215500539424 -0.2162926845964458
-0.09419255976657606 0.06878518032242291 -0.27504443036665055 -0.02017287386087013 -0.03827631605893083 0.04525261678087122 -0.0657762957872893 -0.28236193680279636
0.23989100456723653 -0.05698620835124116 -0.13380780441529064 -0.2513050576624479 -0.35055892965489793 -0.3584583143014858 -0.3390817872330734 0.25325936543502414
0.2664114736099581 -0.06778199518272061 0.04902675607297255 -0.23779263279799712 -0.06172803975326605 -0.08066047330251834 0.05688576028020335 0.29453412197706813
0.031002748102012905 -0.06431446739416741 0.09123364971400463 -0.05376397695507651 -0.0517973621655604 -0.06639925973688832 0.19276385588704995 0.01884147952418866
-0.35984186561512144 0.3963933168836884 -0.36833236594967794 0.0802987552554224 0.20535974232721055 0.09430547827093091 -0.05131216647888051 -0.016800344732969708
-0.25246025513208153 -0.05665132120051868

feature_extractor.linear3.weight f8 [2, 50]
00000000: b90b c7d2 d134 d93f bb69 31a8 3e11 c4bf
00000010: cbcf e26f e8b2 c03f 3fc6 a3cf 75f5 d1bf
00000020: d0a4 9baa 7396 97bf 58a9 b86e 49bd c43f
00000030: 8942 862d 7e37 c53f c5c5 52cc 20f1 c3bf
00000040: d899 5199 7df2 c8bf bf97 fbfd f94c ce3f
00000050: 5200 ac28 d5df d0bf c2ea 0c95 fb6d cf3f
00000060: 10c7 4d04 0e19 8dbf 2a99 f317 fc4f d2bf
00000070: 8034 ff50 1a94 8cbf 3f71 41af 10d6 c43f
00000080: c8b0 343f 2b2f d83f c029 efaa 6081 b73f
00000090: fb4b 61d6 cc35 cc3f 8b4c 6b2f c5f5 c53f
000000a0: 7da4 778b e5bd d1bf 9e67 8a2e b075 d6bf
000000b0: 0f7d 1d18 7927 d13f e376 6850 35cf d4bf
000000c0: 385e 1c23 cfc6 d4bf 7f83 325b 74de c1bf
000000d0: 94ae 73b8 0455 d03f a78b 08e5 18b3 c53f
000000e0: 0194 a45b 507b d73f 0c1d 016b ca24 babf
000000f0: a7c2 49bd 9890 d1bf 401f 9130 4ae2 c6bf
00000100: ddac 6c02 143e ce3f 528f 9041 cf6e b73f
00000110: 1c00 424b e14a abbf c682 7711 b746 abbf
00000120: 7e44 a0f3 8e6b a9bf bc3b 7859 9b3d ae3f
00000130: 1771 35c0 c79b c2bf 32b6 634d d59b b53f
00000140: 3f0b d212 8b2e ce3f 5b2e f853 6dcc d43f
00000150: 3e6b 1cd9 e4b7 c63f 901d 5f72 bcf4 cabf
00000160: 8e80 4173 4e5c d1bf 38b1 aebf f713 ba3f
00000170: 107c 29ac 7824 a4bf 3b32 49d5 b53a d63f
00000180: 0ce7 e0ed 1f09 d03f bcd6 c0d2 9ed1 b9bf
00000190: 1516 a638 287b c2bf 18da b039 2fbd d4bf
000001a0: 805a 66c4 628c 883f 2e28 fa91 6b89 c4bf
000001b0: 8a90 a741 54ee b53f 015c 0e12 f5cb d23f
000001c0: 4ad8 6a22 e63b c43f be32 14ad 66c5 d3bf
000001d0: 249e f541 1d3e d5bf 4554 ae04 0379 d03f
000001e0: 638c 8216 7943 d6bf 1ace 6d2e 2e26 cb3f
000001f0: 50f5 2117 54da 9a3f 3c4c 83a5 feb9 ccbf
00000200: 2879 c2dc 85a0 ac3f 2088 fa2a 49b0 d63f
00000210: 606d 6f2e 238a c03f 9016 597b 286c b13f
00000220: 9ba0 401b af20 cc3f d21b 66ef 4fbd da3f
00000230: e088 9957 ad83 c8bf 6630 2ea7 ed27 a0bf
00000240: 0453 a1b3 2922 cd3f 2a3f f50f ce10 a33f
00000250: afe0 8636 c9ad 973f e092 8254 8317 b7bf
00000260: 15b2 72f2 0aba d53f 682d 5940 b44e d43f
00000270: 066b d314 6b2d d83f 8bbd 7b9b 6e02 c13f
00000280: 0721 83e5 15fa d3bf 3511 6a98 2189 d2bf
00000290: 1bac c740 03dd ca3f 6cf7 2357 4bb3 b6bf
000002a0: 1458 96a1 28ad b83f 16a8 ec43 0494 b53f
000002b0: e825 da70 42e4 cd3f 9425 3dd8 a89b bb3f
000002c0: d2ae 9871 eae3 c5bf 9024 4059 59bd 84bf
000002d0: 6c71 5406 f29c d73f 8884 e4bf 8a20 c43f
000002e0: 9826 b9b5 1cbc c83f c917 54b0 7407 d4bf
000002f0: de54 20cf f67b d1bf 19d6 8a06 74a4 c03f
00000300: 8006 7cf5 194c 95bf eb9a 1d34 1d4b ce3f
00000310: a377 b2be c23c e0bf 9cb1 e045 55a7 a53f
0.39384885390989727 -0.15677626812505516 0.13045983756239674 -0.2806067016345856 -0.0230348656540727 0.16202657610240112 0.16575600836633367 -0.1557961461708556
-0.19490022646205207 0.2367241373205484 -0.2636616608797385 0.24554390695432998 -0.01420794439920628 -0.28613188113230825 -0.013954358670071665 0.16278275067714706
0.3778789632076607 0.09181789563368792 0.2203918501641907 0.17156281295192274 -0.2772153722749591 -0.35093311829552387 0.26803424220084165 -0.32514698841428763
-0.32463434628286647 -0.13960127308839884 0.2551891137397686 0.16952811415930322 0.3669014830541642 -0.10212388145838619 -0.27445047841232867 -0.17878081675939406
0.2362694751585427 0.09153457022381176 -0.05330566447901239 -0.053273888475592154 -0.04964873050642725 0.05906377284201578 -0.14537903676217276 0.08440907611267148
0.2357953874489684 0.32497723770277326 0.17748699761508563 -0.21059375366733635 -0.2712589383645615 0.10186718396898164 -0.0393407545241119 0.34733339146331205
0.25055692892384296 -0.10085480351775805 -0.14438345686009826 -0.3240469039332381 0.011986514681479266 -0.16044373157302644 0.08566786387342709 0.2936985660866754
0.15807797127280515 -0.30892340566860443 -0.3319161552558134 0.25738597352148346 -0.3478682250808502 0.21210267321622284 0.026223482047943947 -0.2244261081856126
0.05591219253368457 0.3545096320832517 0.12921561972948847 0.06805661212373537 0.21974743681608264 0.41780470255656355 -0.19151846673327722 -0.03155462899948773
0.22760506888393917 0.037237586448666996 0.02312387843423441 -0.09020253003343326 0.33948014904561435 0.31730371746080843 0.3777721122147998 0.1328867205806826
-0.3121390096025753 -0.289619826166262 0.20986977255901781 -0.08867331387952299 0.09639219231607427 0.08428980501472014 0.23352842817648356 0.10784392623204148
-0.1710179381055839 -0.010126779590807794 0.36895418756628007 0.15724310273893516 0.1932407271690877 -0.31295506686762714 -0.2731911680906033 0.1300187141365974
-0.02079811631029438 0.23666729969701036 -0.5074170803597905 0.042292275218957814

feature_extractor.linear3.bias f8 [2]
00000000: 252c 28e0 9850 b53f 0808 e3a4 f3aa b0bf
0.08326106522160666 -0.06510851646001481

mean_module.raw_constant f8 []
00000000: 5dd7 bec7 feae 0840
3.085446892272485

covar_module.raw_outputscale f8 []
00000000: d64f 812e fe1c fc3f
1.7570783440214561

covar_module.base_kernel.raw_lengthscale f8 [1, 2]
00000000: 6c0f bf66 76b7 66bf 3824 b126 9836 e63f
-0.0027730286146567164 0.6941643481924364

covar_module.base_kernel.raw_lengthscale_constraint.lower_bound f8 []
00000000: 0000 0000 0000 0000
0.0

covar_module.base_kernel.raw_lengthscale_constraint.upper_bound f8 []
00000000: 0000 0000 0000 f07f
inf

covar_module.raw_outputscale_constraint.lower_bound f8 []
00000000: 0000 0000 0000 0000
0.0

covar_module.raw_outputscale_constraint.upper_bound f8 []
00000000: 0000 0000 0000 f07f
inf
