dkl_kernel_for_Length.pth (torch, 50535 bytes, 16 tensors)

likelihood.noise_covar.raw_noise f8 [1]
00000000: c080 603c dfa4 07c0
-2.955503913588558

likelihood.noise_covar.raw_noise_constraint.lower_bound f8 []
00000000: 2d43 1ceb e236 1a3f
0.0001

likelihood.noise_covar.raw_noise_constraint.upper_bound f8 []
00000000: 0000 0000 0000 f07f
inf

feature_extractor.linear1.weight f8 [100, 2]
00000000: 9535 1fc0 4dc8 edbf 13dc 379e 8966 e7bf
00000010: 5fe3 9582 ced0 e0bf ba63 64db 7f5c d2bf
00000020: 727c 283f 40e9 e93f 5949 e7ff 9377 c23f
00000030: 7162 f7c3 e5ec a93f 1f33 79ca 275f 913f
00000040: c8c0 0906 f726 e73f 25af f475 338b d13f
00000050: a3d1 5dd9 8dca ebbf 2d3f 2dc3 27a7 cc3f
00000060: e858 94fb 67a8 e4bf 58bf f704 fb3c babf
00000070: c0ba 6f66 ba56 80bf 3022 b7ea 68e4 a93f
00000080: a04b 04ea 6b43 d9bf ac07 e862 a578 ba3f
00000090: 7b66 3991 857a 803f 3d19 dd98 6eca a63f
000000a0: 88cd cfcf 610e d7bf 8db8 890b 1a06 f1bf
000000b0: 843b 6bda c0e5 bd3f 013b de71 3bed ba3f
000000c0: fe9b d871 5b77 c83f 8ff8 95cc 7ced d13f
000000d0: af0a 27c0 6d95 b1bf fee1 bc56 36fc c03f
000000e0: 1f7d 0d72 ccb7 edbf 3c2d b48c 54c7 c43f
000000f0: 287d 635b c067 df3f 90cf a231 31cc bdbf
00000100: b2ce 4f0f bc77 f1bf 482c d4bf 2551 a4bf
00000110: a902 e829 c635 d3bf 48ff 0b54 8813 d03f
00000120: 0e8f a86e f79a d53f b0e5 461b 7112 a1bf
00000130: c1aa d380 6ddf d2bf 4eaa 3c34 a7d2 d73f
00000140: e2e1 0312 1aa7 e0bf 8049 920d 5e63 7ebf
00000150: c46a 8dcb 37cc d6bf 9042 2ba3 4d96 e8bf
00000160: f017 bea4 18e0 a13f 5e44 d865 f609 e4bf
00000170: cd77 260c 007e c33f fb96 e42e 66ee c33f
00000180: 00e4 9084 f707 57bf 8678 52ab da55 d33f
00000190: 7133 2b1d 6188 e23f fc15 6d59 0102 d2bf
000001a0: 91b6 a3e8 4d23 da3f 98ee f06d 00d2 d93f
000001b0: 40f3 4d45 65cf ab3f 7331 024f 195b e0bf
000001c0: 3baf f73c 77f2 c2bf b35f 3ce0 88f9 cd3f
000001d0: 47c7 eb2e 9ed1 d5bf 1c8c 9d2c a6dc c9bf
000001e0: dd23 4f1a 8761 ea3f 83a7 46ae 1611 d23f
000001f0: 1ecf 6168 da6f d0bf 3c4a bd1b 57f2 4a3f
00000200: 9082 18fc c126 a63f 9334 9319 76f3 d2bf
00000210: 4a6e 5edb 72db e5bf 6892 868f ce22 d2bf
00000220: 1729 3288 f124 e2bf b814 fe3c c2c7 cebf
00000230: 82bc 8020 e257 b73f 7849 58db b752 a6bf
00000240: 3bfa 951e 7cf3 d63f 4808 af58 cb7c eabf
00000250: 9f02 4bbb ed0e d93f aefc 5ad5 d11d b23f
00000260: 131d a39e e845 c7bf 6308 c27d 926c c4bf
00000270: b187 06eb a95d e2bf 7d9d 5690 3318 cbbf
00000280: 8d78 6642 c76d d3bf d1cf 14a8 2a33 e4bf
00000290: f619 ca87 d1d3 d03f 0f19 9ed7 1467 c8bf
000002a0: c6b6 7aa0 ea4d dabf 7264 4cd8 c44f e1bf
000002b0: 7858 95d1 61d5 e8bf a316 b29e cf5b d53f
000002c0: f579 0663 df4a 8d3f 74c9 b4d7 fbfb d83f
000002d0: 114b eb56 cc77 d23f c413 948c 7862 cd3f
000002e0: 6667 16c6 9b93 ca3f 9c90 4877 c5cb e0bf
000002f0: b53f 537e 722a c7bf b3b9 275b 4bac c03f
00000300: 7815 d7af 5a81 adbf 46c2 758e 6240 bb3f
00000310: f0b0 9689 440b d0bf 4fd3 a57b 5144 c73f
00000320: f8ec 8479 bdc2 ce3f 256c e3d9 8497 d6bf
00000330: 0f40 7550 0d57 9abf b319 daa9 447f d63f
00000340: 8c66 d31e 2b4c e93f b33a 5d7b 456e da3f
00000350: c158 2c40 2cb1 e1bf 81dd 6d66 6c74 b7bf
00000360: 27bd 89f7 9eb6 bfbf a308 51b3 cd84 d83f
00000370: 22f2 ea15 86a7 edbf d008 4a06 d6d7 a0bf
00000380: 219f da8e 366a d9bf 4bb0 0a7b 0e69 d4bf
00000390: 410e 25fe 08c2 c13f a33c fb2d 8993 e83f
000003a0: 3710 6976 0684 d53f cc40 dae4 e41e d23f
000003b0: 7aec 3d76 aef6 e83f 9a75 fd5f d94e e23f
000003c0: 05b2 9cc3 9ac4 dbbf a90c ccff 5501 d63f
000003d0: 4487 4472 ef08 cf3f b40f d4e8 7a82 e23f
000003e0: df35 5d7f 142c cb3f 2d4e 1ae5 8228 babf
000003f0: 2e52 d814 6149 d53f 932e 98bc 4791 d9bf
00000400: eac1 4133 4d75 e23f b501 4e2c 15fc a33f
00000410: 7e83 49b3 c7db e13f 687b 561a 8bff d23f
00000420: 812e cf60 ff1d e7bf d7b2 9d57 e8b4 cc3f
00000430: 97c1 f76e 9f3b b63f 18e1 39ab c281 f1bf
00000440: 5b0a f3c0 93f5 d5bf e667 f381 b552 e0bf
00000450: 2c66 7f43 7be9 d03f 00f2 f1e1 5c54 7cbf
00000460: a991 9054 2be6 d6bf 4972 a049 a315 97bf
00000470: 8048 7a45 ab3c d4bf 2f7b 7314 37d1 d4bf
00000480: af64 23da 283d cbbf cbe0 9766 f59f dcbf
00000490: ecaf a51c 3202 b3bf 211e 0f67 fee6 a8bf
000004a0: 8bdc 226d d2bb e2bf 10d7 b4ac 1e7d efbf
000004b0: fbc4 32eb f5d3 d03f 73ad de55 33af b63f
000004c0: 07df 72ce e0b1 b23f 9481 fe90 0869 c63f
000004d0: a784 00eb b159 ddbf 6af2 e30a 1599 acbf
000004e0: 9cd3 a372 49af dfbf 03c1 500b da6b c43f
000004f0: 6e02 92bc 120a cd3f 28bd 82c4 8454 9f3f
00000500: af43 2ebd 2969 c4bf 25c9 c553 04ad e13f
00000510: 0097 aace 1820 66bf ec73 b9c2 2778 c7bf
00000520: 3caa dcab 0957 cebf 6d5f 1e2d d656 efbf
00000530: 001b caa8 35c1 b7bf 4169 f38e 6d7a e2bf
00000540: 94e2 6634 8600 d7bf 44db 74ff 1ed9 cf3f
00000550: 9712 c391 c124 e6bf 49c3 848b af02 e5bf
00000560: 822d 0fbf 0e03 d03f 3b2f fd9d aa53 cabf
00000570: 7f10 b57c d1da c23f 0cc2 7a3d 1a4d 86bf
00000580: a41d 3976 d5d7 d7bf cb20 d773 1951 e03f
00000590: d628 4a39 a1af e0bf a036 02ea 590c e0bf
000005a0: 65e4 3e7d b99c c73f e899 4f7f f95e b83f
000005b0: 3b20 c83c bc6a da3f 5578 a111 3481 b03f
000005c0: 2d27 f1dd 1fc1 e23f 954c de7b 96cb dbbf
000005d0: 3c3b 4bff 6983 ee3f 354f 93d6 5398 e53f
000005e0: 17aa caea 20c9 e63f 9fc6 ea21 23b4 e83f
000005f0: 98fe 250a 0b3e cf3f 78dc e030 d0c1 c4bf
00000600: 7b73 1668 0ea9 dc3f 58d4 1fee 7886 b1bf
00000610: 3590 d63d 4e74 abbf 720b 7d1b 3ca8 e13f
00000620: cdbd 32c7 3907 df3f ce1f d8be c099 e93f
00000630: 1edd 1df3 7acb eb3f b2ff f3d3 09cf 9e3f
-0.9307011368161279 -0.73126679327004 -0.5254890966890392 -0.2868957178594048 0.8097230180318447 0.14427423472677495 0.050635509654687 0.01696455167102606
0.7235064618999099 0.2741211559211812 -0.8684758420409263 0.22385117559542192 -0.645557395330596 -0.10249298926623618 -0.007977920771705782 0.05057075371911812
-0.39474008420182294 0.10340341248232104 0.008046191687003592 0.04451318374644806 -0.3602528123294282 -1.0639896822645227 0.11678700764171707 0.10518237619383443
0.1911424928559597 0.2801200864704549 -0.06868635121558485 0.13269690737958223 -0.928686354407464 0.162333077147517 0.49070748257323027 -0.11639697515312109
-1.0917320821871894 -0.03968160597477116 -0.30015710918818655 0.2511921711702496 0.33758340651023466 -0.03334382493944632 -0.2948869474482017 0.37223224736468274
-0.5203981735094738 -0.007418982882102632 -0.3562144744698055 -0.768347567262099 0.0349128438092946 -0.626216124454128 0.15228272050165828 0.15571286477750576
-0.0014057080427518631 0.3021151230876814 0.5791478700353833 -0.28137239201564035 0.4084048053617631 0.40344248520316617 0.05431667777063476 -0.5111204665313792
-0.14802446820191925 0.2341776938344516 -0.3409190614903434 -0.20204617670523894 0.8244052423334512 0.2822930051721572 -0.25682697480736916 0.0008223462423109849
0.04326444818821529 -0.29610970017967836 -0.6830381664798975 -0.2833744432084928 -0.567009702689833 -0.24047115305089561 0.09118474286582237 -0.0435998397116632
0.35861113535785066 -0.8277336818794163 0.3915361718209542 0.07076751192924988 -0.18182094331698603 -0.15956336155437886 -0.5739335623113587 -0.21167606876154457
-0.3035753391685681 -0.6312459261739553 0.26292837391557045 -0.19064579513742116 -0.4110056464368025 -0.5409874176576877 -0.776047620146314 0.3337286996614727
0.014302964410316735 0.39037986817415704 0.2885619019336199 0.2295675932329272 0.20762965366594271 -0.5248744325404178 -0.18098288696500978 0.1302580065816535
-0.05762751957403628 0.10645118692424047 -0.2506877273215329 0.18177240884292664 0.24031799729878123 -0.3529979827705481 -0.025722702060477384 0.3515178354940886
0.7905479051652988 0.4129804329613009 -0.5528775456794152 -0.09162023068153326 -0.12388032477769127 0.3831056834352557 -0.9266996791917033 -0.032896698253368606
-0.3971077342089178 -0.31891214385791916 0.13873398217593727 0.7680097482751943 0.3361831814147566 0.28313562725908237 0.7801124867832094 0.572125136833779
-0.4338747892641382 0.34383153896505775 0.2424601848552418 0.5784277484349247 0.2122827169318233 -0.1021806535084628 0.3326037124218456 -0.3994922010176449
0.5768190384970329 0.03903261342839263 0.5580786229803463 0.29684712955525194 -0.7224118128592211 0.22427086141705985 0.08684727152991055 -1.0941797913092781
-0.34311384051048827 -0.5100963152028697 0.26425057975356725 -0.006916392157219509 -0.35779841669343654 -0.022543479317493263 -0.3162029436581477 -0.3252694797246702
-0.2128039422157477 -0.4472630979430618 -0.07425225448031342 -0.04863734252972685 -0.5854274875226947 -0.9840234158679966 0.2629370495661331 0.0886108479159498
0.07302670517207953 0.1750803668956108 -0.4585995478574411 -0.05585542447986287 -0.4950736636667956 0.1595413737536618 0.22686990935837364 0.03059585046201821
-0.15945932137813432 0.5523702274497607 -0.002700851871241805 -0.18335434921291893 -0.23703118220994834 -0.9793501740668781 -0.09279189463459758 -0.5774448196419045
-0.3594069968926672 0.24881350968800053 -0.6919868323244199 -0.656577847001338 0.25018662126668556 -0.20567829813296065 0.14730280484412003 -0.010889248849111709
-0.37254845185494845 0.5098998320109102 -0.5214391821803257 -0.5015077181321494 0.184470354228128 0.09519919737031268 0.41276460586277935 0.06447148733556791
0.5860747656636015 -0.4343010148670115 0.9535417543610047 0.6748446646620098 0.7120518289351051 0.7719894087260463 0.24408090587165954 -0.1621647108711135
0.4478183762055818 -0.06845813573438997 -0.05362171654567797 0.5517864739307312 0.4848160214705473 0.8000186660219641 0.8685889004108593 0.03008666378173048

feature_extractor.linear1.bias f8 [100]
00000000: ab10 cfd1 0d44 c1bf b9b3 2768 4b87 cabf
00000010: 4722 e6fb 32f0 d43f ddeb bc32 e588 e23f
00000020: dfd6 7e79 6712 cc3f 5329 b371 464c c0bf
00000030: f7bd 2e64 ed34 e4bf dc2e 5692 d195 e5bf
00000040: 9ac1 4b58 7e08 cbbf 570c 0fe7 e4e3 60bf
00000050: 41c3 dcfc e128 a43f 9967 2e51 a7d0 d33f
00000060: 1b30 865f 5194 dc3f f808 05a2 258c d83f
00000070: 00d2 9cda 1bca bc3f d4d9 bb7a efab e63f
00000080: aaf7 514a e613 c23f bad8 d61d f1a2 d5bf
00000090: 389b c8fd 9e8a e4bf 61b0 13ac 57fa e1bf
000000a0: 6040 ce3e 7c0d dbbf 162b 9bdc fc91 ccbf
000000b0: 700e 3abf 2df5 dabf 3116 fa06 7dab ddbf
000000c0: e5c0 3994 7200 e5bf 24cc 4ea8 bb6e e63f
000000d0: 02d7 787c 4482 efbf d4d5 d48a 229c e5bf
000000e0: 4428 0b96 8d1e e9bf 2037 7d65 ed89 9ebf
000000f0: abe8 0fae 9efa b0bf 94c4 10d7 e8b5 e53f
00000100: 3922 12fa 53ac d7bf 65e3 25fa b30f e5bf
00000110: 6c39 056a ee46 c13f 4f4d dca9 4c92 b63f
00000120: 55e2 8476 ceaf ebbf 04fd 97e5 321f b1bf
00000130: 432c 56db a09b bdbf 690c 5668 74af d33f
00000140: a029 5fb0 6496 d1bf 4e50 50ad 35da d43f
00000150: 900f 6a33 c948 c3bf 60f7 b230 5fd0 d6bf
00000160: aa9b a530 9666 c83f 6135 4036 0dd2 843f
00000170: 8f0c 3910 8774 ce3f 34fd e9c9 4bd6 e9bf
00000180: dd24 377a 6595 e8bf bafb c75f f457 e63f
00000190: 6e14 54d8 97eb dabf face 284b 3801 e13f
000001a0: cfc4 43fb dd01 bbbf d876 0f41 2b2d d43f
000001b0: eb64 0bd2 a7c3 e1bf 8c55 6e92 72d2 c63f
000001c0: 3627 5dff c8b6 c93f d168 1adc e8e7 e83f
000001d0: 20b9 be98 7d7a eabf 6cd8 016b b44c e93f
000001e0: 4f8a 0b08 a90a ef3f 7942 fc98 6d5e d5bf
000001f0: 0ba4 99b7 c8dd dd3f 1dac cb0b ff8e e1bf
00000200: f398 275f 8513 c4bf 8374 a7ec fb92 b9bf
00000210: 6700 d09c 2c67 c2bf c523 503d 2cfe c33f
00000220: c423 b3c2 4fa7 d8bf 14cd 9059 2e8a e1bf
00000230: 44e6 695f 34c3 c13f 5cfb b7da 651c cbbf
00000240: 994b d8af b4cc be3f 5aa0 2065 8cab e3bf
00000250: 0e1a 3ec2 4328 91bf 1e85 b081 8cb4 a1bf
00000260: 12a9 0b72 0e4e e5bf a336 fedb 0f0c d43f
00000270: 077c c13d 09af babf 59e4 ff2d 1da4 993f
00000280: 3c80 c4b4 3c66 ed3f 80b8 9ba7 7960 e6bf
00000290: d773 70ae 2aef c03f 586a dd23 09db e2bf
000002a0: 98c5 0f7c e0e5 c5bf ebcd d3e5 19ef ccbf
000002b0: 4046 d618 4101 e5bf 909d a34b a620 d33f
000002c0: c37b 8132 cfbf e93f e8e9 3932 d7d1 e1bf
000002d0: a7cb 8607 74d7 d73f c43f 5e66 2c39 c33f
000002e0: ac70 f354 110b d3bf f962 c999 5996 ec3f
000002f0: cfcb 3537 ca45 d73f 8c68 fb90 e420 dabf
00000300: a8f1 b076 0919 d8bf d275 3f11 9d12 d93f
00000310: 5bac 1129 9043 e93f 1723 8fa4 c491 a2bf
-0.13488934273312245 -0.20725386224458278 0.32716059302814354 0.5792108527160696 0.2193116515388089 -0.12732773353338675 -0.6314608532611022 -0.6745384081018204
-0.2111967021114765 -0.0020617933991800385 0.03937441074083959 0.30961020400865774 0.4465526039937246 0.3835538942550012 0.1124589356157415 0.7084882161278139
0.14123228672900484 -0.3380701819800255 -0.641921516104822 -0.5618093834759855 -0.4226980794273967 -0.2232051922968245 -0.42121452021112926 -0.4635918205388832
-0.6563046355277292 0.7010172164212958 -0.9846517973989821 -0.6753094398069899 -0.784979622892259 -0.02982302600803799 -0.06632415532650053 0.6784557533739126
-0.36989306851367904 -0.658166874475779 0.1349771516492625 0.0881698527048702 -0.8652107539010766 -0.06688230614962626 -0.11565595011613632 0.3075839060695161
-0.2748042795543828 0.3258184616581773 -0.15065875063384881 -0.35646800761957387 0.19063069701516372 0.010166266649344892 0.23793113987094158 -0.8074091857560348
-0.7682368647594121 0.6982366438604608 -0.420629464395751 0.5313989131886665 -0.10549723991768477 0.31525689462237727 -0.555133733981305 0.17829734945250342
0.20089065998973304 0.7783092783822899 -0.8274524672795316 0.7906133737549346 0.970051303589864 -0.3338884347913687 0.4666616242380434 -0.5487055998213496
-0.1568457331297349 -0.09989904906929507 -0.1437736287771287 0.15619423860360207 -0.38521188748978497 -0.5481178044632622 0.13876967104788396 -0.21180413417456634
0.12031106274689164 -0.6146909690041966 -0.016755160074831514 -0.03458060343860779 -0.6657783725216027 0.3132362030381534 -0.10423333890638285 0.025040107662764963
0.9187301188103514 -0.6992767594908997 0.13229878919165003 -0.5892377567755132 -0.17107778604217283 -0.22604678842581846 -0.6564031109903183 0.2988677729285536
0.8046642290536216 -0.5568653088551487 0.37252522215856704 0.15018229483075463 -0.297550518951321 0.8933532718320684 0.3636346377526793 -0.4082576194611043
-0.37652813521324413 0.3917610805927697 0.7894974519853223 -0.03626837261942322

feature_extractor.linear2.weight f8 [50, 100]
00000000: 295b ed3f 688d b83f cf91 1c31 a216 a7bf
00000010: 7b10 6d91 2f91 b4bf 05df 0728 4875 b63f
00000020: d05e 26ff 1278 a0bf 1a36 7922 5385 a43f
00000030: dc2b 16ea 4958 b0bf 4cf4 eb62 915e a8bf
00000040: c0c5 c5f1 c75d 83bf 10e8 f290 41f7 b6bf
00000050: be32 0c08 be0b b6bf 4ad9 cddf e00a ad3f
00000060: 00df e01f 54ca 7c3f d65e f01d b87f a8bf
00000070: dd90 61e3 8324 b43f 6806 aca1 5111 8ebf
00000080: c047 c432 df89 97bf ddc2 2978 e598 b83f
00000090: 554f 2244 7e15 b73f 1e75 cd7f d8d1 b7bf
000000a0: 204c a48c 46dd 9fbf 05b2 6e9a 9de1 b73f
000000b0: 5f26 a852 3bf0 b03f 4663 77b5 c10d ac3f
000000c0: 0d49 a686 ab6b b43f b9c6 c0d8 543b b33f
000000d0: 1e68 8b9a 776d a43f d1de b2e2 ac43 b5bf
000000e0: 8485 6f1b 89f6 9d3f 089d f1f2 1f5d b7bf
000000f0: 6021 e6ea 1e2d 77bf 1f73 2cd5 182c afbf
00000100: a389 d546 c8b9 b13f 8add 7993 4936 a83f
00000110: be6f 70bf 82c4 a93f f48f 0725 9f73 96bf
00000120: a142 5161 c545 b63f 1209 d84f f858 ae3f
00000130: fbc5 68db bb02 b4bf 3e0d c587 9737 b7bf
00000140: b864 4b7a c9ae 9ebf dc58 32fe 24f2 abbf
00000150: 5983 91cf af93 a3bf 104b 54b9 804d 86bf
00000160: cf20 ccb8 d06a adbf 6c58 a066 0d63 b3bf
00000170: 14e4 ec1e debc b2bf a06c a1d4 a662 93bf
00000180: 18ab 63c1 87e3 88bf ae76 00d6 ad11 a03f
00000190: 001c 03db b37b 5e3f e90e 4967 c958 b8bf
000001a0: 5cc0 53c2 bbc0 a7bf c90c 12df c856 b13f
000001b0: d5b8 4f55 52d9 b13f 2452 84ed f86e 983f
000001c0: f05a ca80 1239 a2bf 2230 cb83 8852 a53f
000001d0: d87e f52c a7d3 82bf ff6c a885 d96a b03f
000001e0: d885 18a7 ce2d 893f 5641 d9e7 4472 b6bf
000001f0: 0397 412c 0101 b0bf c4e4 bc29 dfee 9ebf
00000200: 1cd6 8725 d222 b9bf 9ce1 66ac bb65 a9bf
00000210: e5d2 6bcb 7ca4 b83f 1cae 063b 6071 9e3f
00000220: 4511 f513 d8ed b63f ae0f 5c67 e5b8 aa3f
00000230: d65d 5207 f8ec a7bf a64b ac4f 1c58 ae3f
00000240: 8d66 868f 1549 b33f 31e4 1191 6085 b13f
00000250: 606a 64dc b469 723f c16f bf2f 9475 b33f
00000260: 9ef2 795c d583 aa3f e26d e5c9 5604 a1bf
00000270: f66d a695 ef25 a7bf 0f7e 4a51 e897 a7bf
00000280: 6051 c68b ebd9 94bf e0e6 7a51 d9c4 783f
00000290: 7424 b9e3 401b 90bf 7cbd 26a2 af45 b9bf
000002a0: 973b f3c6 aed2 b13f cc17 8ea9 6146 9e3f
000002b0: c566 32a4 a2b6 b53f ca13 0cc9 8af8 ab3f
000002c0: b9ae 7ec6 79a7 b03f 5be6 5f73 2dea b73f
000002d0: 23c6 3536 70c9 b5bf 9479 7b05 c7d9 903f
000002e0: bff9 1757 7b49 abbf 4d61 6708 491d b63f
000002f0: d02f 7b8d 174b 7dbf fbc4 fd63 62aa b6bf
00000300: 3943 fd75 dc60 b03f 2c30 9447 dca1 b8bf
00000310: bc02 9b28 87c1 b8bf 0571 8bbb a588 b93f
00000320: 7375 25b5 f0e6 d0bf fdd4 5d15 f1ff d5bf
00000330: 855f de64 3150 d0bf ee9b a953 2335 cfbf
00000340: af97 29ea 6064 d0bf b358 9b94 952a d4bf
00000350: ee6c cb31 2f12 b9bf 5d51 a2a7 c53f b53f
00000360: 595c 0e81 8215 ccbf 3f9c 9566 1e48 c9bf
00000370: 7ca0 31b2 884b a7bf 81b4 9940 e98a d8bf
00000380: e274 2622 72ea d5bf 0691 4978 792d d8bf
00000390: 9c52 0869 0f00 c9bf dbd5 a646 0c73 d1bf
000003a0: 63a7 335f 4148 cfbf b0f2 62d9 3865 d0bf
000003b0: 40e4 f0b1 4c5f 8d3f 8a14 6eaf b421 ad3f
000003c0: e16d a683 c3d4 b5bf 2cbd 5c51 4eab b2bf
000003d0: 0023 7833 2a4c 66bf e629 aa95 a3b5 a53f
000003e0: 7381 e6c4 f992 b7bf 764d 77c2 e1dc d5bf
000003f0: c2d5 1a08 d103 d1bf 1683 9587 b41c abbf
00000400: 9801 ef5c 74b1 d03f 46a4 ab13 6a7e b2bf
00000410: 033c 9ce6 260c d3bf 6011 61f5 a2fc d5bf
00000420: b952 7286 5c66 b13f abae 91db 7fda b1bf
00000430: 57e5 2a0a f140 cabf 60cb 30aa 307d d2bf
00000440: 8640 6133 0693 aabf 1bff 074d f934 d0bf
00000450: a6dd ce51 b18e d2bf 66ce 5da6 4d91 d1bf
00000460: 0c11 5101 024b 90bf a497 d5ac 7458 d3bf
00000470: aca1 2e5e a430 9cbf 6c42 441e abc4 c9bf
00000480: 618b 978b 33f2 d2bf 5b66 f7f4 0eea d6bf
00000490: c910 a76e c557 ccbf 5fd5 098b 0d11 b8bf
000004a0: 2dd8 1fdb 8937 c83f 0c4f 39a3 74f7 d4bf
000004b0: d4ef 19f2 f529 963f 103f ccb3 1440 d7bf
000004c0: 4436 ca8e 77f1 ce3f bc27 3570 2bc3 a9bf
000004d0: ce87 a236 9b26 ccbf 2480 57af ed84 b8bf
000004e0: c160 e163 4ef0 d6bf 24a7 91ea 957b cfbf
000004f0: bca5 ce23 4872 c93f ddd8 2b82 9dfb d7bf
00000500: 1835 e570 5c73 d7bf 8256 7454 d13d d43f
00000510: 0a84 0370 394a d0bf 2b6f 6a94 5613 b13f
00000520: b382 1d0f 490e d3bf 4000 175c 70f7 6d3f
00000530: 6cd3 ddfd db49 d7bf 95eb 98cb d49d cdbf
00000540: f622 f750 d2a7 acbf c04a 8d7f 87ea 8dbf
00000550: 7373 698b 0fac cbbf e953 c833 cd74 b6bf
00000560: f411 9d9b 625f cdbf b5f2 b0ca 07fe c73f
00000570: 3290 7862 c1cb d7bf 2298 8082 0d85 cdbf
00000580: 07d2 c336 8d14 d2bf 1d28 5a23 a511 d0bf
00000590: f47c d20d 615a cbbf 3864 b3f4 7bc0 c8bf
000005a0: c381 ad4c 4a64 cbbf 6cde 178a 7bd3 afbf
000005b0: 1b66 0ad7 4ae5 b8bf 7712 64e3 6c15 b63f
000005c0: 137c a337 7070 d1bf d8df ba78 c63e d3bf
000005d0: 329e a3b1 5f6b ab3f 09e4 c8ad 64ba d0bf
000005e0: f0a9 b67a c29d d1bf 52f3 b1ef a808 a0bf
000005f0: ff02 17ff 20e0 cbbf c866 3c32 79c0 d5bf
00000600: db6f 7c4c 77e3 d0bf e2f8 68c8 3f5a d2bf
00000610: 9fcc 4140 0d46 d6bf 9763 23fe b307 b63f
00000620: 0e23 b1fd fb51 cdbf a0f5 6f56 c496 d4bf
00000630: 84d8 f109 eaf2 d5bf 9358 6aa9 b154 d5bf
00000640: 10fe fa01 8580 823f 449d df60 9954 9c3f
00000650: cf6a a1b9 04aa afbf 00c3 4be4 5622 933f
00000660: 2c49 bd2b ed73 b2bf fa91 b103 bf7f ae3f
00000670: aff6 bcb6 ea00 a6bf ab00 fabd d74d b0bf
00000680: 0013 2460 e5ee 76bf 0c72 aec6 06be b0bf
00000690: 3bb1 9b34 160b b6bf e095 372e 1dc3 7b3f
000006a0: 8ed3 c039 354a a53f b63d a93d d469 b4bf
000006b0: 4b97 c535 ee7a b93f 1069 d422 39a9 89bf
000006c0: efb2 607b 7204 b9bf 2952 cc8e 5012 b7bf
000006d0: 4d3d 9632 556f b73f cf56 c3d6 7a7a acbf
000006e0: 7625 3998 cffa a23f b4c1 f930 73e5 91bf
000006f0: 5cad 4585 b198 afbf d5d0 187d 1cd9 b43f
00000700: dbfb d7e3 87ba b73f c0b3 1548 c992 963f
00000710: a065 27f2 a509 b7bf f644 5289 27da b7bf
00000720: 6d53 1b35 062b b73f 945b c101 3f07 b7bf
00000730: 6045 23c3 15e6 613f cdab ee89 6226 b03f
00000740: ca95 054c da5c a33f 2f15 f6b2 0bfb afbf
00000750: 450c a661 1bee b23f 8615 e139 4b5c a63f
00000760: 3eaf f70c a5aa b3bf e9bc 1519 8fb7 b83f
00000770: f6cf 6bbd 1579 b2bf 8079 7826 aa4e 93bf
00000780: d6fa f775 bda9 a6bf 9c1e e94a d4ef b8bf
00000790: 9959 2bb2 8f75 b93f 806b 21f7 d117 533f
000007a0: 4c03 7890 cf4f 903f c390 ab90 58c7 b7bf
000007b0: ddf3 2a4b af02 b43f cab2 2c8c 4066 a73f
000007c0: 5ed3 d3fc 3d92 a53f 58bf 3368 bee6 91bf
000007d0: ce76 5d1f 9dd1 a63f 243f 8f3e 4219 95bf
000007e0: fcb5 4bb3 e597 b9bf cee0 d5d1 6308 a43f
000007f0: 00df dd7d f9a5 4c3f 6b96 f005 cbf0 b53f
0.0959077030250738 -0.04509455537325701 -0.08034035969200375 0.08772707917512086 -0.032166093488908865 0.040079687078655904 -0.06384717907910392 -0.04759649593868484
-0.009456216874897616 -0.08971032894888276 -0.08611667343593418 0.0567236207197533 0.007028893100190947 -0.047849420218140246 0.07868217755600733 -0.014681470629059848
-0.022986876939348866 0.09608301337881238 0.09017171061924263 -0.09304574127368823 -0.031117536863416118 0.09328637142488823 0.06616564529408596 0.054792455102591606
0.07976791417448599 0.07512407581159665 0.03989766847162478 -0.08306389364849599 0.029260771083391215 -0.09126472169156241 -0.005658264896176796 -0.06088330843178923
0.06924106339787399 0.04728918004269207 0.05032738291649207 -0.021925436625579622 0.08700212121881147 0.05927253698975411 -0.07816671473189978 -0.09069201531115298
-0.029963634576095827 -0.054581790952555415 -0.0382361355666549 -0.010890012412834632 -0.057455561216615096 -0.07573016887212852 -0.07319439177526049 -0.018931013801517182
-0.012152729596399278 0.03138488042189401 0.001860547676231894 -0.09510477801910223 -0.04639231440694466 0.06773047872597994 0.06972231467054553 0.02386082601249674
-0.035591676923265925 0.0416453038102136 -0.009192758616961269 0.06413039696819921 0.012294401621207138 -0.08768110905044088 -0.06251532869790925 -0.03020809833762851
-0.0981875745418041 -0.049604286952163096 0.09625987974488799 0.02972936973826111 0.08956671225775377 0.05219189535821954 -0.04672980393769037 0.0592659804589382
0.07533392671612145 0.06844142476792638 0.0044953408126056915 0.07601286092489003 0.05178705934392734 -0.03323622908166236 -0.04521130277427325 -0.04608083717652899
-0.02036254921547831 0.006047104739701686 -0.015728963755723815 -0.09871957501194645 0.06962101323300228 0.029565359090632445 0.08481804379189402 0.05463060096921131
0.06505547615113984 0.0934170157123843 -0.08510495494353924 0.01645575495683145 -0.05329499662547076 0.08638435797854989 -0.007151691439229738 -0.08853735867684868
0.06397798424337688 -0.09621979472666514 -0.09670300237031432 0.09974132374503959 -0.26409547510214465 -0.3437464436204463 -0.25489458895162215 -0.24380914292416328
-0.2561266218893889 -0.3150991393316744 -0.0979337212151454 0.08300433485630294 -0.21940642644469469 -0.19751338967327745 -0.04549815345018346 -0.3834784632552513
-0.3424344380853893 -0.3777755427056636 -0.19531433704891732 -0.272646969791223 -0.2443925585606009 -0.2561781046786491 0.014341925793006749 0.05689777986030105
-0.08527776683916201 -0.0729264210356077 -0.0027218651046080344 0.04240142061196987 -0.0920864206041239 -0.3416065596658976 -0.26585794249998795 -0.05295337824896344
0.26083096576260223 -0.07224143009411063 -0.29761669655357553 -0.3435447117119761 0.06796816141497687 -0.06974028692791971 -0.20510685917342172 -0.2888909971253977
-0.0519029557914346 -0.25323326609212565 -0.28995926846570297 -0.27449361082765333 -0.015911132173884332 -0.30227391126970304 -0.0275293047413087 -0.20131434419501504
-0.29603279716518754 -0.35803579256535095 -0.2214285650535486 -0.09401020664684755 0.18919490050729007 -0.32760349216299356 0.02164444246453441 -0.36328618582136674
0.24174398872530578 -0.05031715149614466 -0.21992817084998112 -0.09577832728200569 -0.358417127170025 -0.24595903352320037 0.19880010364913214 -0.37473237716711855
-0.36641608262000736 0.3162730526686134 -0.25453029574242747 0.06670132754737483 -0.29774691082097177 0.0036580271268747133 -0.3638830165066824 -0.2313791269424114
-0.05596787680003061 -0.014607485370708218 -0.2161883764955764 -0.08771975053998883 -0.2294734248954594 0.18743989369422356 -0.3718112432127355 -0.23062294838126812
-0.2825043711484629 -0.25107696964608 -0.21369565176880878 -0.19337415169028005 -0.21399811500579177 -0.06216035900791614 -0.09724872350707196 0.08626442481551942
-0.2724876921983547 -0.30070649900471613 0.053553572115387374 -0.2613765427700519 -0.2752538870214769 -0.031316069850595554 -0.21777737098275193 -0.33987264543393936
-0.2638834235128777 -0.28675837107938495 -0.34802562022304956 0.08605503992602191 -0.22906446349431814 -0.3217020839800515 -0.3429513070217427 -0.33329431099390056
0.009034194109857757 0.027666470086754616 -0.06184401288984064 0.01868568199546683 -0.0720813972268714 0.05956837577904035 -0.04297574501695799 -0.06368778598880691
-0.005598922727817479 -0.06539957380886835 -0.08610667023066736 0.006777872072665642 0.04158178644175968 -0.07973982339284799 0.09953202069081361 -0.01252979886571784
-0.09772410881187076 -0.09012320982248724 0.09154255375891758 -0.055621947017852606 0.037069785434662814 -0.01747684465812123 -0.06171183349473594 0.08143785528301646
0.09268998444166192 0.022044320130067296 -0.08999097024879754 -0.09317252256939298 0.09050024792243301 -0.08995431702474682 0.0021849083942490494 0.06308570735443127
0.03781778505325979 -0.06246220168672278 0.07394572385787608 0.04367289620908381 -0.07682258192624844 0.096550887703177 -0.07216010927714919 -0.018854769323405574
-0.04426376404807335 -0.09740950421211853 0.09945009326779654 0.0011653471415431216 0.015929454033542442 -0.09288552791582831 0.07816596589232412 0.045701996909291845
0.042131363976216404 -0.01748178015708332 0.04456797607302364 -0.02060416704972491 -0.09997401835763492 0.03912651001422916 0.0008742778988865829 0.08570546050085574

feature_extractor.linear2.bias f8 [50]
00000000: 80ed 0140 2ba5 513f a29c 3117 8cf5 d7bf
00000010: 20db 2175 ea7f 93bf d99b 5848 6829 d43f
00000020: a0e6 c268 5218 943f 75e5 3146 0b78 d33f
00000030: 27b4 b742 9f28 f13f e356 5a8b 7aaf cbbf
00000040: 3795 9c13 3066 d1bf 9167 2f8c 9795 b13f
00000050: 6281 f7b3 ecdc cdbf 5462 01ef 07d1 94bf
00000060: 8772 5e0b f498 a3bf fab6 5aeb 3d58 a73f
00000070: 7a28 421f b7d6 b0bf a601 0dcd 3712 d2bf
00000080: 474a 9c99 bfb4 ce3f 641c 62da 4b2d adbf
00000090: dc53 b25b 4062 ddbf b192 b9f6 259a d43f
000000a0: ea12 8cb8 8e6f d6bf 5e8b 7f4e 94e2 d6bf
000000b0: a730 6c75 0f54 a8bf 77bf fcc4 6635 d03f
000000c0: 9fc5 9bb5 e20c d13f af6f 83b4 e456 da3f
000000d0: cd40 c12a 96bd a83f 0c6f 8c2e fd6f cebf
000000e0: 8a77 9271 d632 aebf d708 ea2e 2aa6 b4bf
000000f0: 1c7d b3a2 25d4 ac3f 7ca2 5ca5 a5d9 d23f
00000100: f911 820e 729a 9e3f 841b 1eb6 e976 b0bf
00000110: 9afd d0a5 165b b73f d02c 73b5 f386 abbf
00000120: edba 07f9 51bf aabf c620 503a 63f2 d8bf
00000130: 6f5b 716c 7cac c83f fd6b ff6f 3a66 dd3f
00000140: 891a 232d a607 d7bf b60c d6f8 2609 cf3f
00000150: 6239 8db6 8b39 ca3f f063 754f f8cb b43f
00000160: 0aec 9a60 3a49 ca3f 7817 94da a8d8 b73f
00000170: 64d0 d399 9645 aabf f694 dc10 4e26 91bf
00000180: e8b2 f4f2 536c d53f c7af a9e7 6601 adbf
0.0010769770015305047 -0.3743620134832303 -0.019042647742448016 0.3150273043160588 0.01962403072750496 0.3042019067284721 1.0724175077587093 -0.21629268459644554
-0.27186204829407096 0.06868884251107789 -0.23330458438341412 -0.020328639948589647 -0.03827631605893083 0.04559510705926857 -0.0657762957872893 -0.28236193680279553
0.23989100456727128 -0.05698620835124116 -0.45912178950066873 0.3219084653303908 -0.35055892965492197 -0.3575793043693717 -0.04751632984525261 0.2532593654350345
0.26641147360995804 0.41155355098976093 0.04832143089208927 -0.23779263279799812 -0.05898161064509029 -0.08066047330251834 0.056306053267457495 0.29453412197702966
0.029886037955764142 -0.06431446739416741 0.09123364971400463 -0.05376397695507651 -0.05224090733451257 -0.3897941655600444 0.1927638558870188 0.4593645185211129
-0.35984186561510306 0.24246680402948123 0.20488115705161208 0.08123733463197857 0.20535974232720405 0.09314971290959118 -0.05131216647888051 -0.016747684268143957
0.3347368118873377 -0.05665132120051868

feature_extractor.linear3.weight f8 [2, 50]
00000000: 748e 50b9 3e11 a03f c16a 31a8 3e11 c4bf
00000010: cbcf e26f e8b2 c03f 1027 5e3f 1086 d1bf
00000020: d0a4 9baa 7396 97bf 2d8d 2c51 52c4 bc3f
00000030: 5c1a d5d9 993a be3f b4c5 52cc 20f1 c3bf
00000040: c032 d78f 774c d4bf 1434 0520 953b c73f
00000050: a602 f551 e30f d1bf 9eea 0c95 fb6d cf3f
00000060: 10c7 4d04 0e19 8dbf 762d 9109 71c3 d1bf
00000070: 8034 ff50 1a94 8cbf 1571 41af 10d6 c43f
00000080: 75fe 3fb5 7173 d73f c029 efaa 6081 b73f
00000090: 351d 8a32 dba6 ca3f 564c 6b2f c5f5 c53f
000000a0: 85c6 778b e5bd d1bf eb39 50ec 2592 d6bf
000000b0: 3896 a8df 8318 98bf 2703 7920 6dd7 d4bf
000000c0: 2235 d6e3 3462 d4bf d071 c4dc 2584 c0bf
000000d0: 087a bce8 0b98 cf3f 4d8f 08e5 18b3 c53f
000000e0: f6fa 8f70 18a6 d63f 0c1d 016b ca24 babf
000000f0: 9791 fdc5 7467 d1bf 39fb 7bd4 58c9 c0bf
00000100: 3dce 6426 e1b8 ca3f 528f 9041 cf6e b73f
00000110: 1c00 424b e14a abbf c682 7711 b746 abbf
00000120: 0556 bf71 cc6a b3bf e0a2 c1c7 317a d83f
00000130: 1625 f359 761f c1bf 1200 081f 7795 e73f
00000140: ef0b d212 8b2e ce3f 96b6 4f74 cb9a db3f
00000150: 1755 1cd9 e4b7 c63f 0573 7417 c358 ccbf
00000160: b6fe 2ccb 0300 d1bf b858 d7cc 0489 b43f
00000170: 107c 29ac 7824 a4bf 1a1a 2703 2cfc d43f
00000180: 4a7e b041 31f6 cd3f bcd6 c0d2 9ed1 b9bf
00000190: 80d1 9a5d ec85 933f 34db b039 2fbd d4bf
000001a0: 805a 66c4 628c 883f 0a83 1e72 e752 babf
000001b0: 8a90 a741 54ee b53f e366 a21b eb1d d53f
000001c0: f988 85db 8b44 cb3f ae32 14ad 66c5 d3bf
000001d0: a5d7 9536 e850 cfbf 5330 773a b6a0 d33f
000001e0: bf79 91e2 4537 d7bf e0cd 6d2e 2e26 cb3f
000001f0: 50f5 2117 54da 9a3f 46e9 d610 09ff c0bf
00000200: 2879 c2dc 85a0 ac3f 0788 fa2a 49b0 d63f
00000210: 064c 0f94 0b06 c53f 9016 597b 286c b13f
00000220: d8bf 2855 8d50 cc3f a31b 66ef 4fbd da3f
00000230: f11b 9a57 ad83 c8bf 7739 4cf8 e632 a0bf
00000240: 1fe7 7b29 b35f b0bf 73d2 9f20 4043 a73f
00000250: c149 656b bf02 ad3f 06b6 741b 1053 e5bf
00000260: 0b1b e2ac 3136 d63f c832 5940 b44e d43f
00000270: 1243 45d8 7784 d93f 8bbd 7b9b 6e02 c13f
00000280: 2a1b 6e1f e020 d2bf 528c 3de2 6ee0 bdbf
00000290: 23b3 d115 c596 d03f 6cf7 2357 4bb3 b6bf
000002a0: 1458 96a1 28ad b83f 16a8 ec43 0494 b53f
000002b0: 5f49 dc0a e522 d13f 7450 2489 2897 cbbf
000002c0: 25fc fc53 b166 bebf 7fd7 3d24 c74d d73f
000002d0: e272 5406 f29c d73f c702 b5d6 68c3 e5bf
000002e0: ebe3 b8b5 1cbc c83f 1c5d bca7 5ed0 d1bf
000002f0: 2a70 22bf 30ea bcbf 55c2 11d9 c845 c33f
00000300: 8006 7cf5 194c 95bf f9fb 5924 f349 d23f
00000310: 94a1 5440 6fcc d7bf 9cb1 e045 55a7 a53f
0.03138156902448666 -0.15677626812506243 0.13045983756239674 -0.27380758465061295 -0.0230348656540727 0.11237062913692304 0.11808167999434133 -0.15579614617085513
-0.3171671776479279 0.18150581420414424 -0.26659472468967704 0.24554390695432898 -0.01420794439920628 -0.2775538056782446 -0.013954358670071665 0.1627827506771459
0.3664211530703832 0.09181789563368792 0.20821704833745405 0.17156281295192127 -0.27721537227544274 -0.35267017438391574 -0.023531017805131976 -0.3256485764614347
-0.31849405526812025 -0.1290328338590272 0.2468275915534408 0.16952811415932914 0.35388766281532413 -0.10212388145838619 -0.2719394620419506 -0.13114462256631912
0.2087670743436422 0.09153457022381176 -0.05330566447901239 -0.053273888475592154 -0.075848367472041 0.38245815761051283 -0.1337726535041745 0.7369952779845355
0.2357953874489733 0.4313229213574713 0.17748699761492823 -0.22145880360849204 -0.2656259044779107 0.08021574021344946 -0.0393407545241119 0.3278913527287003
0.23407569606296114 -0.10085480351775805 0.019065564358883957 -0.32404690393325386 0.011986514681479266 -0.10282751594651188 0.08566786387342709 0.32995107363386306
0.21302936762646832 -0.30892340566860355 -0.24465658822344696 0.306684071631712 -0.3627485954838469 0.21210267321622123 0.026223482047943947 -0.1327830631469828
0.05591219253368457 0.3545096320832503 0.1642469857166306 0.06805661212373537 0.2212082544151588 0.41780470255656094 -0.19151846673432218 -0.03163835316637436
-0.06396026385109764 0.04543495558019552 0.05666158853513848 -0.6663895164726348 0.3470577419579263 0.3173037174608848 0.39871021385356287 0.1328867205806826
-0.28325656003328226 -0.11670582793662845 0.25920226221824033 -0.08867331387952299 0.09639219231607427 0.08428980501472014 0.267754803281738 -0.21555048653010866
-0.11875446606153213 0.364122186081083 0.36895418756630083 -0.6801037019250423 0.19324072716861393 -0.2783428800625687 -0.11294846216554846 0.15056715582933813
-0.02079811631029438 0.2857635359759452 -0.37185269624981143 0.042292275218957814

feature_extractor.linear3.bias f8 [2]
00000000: f389 b737 fa29 b63f 26fd 7ac3 9321 b1bf
0.08657802448536937 -0.06691859743567771

mean_module.raw_constant f8 []
00000000: 6f4b 0e36 c283 0840
3.0643352721321473

covar_module.raw_outputscale f8 []
00000000: f233 367b 2e67 fc3f
1.7751908123930176

covar_module.base_kernel.raw_lengthscale f8 [1, 2]
00000000: 2cc6 0a28 b9dc c63f 8409 37cb 323e e53f
0.17861093955211638 0.6638425797503236

covar_module.base_kernel.raw_lengthscale_constraint.lower_bound f8 []
00000000: 0000 0000 0000 0000
0.0

covar_module.base_kernel.raw_lengthscale_constraint.upper_bound f8 []
00000000: 0000 0000 0000 f07f
inf

covar_module.raw_outputscale_constraint.lower_bound f8 []
00000000: 0000 0000 0000 0000
0.0

covar_module.raw_outputscale_constraint.upper_bound f8 []
00000000: 0000 0000 0000 f07f
inf
