dkl_kernel_for_Depth.pth (torch, 50513 bytes, 16 tensors)

likelihood.noise_covar.raw_noise f8 [1]
000000 79 c4 01 8a b0 9b 10 c0
       -4.152040630681875

likelihood.noise_covar.raw_noise_constraint.lower_bound f8 []
000000 2d 43 1c eb e2 36 1a 3f
       0.0001

likelihood.noise_covar.raw_noise_constraint.upper_bound f8 []
000000 00 00 00 00 00 00 f0 7f
       inf

feature_extractor.linear1.weight f8 [100, 2]
000000 51 55 1a 50 54 2b e4 bf 56 18 72 95 c2 b3 d1 bf
       -0.6302892269620007 -0.27659668535523474
000010 0a e3 9e 39 c2 39 d4 3f 45 23 cb cf c0 56 e2 3f
       0.3160253107740095 0.5730899866549427
000020 66 65 68 9a ce 26 da 3f 4d 9c 84 b3 61 3b e6 bf
       0.40861859396826217 -0.6947487360201962
000030 85 a0 80 17 37 b8 e9 bf f2 27 33 d6 bd 76 c2 3f
       -0.8037372073204244 0.14424870451904287
000040 3b 04 29 80 fd 2b a6 3f 8e 0e cd b8 b5 e3 c4 3f
       0.04330436887222119 0.1631991531704568
000050 96 00 45 9b fa 86 d4 3f ad 4e 1a 19 27 72 d9 bf
       0.3207384601883033 -0.3975923295158548
000060 1e f9 99 28 08 eb d4 bf 94 06 48 25 21 08 db bf
       -0.3268452068804367 -0.42237118378407357
000070 bb e1 c0 47 a8 cc e3 bf 60 4c 71 eb 95 56 95 bf
       -0.6187325860437832 -0.020838110442423008
000080 c6 1b 58 59 99 4e de bf 71 24 db 48 50 ac eb 3f
       -0.4735473034383485 0.8647843764275774
000090 f3 78 0d 4e 6d c5 d3 3f f2 22 7a f4 63 3d c8 bf
       0.3089249860985454 -0.18937348782880964
0000a0 76 9e fe 21 a1 51 e3 3f 9c 13 9c 06 49 cf b4 bf
       0.6037145294148576 -0.0812879220139408
0000b0 d8 bf c8 15 58 c9 be bf e4 0d cb 68 b4 01 e3 bf
       -0.12025976688232676 -0.5939580961934863
0000c0 7a 4e a6 47 9e d3 93 3f 2b 89 42 e4 53 0c e0 bf
       0.01936194717707316 -0.5015048464013366
0000d0 e4 c9 1b 6e 54 0d e5 bf ea 39 0e 90 67 9b da 3f
       -0.6578771734769444 0.4157351404946029
0000e0 b4 22 69 25 f6 a2 c3 3f 1b c2 f1 67 6b f6 e2 bf
       0.1534106905621876 -0.5925805120624007
0000f0 e2 fa 34 9d e4 1a 92 bf 9d ec de 4f a6 06 d8 3f
       -0.01768071374430747 0.375405862807108
000100 b6 60 51 6f 6e 3e e0 3f 5f 16 84 55 97 46 e3 bf
       0.5076210188081152 -0.6023670835717886
000110 c0 8d f7 47 08 73 a8 3f 30 fa 83 65 9b f5 b9 3f
       0.047752627167735096 0.10140391567618035
000120 48 33 cc a8 50 34 d5 3f 3d 01 4c dc e8 9c e6 bf
       0.3313180588163971 -0.7066540053056439
000130 99 98 68 14 38 2b d0 bf af 92 8c bd a1 e7 e3 bf
       -0.2526378821661495 -0.622025366032707
000140 f9 3a 8c 54 2d e4 95 bf a0 1f bb 10 16 02 e3 3f
       -0.021378238950144433 0.5940046622063058
000150 8b b3 88 2e fc c5 e6 3f 75 21 4a 25 1f 7a d8 bf
       0.7116681012026772 -0.3824537147670733
000160 01 f2 ae 83 cd 1a dd bf e0 1f ed a7 7e 9a e5 3f
       -0.4547609125109205 0.6751092223939814
000170 1c db 2d 51 65 78 da 3f 18 b0 97 99 64 b0 c8 bf
       0.4135983746304406 -0.19288308620105066
000180 b2 cf 08 47 7e be de 3f 74 4d 72 78 d4 16 c5 bf
       0.48037678658442495 -0.16475921517540437
000190 d1 b4 65 90 6b 3b df bf cc 7e 10 78 34 e3 c7 3f
       -0.48800171948717 0.1866212450267909
0001a0 57 9b c5 92 49 dd a5 3f a3 30 bd 64 a1 e0 d7 3f
       0.042703913847438706 0.373085354211762
0001b0 64 32 45 b0 0c bc da 3f 8a f5 21 98 49 f2 ce 3f
       0.417727634562459 0.2417690270266742
0001c0 93 e1 5c b1 36 fc d9 3f 62 10 6e 36 12 d1 e0 bf
       0.40601889916026684 -0.5255213797650067
0001d0 3f 40 c7 bb 85 b6 ab 3f 3e 93 fa 71 cc eb e7 3f
       0.05412691037383909 0.7475340105198496
0001e0 c2 2f 6f 9d d8 73 e8 3f 9a 1b 13 da 65 9b ce bf
       0.764141376007949 -0.23911736629653718
0001f0 60 a4 50 87 ff 49 97 bf 84 20 84 73 ee d4 e2 bf
       -0.022743218072865168 -0.5884926086591951
000200 73 8d 07 e9 48 ea c7 3f 3e c2 95 4c bb 23 e8 3f
       0.18683730486291558 0.7543617721367537
000210 d8 d5 2a 04 0a bb de 3f 49 92 a6 82 f6 50 e6 bf
       0.4801659622856653 -0.697383170296754
000220 d0 d9 e3 cc b0 bb 9f bf 3c 84 8c 87 03 e0 e1 3f
       -0.0309894204192121 0.5585954329909621
000230 3c 30 f9 b1 44 eb e5 3f 56 46 c6 b9 ac f7 da 3f
       0.6849692798655336 0.4213668646053511
000240 c6 e6 75 ec 66 74 cd bf 3d 97 f7 d7 d1 f0 e0 3f
       -0.2301148085205595 0.5293969362362315
000250 45 a5 1e 65 85 b7 d7 bf a0 da 9f 69 1f e7 d7 bf
       -0.37057623743983853 -0.37348161044011796
000260 68 c1 0f 2a e9 8e cc 3f 6c c1 89 1f ee bc c8 bf
       0.22311129144464847 -0.19326569118448889
000270 52 fa fd 0a 6d a2 e4 bf ac 23 58 89 d6 3d e5 3f
       -0.6448273863496274 0.663798588038039
000280 2d 7d 38 27 35 75 e6 3f a1 a2 fc 6c ac d3 e3 bf
       0.7018075719860569 -0.6195890549325506
000290 e0 a1 19 22 a5 a7 d9 3f bc c2 ee 10 7e d5 c7 3f
       0.40085724191751915 0.18620277239599214
0002a0 0a 23 da 38 d3 c6 d6 3f c0 47 70 96 64 ab e4 bf
       0.3558853202053319 -0.6459219873670392
0002b0 8e e8 c0 fd e8 c6 a6 3f 7b 93 aa 6f e8 45 9b 3f
       0.04448631379678246 0.026633865180559973
0002c0 c3 d7 5a 04 4a 08 f0 bf 79 3d 95 39 69 73 b3 bf
       -1.0020237131225123 -0.07597978263696871
0002d0 b7 fe 82 e8 f0 24 c0 bf db 64 b0 de 02 7b d6 3f
       -0.12612735131368932 0.3512580084512373
0002e0 78 90 d2 a4 45 98 cd 3f 3e ad c3 a6 e7 b3 c5 3f
       0.2312094740674444 0.16955276148596882
0002f0 e6 40 ea 6d 96 5d db bf 90 be 75 3e df 36 e8 3f
       -0.42758713468448517 0.7566982479019817
000300 94 9d 1c 9c c5 09 ce 3f 3d c0 26 23 5e 7d da bf
       0.2346732151283787 -0.4139018386149507
000310 6a 71 d0 4b 92 0b d4 3f ce 78 7c df 0a f9 d9 bf
       0.3132062664388032 -0.40582534622980126
000320 b6 4f 7f dd 9a 3d c0 3f 31 ed cb f9 a9 6a bd bf
       0.12688003363893835 -0.11490881298589241
000330 9a 01 3b 6e 7d cc bd 3f 61 a9 6d 93 96 12 f5 3f
       0.1164015192143836 1.3170381316109216
000340 f6 49 f4 61 30 3b f0 bf ac d4 90 fe f1 3d d5 bf
       -1.014450438150218 -0.3319058404916386
000350 3b f9 36 4a 83 b6 c2 3f a6 26 bb a1 05 0e d1 3f
       0.14619485019461273 0.2664808349041813
000360 3f 56 af 11 79 cc c5 3f bf fd 6c 00 b8 74 e1 bf
       0.1703025184967135 -0.5454978950801247
000370 34 9a 61 44 9b d1 de bf 88 13 9d 03 4e 9e c0 3f
       -0.4815433662210211 0.12983107735103894
000380 1d 00 d7 a5 46 c4 e2 bf 88 7c 1b 26 6e 4a c6 3f
       -0.586459468751858 0.17414643154822707
000390 5f 3d a6 9f 03 b8 d4 3f bc e6 73 06 c1 3a eb 3f
       0.3237313326908033 0.8509221197156971
0003a0 14 e4 78 fd fd 74 d5 3f 9f 77 8c f6 8d e3 e1 3f
       0.3352656340899227 0.5590276542095473
0003b0 c9 92 12 15 42 f1 d5 3f 7d d1 a0 76 c6 e5 e4 bf
       0.34285022790781433 -0.6530487362820591
0003c0 42 d7 6a 5e 2b e5 e3 3f 61 33 91 d6 42 6b b8 3f
       0.6217247814263163 0.09538667429405968
0003d0 ce 05 14 e7 85 2c ba bf 6b 32 fd e9 7e df d8 bf
       -0.10224186793859433 -0.3886410985040018
0003e0 14 c8 6e ac 7a 8e d0 3f f4 58 32 35 04 f8 dd bf
       0.2586962398446542 -0.4682627219675759
0003f0 d0 76 33 db 28 ba b8 bf b0 6d 82 91 ad 87 b9 3f
       -0.09659056998813331 0.09972653200605097
000400 43 fc 83 76 c6 94 ec bf a7 9a cc 67 1e 50 cb bf
       -0.893161040759772 -0.21338253086397183
000410 09 06 aa 5f 12 a9 e1 bf 20 fc e0 ed ae 90 bc bf
       -0.5518886440697212 -0.111582692218676
000420 d9 81 25 21 07 5b e8 3f a1 08 4d 9e 95 2a b3 bf
       0.7611117980377983 -0.07486853708999998
000430 84 a0 98 26 34 e8 c9 3f a7 a4 02 1c de d6 e1 bf
       0.20239879498081248 -0.5574789568974169
000440 57 f3 63 07 ca 96 d1 3f 27 da ac 54 30 a7 ce 3f
       0.2748284408733545 0.23947719702273781
000450 33 17 0b fd 96 85 e3 3f c9 95 86 bd 16 ae db 3f
       0.6100573484661481 0.43250053890582457
000460 f7 e4 04 b3 ba a3 e5 bf ed 33 0e ae 81 d4 e5 3f
       -0.6762364860980189 0.6821907424470034
000470 bb 06 91 79 11 fb e2 bf 9c 44 1e 08 78 79 c6 3f
       -0.5931479811044577 0.17558193584821857
000480 f9 53 d5 02 e9 fd e1 bf 89 8a 80 ea ad c2 d2 bf
       -0.5622448973978172 -0.293132285123797
000490 07 f4 8e be b9 24 e3 bf 90 0d eb b5 1f 2c d2 bf
       -0.5982331010669676 -0.2839431072754559
0004a0 0c 3e 0b a9 9c 5e c0 3f 0c cf 59 4c 83 76 d9 3f
       0.12788732771012723 0.3978584523786004
0004b0 76 3e 54 41 ae a8 df bf dd d8 b1 cf 69 93 e0 bf
       -0.49467045192520886 -0.5179947907006653
0004c0 18 52 e1 03 94 43 cd bf dd 59 22 2e da 36 b5 3f
       -0.2286248225160683 0.08286822916338772
0004d0 10 19 a5 79 14 82 e1 bf 30 08 7d e0 9b ec aa 3f
       -0.5471289039494724 0.052586432603235145
0004e0 57 a2 22 24 dc d0 d0 3f 3a 25 a7 34 3d 8d c1 bf
       0.2627477982410133 -0.13712277480071028
0004f0 2f 59 eb fc 9b af d7 3f c6 97 5b 90 db 20 da bf
       0.37009334277299194 -0.4082554731124869
000500 54 f5 cd 2d 19 e0 db 3f bc 5b 17 f8 70 b0 ed bf
       0.4355528781232654 -0.92778824286767
000510 f1 f7 79 e5 8f c2 c0 3f fb 4d 31 81 78 5e aa bf
       0.13093756394295 -0.05150200440462168
000520 e8 b8 17 ac fb 27 d7 3f 32 e7 ea e1 fe 05 e8 3f
       0.3618153744308885 0.7507318890049872
000530 cb 5b c6 7a e5 00 de bf d8 86 31 4c 0c 63 dc 3f
       -0.4688047121975926 0.4435454124523921
000540 10 89 d4 70 6c 36 bd bf e0 6b a8 6c 26 54 a7 bf
       -0.11411168818134265 -0.04556388927831967
000550 ae 7b 80 9a e8 52 d7 3f bf 71 bc c7 8b bb e7 bf
       0.36443533981394693 -0.7416438008399878
000560 84 a8 52 67 85 86 da bf 6d a1 f6 c9 59 d2 eb 3f
       -0.4144605168354547 0.8694275803182286
000570 28 35 ba 3e 39 e2 b5 3f d0 51 eb 38 d0 24 b4 bf
       0.08548314839773197 -0.07868672742490124
000580 f0 a1 c9 fc 3c ed ce 3f 50 4f 59 f7 7b 31 ca bf
       0.24161493628640995 -0.20463513925153132
000590 06 54 6b ba a0 f7 dd bf 6e 93 a7 8c ba 32 d3 3f
       -0.4682390041828629 0.2999712346630109
0005a0 ef 21 3a d0 17 33 d8 bf 04 fb 63 8c ad 07 eb bf
       -0.37811847052264985 -0.8446872465136441
0005b0 0e 1d af dd ad 5f e4 bf f6 bc 35 e8 02 f5 e0 bf
       -0.6366795854345655 -0.5299086127614874
0005c0 ea b1 5e 84 59 82 dd 3f 03 e4 0a 77 da 92 d4 bf
       0.4610809128451182 -0.32146321892975055
0005d0 aa 8a 29 2b b6 c8 a6 bf c4 fd 4b 6a bb 62 c8 3f
       -0.04450005795367436 0.19051306429171977
0005e0 14 12 38 99 c2 8d eb bf 0f 54 4b 5e a8 39 b9 bf
       -0.8610547058638667 -0.09853603651147601
0005f0 ea 93 c6 11 7f b5 dc bf fc a6 e2 06 16 13 dc 3f
       -0.44857765899570146 0.4386649195899819
000600 c2 1b 15 70 c6 fd c1 3f 52 ff 5f 20 d7 8b c2 3f
       0.14055710289741624 0.14489258843240777
000610 3d 8c 7f 9e 9c 91 f6 bf 5a d0 03 8d db 21 90 bf
       -1.4105497542702914 -0.01575415657221444
000620 56 01 f9 f0 59 6c e6 bf e8 82 37 6f 36 51 a4 bf
       -0.7007264811036673 -0.03968210322978455
000630 50 5a 26 25 ac 33 bf bf fc 72 0f 3e a7 59 c8 bf
       -0.12188220889070434 -0.19023600130358165

feature_extractor.linear1.bias f8 [100]
000000 38 1c 58 9d 33 80 b5 bf 86 30 3f 76 a4 e4 dc 3f
       -0.08398745147143039 0.4514552263979187
000010 8e 5b 92 ba 29 a8 dc bf 96 67 14 bd ba 07 ac bf
       -0.447763855170188 -0.05474647100545764
000020 10 f0 b7 18 f7 7b d8 bf fe c8 97 4d dc 99 e5 bf
       -0.3825662366286915 -0.6750318065153633
000030 d8 42 aa 94 78 8d dc bf 00 3f f7 11 d4 0b e1 bf
       -0.44613470571588953 -0.5326938963789587
000040 96 33 dc 75 9a ba ec 3f 56 9c c6 dc 00 0b dc 3f
       0.8977787305790226 0.4381715923322579
000050 a4 7b da 2d 84 8c e5 3f 0e 67 c0 61 86 28 d4 bf
       0.6734028716635874 -0.3149734453778458
000060 53 b5 da 5c 5d 21 c5 bf 5d 3a c9 fe a4 66 e3 bf
       -0.16508070978071973 -0.6062798477449395
000070 68 9e 51 d2 ce 4f e4 bf f1 fa f7 71 5d 39 da 3f
       -0.6347421748914259 0.40975128297570423
000080 8e 48 85 c4 19 e3 d2 3f 13 21 c5 96 69 77 dc bf
       0.2951111239573344 -0.4447883579600937
000090 9e 25 34 95 7b ec e8 3f ac 3b ac d2 94 2b e4 bf
       0.7788675226340052 -0.6303199877455561
0000a0 cf b5 af 48 ee e3 e4 3f 93 f3 5d 0c 0d 25 d1 bf
       0.652823583570063 -0.26788641174044264
0000b0 5f 6a 8a 6d 22 2b e6 3f c0 99 67 15 f6 52 d6 3f
       0.6927654399363056 0.3488135537176298
0000c0 96 30 0a 32 89 36 e0 bf 5a 80 dd 4b 87 4a de bf
       -0.5066572167720718 -0.4732988587256891
0000d0 93 09 ed 8b 77 6a e0 bf ee b2 93 10 5a f5 e7 bf
       -0.512996457379176 -0.7487001727837119
0000e0 66 21 73 8b 01 36 e3 3f 59 22 86 74 25 79 d0 3f
       0.6003425334575183 0.2573941839150727
0000f0 98 1f 5a 9a 9d 7f c2 3f 9a 03 8b e1 7a f1 e5 bf
       0.14451952015610625 -0.6857275395524198
000100 ff f8 e7 bd 77 8e e0 bf 66 2f fa bd ca c7 b3 3f
       -0.5173910817245825 0.07726733339421585
000110 df fd df 42 07 93 c7 3f d9 2f 21 48 1e f5 b5 bf
       0.18417444959048532 -0.08577145825364542
000120 1f 36 f4 4f 54 a8 e4 3f a8 af dd d9 c3 c5 c1 bf
       0.6455480157471277 -0.13884781015383152
000130 c2 c2 a8 d6 35 6e dc bf da 7f 4a 7c d9 c3 c7 bf
       -0.44422670328917147 -0.1856643540277208
000140 6d 0a 7f 11 71 4c bd bf 6b 78 48 c6 9c 7f d3 3f
       -0.11444765736727343 0.30466384280760533
000150 3f 90 58 61 3b 7e b9 3f a2 b0 42 2f e8 5c a9 3f
       0.09958239676103718 0.04953694893751616
000160 70 d7 dc 27 7f 88 d4 3f 5a b6 c6 f1 f7 ac da 3f
       0.3208310975345432 0.41680716143568974
000170 ca d9 8a 7f 48 7b d8 3f ba 59 c1 82 63 e6 db 3f
       0.38252460913954833 0.43593681115217076
000180 71 ef 5b 7a 7a 42 ec 3f 15 0e 52 be 11 c5 da bf
       0.8831150426699265 -0.4182781561468983
000190 3c c1 f9 82 ee b9 d4 3f 21 8a 4a ab 38 92 cf bf
       0.3238483695086136 -0.24664982189013165
0001a0 2e b2 c8 46 e9 8f c7 3f f7 c6 b3 5f 56 df d6 3f
       0.18407932239769437 0.357381432971223
0001b0 15 c7 cc 04 07 e4 e9 3f 10 43 a2 30 43 65 d7 bf
       0.8090853780506416 -0.36555557011983897
0001c0 b3 5e 60 df 0e ac db bf cc 74 17 17 ee 9a c1 3f
       -0.4323765927706333 0.13754058959503934
0001d0 89 b4 a4 a8 98 87 9f 3f a4 80 35 d8 56 a3 d2 3f
       0.030790696423697504 0.2912194358268698
0001e0 b1 e7 43 d7 89 47 da 3f 1e 83 fa cb 4a 3d c8 3f
       0.41061635992047757 0.18937048873797208
0001f0 28 22 33 20 66 7e e7 3f 2b 99 24 02 92 6f d2 bf
       0.7341795567418261 -0.28805971345208786
000200 2e 85 89 cb 85 0d d3 3f fc 64 db bd 52 32 d1 bf
       0.29770035626104885 -0.26869648495410536
000210 64 dc fd 77 ce 16 97 bf 8b c1 6e 09 5f 9d da bf
       -0.022547937463482617 -0.4158551780810959
000220 80 20 8f 1e b7 12 e3 bf 90 65 9c 00 28 86 e5 3f
       -0.5960345837456913 0.6726264964992641
000230 74 b9 15 26 b2 09 c8 3f d0 ee bc 2d 0b 01 e2 bf
       0.18779589519131046 -0.5626274007149394
000240 d9 09 f3 ad 4f 93 c1 bf 31 ba 1d 12 80 cc d3 3f
       -0.1373080825197366 0.30935670632507867
000250 67 44 9e a5 b5 a3 ea bf 92 03 a4 cb 43 0d e6 bf
       -0.8324840769511298 -0.6891192414624234
000260 a3 b9 df 80 87 09 e5 3f f4 8f e6 9d 8b 0b c7 bf
       0.6574132458752512 -0.18003983697883508
000270 b2 f4 98 7d 7b 88 e6 3f 2b 9c 5d 30 e2 e0 d5 3f
       0.7041604474140029 0.34185080264291184
000280 b1 f1 72 e4 56 bf d8 bf 35 65 42 29 7c 0c e3 3f
       -0.38667843160126397 0.595274048409158
000290 82 a3 88 b3 9d 6d e8 3f fa b6 ce 2d eb b2 c6 3f
       0.763380861903997 0.1773351644200643
0002a0 d4 df 8a 94 d2 99 d1 bf 25 ee fa bc e6 ad dc 3f
       -0.27501358514882424 0.4481140943059663
0002b0 47 4e c3 d9 ff f6 e0 3f ec 3c 58 d4 76 11 ce bf
       0.5301512959653757 -0.23490796440498884
0002c0 9b 1a d1 a2 87 8f e0 bf 40 02 96 89 ff 01 dd bf
       -0.5175207309738029 -0.4532469600308424
0002d0 26 bc 0f a0 32 8d c1 3f c1 ef f9 f3 fe 9c e2 bf
       0.13712151351453022 -0.5816645398294825
0002e0 de a0 16 46 7e 91 e7 bf 0c 78 4c 7a 57 41 c1 bf
       -0.7365104073442372 -0.13480657073608915
0002f0 78 58 88 4c 29 2f a0 bf 45 b8 31 f2 6c e8 99 3f
       -0.031609812347753896 0.02530069568859285
000300 2b 90 ed 67 71 27 dd 3f 7c 32 ee 2e 1a 29 c7 3f
       0.4555324091836634 0.18094184199835073
000310 e9 5e d0 06 dd f3 cc bf ff 31 06 e0 ba 33 d3 bf
       -0.22619211991035762 -0.30003234746325796

feature_extractor.linear2.weight f8 [50, 100]
000000 a4 8b 44 d3 cc e6 94 bf ee 60 02 66 68 cc cf bf
       -0.020411682505379183 -0.2484255312053913
000010 2b 79 59 63 29 e3 b4 bf 9c fc a5 51 2d 33 b6 bf
       -0.08159121203923252 -0.0867183994614486
000020 7a f5 6a fc 5d 26 c8 bf f4 1a 47 85 02 c8 95 3f
       -0.18867087197387972 0.02127078951323376
000030 5f 76 f9 d6 0d 8e b0 3f f8 cd 65 de 11 34 9d bf
       0.06466757295989954 -0.028518943022801196
000040 b7 1d e2 6d 10 9c c3 bf af 65 fc 26 96 0b cc 3f
       -0.15320020070451587 0.21910359290704437
000050 ab cd f6 5e fe 60 c2 3f 00 5e 1f 19 7b ba 3d bf
       0.14358501088063966 -0.00045362000775869826
000060 99 1a 86 9a 20 c3 c7 3f a5 12 b2 cf 78 f5 b3 3f
       0.18564231438741244 0.07796435423558508
000070 80 f6 48 78 85 90 7d 3f b6 8d 8c 5f 56 d9 d0 bf
       0.007217904440549483 -0.2632652218910282
000080 93 a7 05 be e5 e7 bb 3f ec 2e 9c 1a 57 cf b8 bf
       0.10900722398005618 -0.09691376113567757
000090 5d 35 c1 f1 03 aa cd 3f b7 e3 19 f2 3a a1 b2 3f
       0.23175095848493302 0.07277267847702161
0000a0 44 45 d6 bc 00 9b d0 bf 1c 83 e5 eb 3b 7d cd 3f
       -0.2594606250869058 0.23038434046159117
0000b0 e9 c3 15 85 f1 89 d0 bf c3 97 df 99 c2 9d cc 3f
       -0.2584193992288975 0.22356445802068778
0000c0 ce 24 12 a0 9a c6 b4 bf 09 ec 13 09 0a 40 a7 bf
       -0.08115545661907506 -0.045410455330021256
0000d0 f3 89 fd 4f 08 f3 94 3f 87 31 9e d7 3b 29 b4 3f
       0.0204583453008897 0.07875417722806875
0000e0 35 d4 cf 64 4d dd ce 3f 84 0c 38 be 0b e2 d5 bf
       0.24112861082508777 -0.34192174507206397
0000f0 0b a5 52 49 a9 e7 cb 3f c9 f5 e4 20 ea d7 b0 3f
       0.2180072410604129 0.06579459479413353
000100 a7 9a 31 3e 5e 4d c5 bf 02 4a fc aa 61 25 c6 3f
       -0.16642358815007194 0.17301579331304145
000110 af de d5 cc 82 12 ce bf ae df 59 58 53 e2 92 3f
       -0.23493990899782122 0.018441488521119424
000120 41 00 7f 90 46 6e cd bf 96 28 d9 bf 65 73 b7 bf
       -0.22992784553025739 -0.09160457547946729
000130 4c 88 03 80 3c a6 91 bf 2e 04 fb cd 8c 12 c0 bf
       -0.017235703767149155 -0.12556610162394705
000140 43 52 6c 13 28 1b d3 3f b2 7e 23 06 e2 d9 c2 3f
       0.2985325040511137 0.14727425861109605
000150 bc e0 7e 22 19 d3 cb 3f 3f a7 a4 ec 4e cb ca 3f
       0.21737970527988704 0.20932947687952638
000160 73 84 35 1d d4 9a be bf 38 76 29 90 04 56 d3 bf
       -0.11954999650107982 -0.30212511137310427
000170 ee 7f a4 cf 1e 65 cb 3f a1 e1 0a 37 8c f3 c1 bf
       0.21402344836042125 -0.140244986416076
000180 fb 92 81 2e c2 57 cf 3f a0 1d 66 84 9c af 94 bf
       0.24486567755516106 -0.020201154309260283
000190 4a 4e f3 98 bb 2b cf 3f bb b7 ac cf 0e d4 9a bf
       0.24352211921960737 -0.02619956152482648
0001a0 6b 40 aa 9d d1 66 ce bf 29 9b c6 c9 df 6e d2 bf
       -0.23751278112877414 -0.2880172224490019
0001b0 27 4a ac 15 19 40 d2 3f 41 0e f8 80 b4 13 b4 3f
       0.28516223064903773 0.07842567585617478
0001c0 34 e2 26 36 6e 63 97 3f 6f 31 3e 88 3e 98 c0 bf
       0.022840234809082996 -0.1296461262940158
0001d0 f1 90 e8 8d e2 34 ad 3f 1b f6 ab 39 26 e9 c2 3f
       0.05704410536080385 0.14774015251161718
0001e0 50 b0 4c aa 57 19 c6 3f cc e7 99 43 69 fa ca 3f
       0.17264838996323073 0.21076694298591148
0001f0 ea 2d db da 76 a2 cd 3f 34 2a ab 7f 5c cb b1 bf
       0.23152051626526254 -0.06950929753217211
000200 ab 20 45 f7 21 c2 c8 bf 89 1f ac 66 07 97 ac bf
       -0.19342445920688553 -0.05583975914311085
000210 1b 63 80 21 02 83 c5 3f 7e df e8 60 f2 12 a1 3f
       0.1680605567533114 0.033347677545349605
000220 eb 83 88 b2 55 65 c6 3f 63 22 46 cc 89 5d ca 3f
       0.17496749131626585 0.20597956156076966
000230 23 13 3f aa 19 2f d0 bf 9c fb 3f 73 3f 81 a2 bf
       -0.25287477136252984 -0.036142332857699716
000240 0c 75 51 20 5d 9b bf bf 0e 34 c7 77 e7 b7 c8 bf
       -0.12346441306131711 -0.19311230991880318
000250 2f 16 91 d0 43 bb d1 3f ac 89 7f 66 1c b4 93 3f
       0.2770547425064675 0.019241756206506075
000260 ed 2a b6 6e 87 8a b6 bf b3 77 ba 1b c7 5b a9 bf
       -0.08805128529472102 -0.049528333792508226
000270 41 a9 7d b9 de 42 cd 3f b8 c9 43 a6 27 29 ba 3f
       0.22860321099444472 0.10219047364424838
000280 4f 21 25 25 08 28 cf 3f 4b 08 ef 42 8f 68 ce bf
       0.24340917409632332 -0.23756590622184812
000290 0d a4 43 97 c7 6c c1 3f 62 70 b1 63 96 dd cb bf
       0.13613219152401293 -0.2176998125822847
0002a0 f9 7a 7a 36 99 28 b4 bf f5 de e1 53 da db c5 3f
       -0.07874448375740063 0.17077187629524074
0002b0 a8 07 8a 17 5a ab c8 bf 77 19 9e 55 bd d7 b6 3f
       -0.19272924565671912 0.08922942486069539
0002c0 ac 1d f2 69 7f c4 b5 bf 72 01 a2 ae cf 5a ae 3f
       -0.08502956711355719 0.05928658491848439
0002d0 7c 02 d5 6d 67 e2 98 3f 5e f7 52 a3 04 e9 b4 bf
       0.024301162794702055 -0.08168057429699391
0002e0 d0 50 4c 90 8c 79 ce 3f 9e 75 b4 82 12 61 bb bf
       0.23808438344770488 -0.10694995585477904
0002f0 6d e1 76 33 bd 10 c8 bf eb 5d 80 f3 a7 53 ca bf
       -0.18801083577069325 -0.20567798032492077
000300 66 74 b1 86 6e e2 c0 bf 0e 8f 8b 19 34 68 bd bf
       -0.13191014839950127 -0.11487126945172241
000310 8c 16 70 2b 59 14 d2 bf 85 ae 92 ec fa 59 b7 3f
       -0.2824919628331848 0.0912167384691945
000320 89 01 47 b0 09 d4 b0 3f bf d0 be 41 9b 16 c2 3f
       0.06573544076582584 0.14131489477370526
000330 ad fe eb 39 1d 2b b4 3f f6 e5 d1 d7 4c 7b ca 3f
       0.07878286995036872 0.2068878225143604
000340 6c 92 5f 0f 35 59 c4 3f 7c 13 34 9e 2a 47 9f 3f
       0.15897238970423488 0.030544916063280678
000350 ab 03 0f b2 99 6a b6 3f 8d c6 a4 9f c3 56 b2 3f
       0.08756409260878566 0.07163641593504107
000360 cd 28 73 53 74 8a c9 3f a1 10 b3 be aa af d0 bf
       0.19953779291819843 -0.26072186110492096
000370 6d 8a 5f 2b e8 60 c2 bf b3 ff 96 35 8b 06 b8 bf
       -0.1435823642523987 -0.09384985025735552
000380 d6 6c 78 4a cd 3d c0 bf 71 9e 3e 3a 3a 14 b1 bf
       -0.12688604484797023 -0.06671489641177587
000390 a0 ce f4 41 56 c9 90 3f 47 52 8f e9 b0 c4 ba 3f
       0.016393039489413952 0.10456376745362049
0003a0 5c 44 08 b6 dd 3f d2 bf e9 41 83 e5 5a fe b7 3f
       -0.2851480748805153 0.09372490027750015
0003b0 fc 18 45 56 8c 9a d0 bf 50 c5 9c 33 8f 7a b7 bf
       -0.2594328730086912 -0.09171385774677288
0003c0 8e 31 07 e6 a1 7e cd bf 64 5c fd d4 9c 4a d1 bf
       -0.2304270146545488 -0.27017899322294725
0003d0 e0 44 92 a8 16 03 b6 3f 19 4e 6c d3 84 18 ce bf
       0.08598462691795161 -0.2351232559527581
0003e0 8f 2e 29 f3 71 26 aa bf 7f 99 ab c6 50 3c b8 3f
       -0.05107456296226786 0.0946703419718684
0003f0 f2 54 17 93 0f de c8 bf 94 17 7d 9f 24 9e d0 bf
       -0.19427675897774282 -0.25965228629171944
000400 ae 30 cd 52 e1 f4 bb bf fb 0f d5 8e 64 2a c0 3f
       -0.1092053248550566 0.12629372572166617
000410 f5 b4 39 7e 62 f4 cb bf 2c 36 3e b9 33 b0 a7 bf
       -0.21839553035116635 -0.046266189921066875
000420 15 80 2e 41 ff ce c0 3f 20 15 c9 8b 0b 8e c5 bf
       0.13131704981515271 -0.16839737248862097
000430 c3 48 ee dd a5 71 d0 3f d2 1f 56 a6 14 7e c8 bf
       0.2569365184109637 -0.1913476764859739
000440 45 14 34 3e a5 f4 d1 3f dc 38 58 e9 21 07 b3 bf
       0.28055697512201433 -0.0743275828064926
000450 d5 8c 82 e9 b4 47 b1 3f 2f 08 a5 7b 0a 80 bd 3f
       0.06750040722777169 0.11523499983471262
000460 d9 cb 25 03 65 ea ba bf 02 31 80 93 23 70 cd bf
       -0.10513907744261476 -0.22998470976052238
000470 d6 0f bf f7 49 2e c5 bf d6 29 04 54 75 5e bc bf
       -0.16547512623776467 -0.1108163194768744
000480 96 24 99 ff e4 f2 be 3f 99 96 31 fa c0 74 d1 3f
       0.12089377632323059 0.27275108750323224
000490 1e 84 6b 94 4e 24 c6 bf 0c a9 4f d0 54 d8 d0 3f
       -0.1729830002505261 0.2632038149155427
0004a0 46 7c b2 f0 92 b3 c9 bf 40 08 7c 95 0d 06 a2 bf
       -0.2007926631240215 -0.03520243119966482
0004b0 6c cc 8f f6 17 32 c4 bf d5 6c 1c 21 dd b9 bc 3f
       -0.15777873553415434 0.1122110563123216
0004c0 16 b0 c3 ee 57 42 cf 3f 88 77 5a f1 7a f2 b7 3f
       0.2442121425477814 0.0935437049142519
0004d0 74 e7 52 e7 45 4d c8 bf 64 b6 6f 23 3c 23 9c 3f
       -0.18985818667516308 0.02747816053663711
0004e0 c3 6d 92 2e 52 58 a8 bf 7c 7b 37 44 21 80 c4 3f
       -0.047548835930878684 0.16016021567244454
0004f0 9e f8 95 42 3c 3d d0 bf ad 25 a8 47 b4 6d d0 bf
       -0.2537375116588779 -0.2566958141111069
000500 89 ed e6 61 ca 64 c2 bf c1 db 44 a3 d1 ac ca bf
       -0.14370088367818948 -0.20839901420705867
000510 4b 5c 65 6d cb ff bd bf 72 f4 a6 2e 37 23 a4 3f
       -0.11718436642455392 0.03933117336735216
000520 e5 ce 65 ce d2 13 be 3f 6c 25 2d 02 7b db aa bf
       0.11748998202329693 -0.052455753341358186
000530 e0 51 f9 16 ae 67 c7 bf 5f d3 b5 05 94 0d ac bf
       -0.18285156366131528 -0.05479109353738098
000540 19 27 75 e2 53 35 c5 bf c0 1a ce d6 6f 01 c6 bf
       -0.1656899314642082 -0.1719188498356825
000550 da 2e 28 bf 16 5b c8 3f 1b 38 10 ee 85 3f b4 3f
       0.19027981122814347 0.07909428655713706
000560 4e 0c 15 d0 76 27 d2 3f 6b d7 3e ae 59 71 cc 3f
       0.2836586982777519 0.222209177094267
000570 fa d2 a2 f1 06 f7 d1 bf f0 90 21 ef db 23 b4 bf
       -0.2807023391463158 -0.07867216671144539
000580 83 27 95 24 bc ac c1 3f a0 71 ad 1f 75 d0 68 3f
       0.13808395181905206 0.0030290877888729667
000590 ba dd 8e 3d 49 88 bf bf 04 6d 11 c7 d3 57 cb bf
       -0.12317331078417385 -0.2136177751552638
0005a0 56 b6 3d cc 80 c4 cc bf 6c ae 90 a1 90 d8 c3 3f
       -0.22474679920871904 0.15504653824733639
0005b0 25 4f 9e f8 5a 08 b7 bf f3 94 b5 e1 6d dd cc 3f
       -0.08997124261651075 0.2255074836822711
0005c0 1e 8a c8 d6 64 6b a8 3f d6 08 c0 e2 31 d0 bf bf
       0.047694350451156206 -0.12427055154697383
0005d0 ff f8 0d e6 d3 88 c7 3f 58 55 09 0f 0a 19 90 bf
       0.18386315091260738 -0.01572051731848964
0005e0 40 0f 6e 29 d7 0d 99 3f 5e b4 4e 46 11 fc a0 3f
       0.02446685972564855 0.03317312224621881
0005f0 a1 07 a1 97 fe 8e bd 3f c2 c5 50 10 dd ba a8 3f
       0.11546317293053089 0.048300655595436406
000600 89 eb 69 e2 43 e6 c0 bf aa a4 aa 03 e4 36 c1 3f
       -0.1320271354232683 0.13448763064414965
000610 a3 2e cc 21 cf 42 d0 3f 51 53 6a c5 f0 b3 cd 3f
       0.2540777044348294 0.23205384864254566
000620 d5 9b 67 af 72 55 c2 3f b0 31 15 67 9e 57 c4 3f
       0.14323266567882223 0.15892391236628844
000630 78 87 44 35 7b 1c ba 3f dc 40 b0 b1 ab d4 ae bf
       0.10199708986740841 -0.060216298523416006
000640 78 c4 84 29 20 9d 95 bf 2d 8e 97 72 c1 1b ca bf
       -0.02110719922456325 -0.20397203536332267
000650 da 4c d3 c0 51 dc a2 bf 92 62 a5 b0 2d a0 c5 bf
       -0.0368371532328184 -0.16895075917525
000660 a9 be fd 0d 11 ae c5 bf 86 3c 0f f2 0c ad b3 bf
       -0.16937459166682814 -0.07685929212242301
000670 7f 88 bd 37 bb a2 b4 3f e3 06 84 7c b2 7f b4 bf
       0.08060808287476283 -0.0800735048287851
000680 42 57 64 27 d5 75 cc bf 97 72 b9 17 7d 2d c5 3f
       -0.22234596656260847 0.1654507032243557
000690 7f 47 79 4b 75 36 cc 3f 39 6d c3 e7 72 53 b9 bf
       0.22041193185082972 -0.09892957838331008
0006a0 e6 58 24 ef 3f a9 c3 3f 64 ac fc 0a 08 cf 9f bf
       0.15360259224752965 -0.031063199682801815
0006b0 62 67 e5 26 a1 a0 aa 3f 9e 7d 20 30 59 3f d2 bf
       0.052006755827007436 -0.28511647891897407
0006c0 76 25 e7 42 f9 c1 c4 3f 0c 68 54 9e 56 38 a6 bf
       0.16216960684532084 -0.04339857752547979
0006d0 c6 a1 cb d2 15 65 ce 3f 6a fb a2 d5 f7 f4 a1 bf
       0.23745987694498022 -0.03507208330983398
0006e0 6b 28 9d 5f 93 ea bd bf bd 68 06 24 a6 a7 b3 3f
       -0.11686059078525239 0.07677687053220246
0006f0 0c 28 b8 d5 d1 98 c1 bf ad 53 a1 04 66 a7 c9 3f
       -0.1374761861373489 0.20042109705050618
000700 2a a0 c2 9e 27 76 a0 3f d9 34 5b f9 13 44 b5 3f
       0.03215144932738696 0.08307003820228277
000710 49 14 8c ec 8f 16 af bf 19 3e d7 b1 ed 20 94 bf
       -0.060719010949505554 -0.019656862239399418
000720 60 de 9e 57 1d eb c8 3f fc b9 a3 21 8d 4d d1 bf
       0.19467512873028436 -0.2703583553801818
000730 95 f7 30 6e 93 49 bd 3f ff 92 d3 0e 90 8a b0 3f
       0.11440392914025062 0.06461429941152728
000740 ca 56 d6 e8 95 c2 d2 bf e4 07 e5 d4 e9 48 ca 3f
       -0.29312656152738426 0.20535014052626288
000750 fa 0c 4c ad 5e 99 c7 bf aa 00 2d c4 51 cb b3 bf
       -0.18436797582408088 -0.07732115783165008
000760 69 cd 1d 95 f5 88 c5 bf ec e9 11 d5 ed 00 92 bf
       -0.16824216633868197 -0.017581668977507833
000770 53 20 44 6e f7 12 b7 bf 67 cd 86 30 c8 6c c0 bf
       -0.0901331562237158 -0.128319762892356
000780 9f 2b e1 36 f9 b4 d0 3f 94 02 1b e3 0c 9f 90 bf
       0.26104574546178044 -0.016231728898449108
000790 56 30 20 6d d3 1b cd 3f 98 2f 15 02 be 30 c6 3f
       0.22741167858510164 0.17336249448487417
0007a0 14 3f c2 cf 81 02 b8 bf fd ca ab d6 f2 8d d5 bf
       -0.09378825494991033 -0.33678885425540256
0007b0 04 e8 18 1f 79 6f b8 3f 0c 5c 8d cb 94 f9 cf bf
       0.09545094498835743 -0.24980411471435138
0007c0 41 10 cf b3 d0 ec cd 3f de 60 0d 1f 76 3d ab 3f
       0.2337895276997433 0.05320328835540676
0007d0 42 7a ac 23 07 d7 c4 3f 66 0d ab 88 c2 fd ac bf
       0.16281213037378178 -0.05662353437721883
0007e0 f6 9a b8 dd f4 13 cf bf a5 a3 5d 27 c8 27 c5 bf
       -0.242796524297965 -0.16527654573590414
0007f0 3d d7 b2 7b e4 59 cc 3f 42 dc 58 5d 1f 8c a4 3f
       0.2214933017727904 0.04013154997340297

feature_extractor.linear2.bias f8 [50]
000000 30 87 97 08 09 c5 de bf 76 d4 16 88 cf 0d a9 3f
       -0.48077607955029844 0.04893349205250612
000010 8a c5 34 68 09 5c 9d 3f c3 d9 d8 20 29 be b6 bf
       0.02867140482448386 -0.08883912136011589
000020 ae 53 89 00 f4 3e c5 bf a8 bc a9 0c 51 b4 c6 3f
       -0.16598367716019652 0.17737782591163875
000030 bb 03 7c 9c 85 f0 b4 bf 69 f8 6c c5 35 9b ca 3f
       -0.08179507322712613 0.2078616346352107
000040 3d 5f 59 e2 e1 ab cc 3f 2b 2a da ef af 93 ce 3f
       0.22399543335154162 0.23888205729993336
000050 d9 96 c2 4f b3 6c c1 bf 5d 8a 7b ec cb 89 c0 bf
       -0.13612977404152707 -0.12920521780968644
000060 a5 87 21 5b be 3c d9 bf c3 68 31 0f 04 b7 c7 bf
       -0.3943324937773645 -0.18527270070882737
000070 53 32 c4 52 55 4c ca 3f ee f8 2d 31 b8 46 c8 3f
       0.20545450726821687 0.1896581878790537
000080 95 e5 15 45 1a 26 d4 3f 15 90 5b 22 78 49 c6 3f
       0.3148255991614744 0.17411710431690666
000090 03 cc f6 6e 7c 31 e2 3f 05 5f b5 00 51 45 d1 3f
       0.5685407798067675 0.2698557383459817
0000a0 5f 17 7d 14 f3 aa c6 bf 1d b5 aa b7 2d 40 ad bf
       -0.17709196567937632 -0.05713026873614011
0000b0 42 7d c8 2e 42 95 c8 3f 5d 7c 07 f5 bd 7b e1 3f
       0.19205500873884246 0.5463552270629283
0000c0 8c e7 2b a3 fe 1b d1 3f 00 ae 6b f9 09 7c 3b bf
       0.267333659503145 -0.00041938060296217716
0000d0 80 ab 37 96 25 97 87 3f 84 b9 66 a0 a4 75 d0 3f
       0.01151875843694028 0.25718036331354477
0000e0 94 2a e6 47 d3 7e 93 bf 8f 1d 15 f7 0f a6 c7 3f
       -0.01903848768555834 0.18475532116484003
0000f0 bf 9c 0e 76 80 8c c5 3f ac 5b 57 a5 62 e1 b8 3f
       0.168350274701174 0.09718910729075841
000100 10 b9 f7 10 d6 e1 b4 bf 11 f3 b2 82 c6 11 d0 bf
       -0.0815709868836374 -0.2510849262578612
000110 2b 94 c0 55 5e 1b ad bf 94 1e 15 26 93 80 74 3f
       -0.05684943005352524 0.005005430984347154
000120 86 fa df ed 1f 00 cd bf b7 11 85 75 65 5c c3 3f
       -0.22656630625711588 0.1512572120501667
000130 74 7b ac 65 9a ab d4 bf f5 8d 91 d0 8a 14 d3 3f
       -0.3229738228709984 0.2981287991335358
000140 36 01 54 f0 4a 10 a3 bf db 8c e4 0b 0c d8 cd 3f
       -0.037233678662234856 0.2331557329244792
000150 0a bc ab 5c 60 90 b6 3f f9 39 20 bd 5d c1 d4 3f
       0.0881405092475093 0.3243021342213122
000160 dc 4d 87 4c 37 94 c4 3f a5 f0 70 f9 48 8e c4 bf
       0.16077319370979992 -0.1605921953176949
000170 8a 9b c2 98 8a 36 c1 bf 5d fa f3 09 26 9a b2 3f
       -0.1344769712352128 0.07266462080949894
000180 80 be 2a 53 45 d5 ad bf 55 90 07 e1 c9 58 d1 3f
       -0.0582677520773105 0.27104422545949564

feature_extractor.linear3.weight f8 [2, 50]
000000 91 c3 42 e7 30 2e d1 3f 19 2f 86 82 25 24 c0 3f
       0.2684442766576974 0.12610310433625996
000010 ba 04 5a 5d eb f0 b2 3f c1 50 3f 9f a0 e3 c7 bf
       0.07398863820164339 -0.18663413787601793
000020 09 5e 96 df 14 61 b9 3f 99 47 d4 f3 c4 8a d3 bf
       0.09913759668994983 -0.3053448086876585
000030 07 6b e7 19 d0 7a c0 bf a2 d5 6f 66 a0 1c cb bf
       -0.12874795212595577 -0.2118111133747052
000040 22 2f 79 be 6b a4 c8 bf 86 c4 5c 92 7c e6 c8 3f
       -0.19251772690255914 0.19453389307594565
000050 89 28 42 88 d3 8c b9 3f 89 04 66 41 6b e7 d0 bf
       0.0998050887739358 -0.2641246927888195
000060 20 3e ed cd 46 b0 b7 bf db e0 9e 57 41 a8 c1 3f
       -0.09253351714618718 0.13794724253035082
000070 da cc c0 17 6d 5f ce 3f a5 a9 5a 84 6c f2 d3 bf
       0.23728717479534717 -0.3116713802834517
000080 8f 5f e9 fc 4f d5 c7 3f 1f 71 fa e2 60 3e d1 bf
       0.18619727944564743 -0.26943227926109786
000090 b8 d7 90 b9 c1 36 bf bf b9 a2 1a 58 ba 9d d0 3f
       -0.12192927151121935 0.25962694744024933
0000a0 f1 07 8e 5a f2 23 ac bf 14 78 be f4 49 43 a9 3f
       -0.05496175151257877 0.049341498495081876
0000b0 6e b5 0c f4 92 60 d7 bf 5d d8 ed 4a 00 56 d1 3f
       -0.36526941140149105 0.2708740932206462
0000c0 e3 ae 5c de f4 98 ce bf a0 ea bc 14 e2 b7 aa 3f
       -0.23904286248704584 0.052184166938294085
0000d0 ce 29 4c 33 0f af c0 bf 37 8c 1f 2d c6 92 cd 3f
       -0.13034238819848415 0.23104169085772394
0000e0 82 70 db b4 b2 66 b4 3f 1f 86 5d 23 42 e3 bb 3f
       0.07969204822023992 0.1089364372578747
0000f0 f2 21 a9 df fa ba ce 3f e2 12 b5 ad f7 1f a2 bf
       0.24008117600375517 -0.035400142626292
000100 70 1c ae c4 d5 3c 86 bf 78 cf da 22 1a c8 c1 3f
       -0.010858221115780803 0.13891913129702593
000110 d7 c7 0b 59 aa b7 b7 bf de 55 50 73 17 2e a8 3f
       -0.09264626192069102 0.047226651026146746
000120 54 18 7e 8a 7a c0 a9 3f 0c 37 c0 e6 07 12 d4 3f
       0.05029662075598709 0.31360051664602007
000130 8a 62 bd a7 b4 a7 d0 bf f7 0d d5 1a 99 b1 c8 bf
       -0.26023594265783656 -0.1929198628441637
000140 77 05 c0 57 8f fe c1 3f 9e 48 a2 80 e5 d1 e0 3f
       0.14058105263397255 0.5256221306210767
000150 87 4d 4e 9d 80 27 c9 3f d4 6b fb b2 3f e6 ce bf
       0.19651801758719165 -0.24140163649903335
000160 46 05 ce d0 a9 60 cf 3f 75 46 80 31 6e 29 c6 3f
       0.24513743110223113 0.17313935677570993
000170 10 45 fe 8a bb cb c2 3f a2 3d 13 b8 56 d1 c4 bf
       0.14684242522029267 -0.16263851154370196
000180 80 50 37 1d b9 a6 8f 3f 57 bb f4 50 3a 79 c2 3f
       0.015454717830756914 0.14432457878998647
000190 6f 3e 2d a8 30 ab c5 bf e0 ac d3 0f 95 9f a6 bf
       -0.16928680621866785 -0.04418626611899312
0001a0 17 5e a2 bf 99 0e a2 3f f5 b8 3c a7 66 ed c0 3f
       0.035267643587925494 0.13224490323904772
0001b0 99 7d a2 c1 03 1b c3 bf 9c 45 80 06 c2 26 d5 3f
       -0.1492619224054408 0.33049059519643165
0001c0 2c 5e 84 c0 f4 37 b9 bf fe dd 79 38 43 e8 ca 3f
       -0.09851007175563414 0.21021309144610706
0001d0 14 31 a3 76 8b 7e b5 3f cc 79 6d c7 e9 6a 9f 3f
       0.08396217008993673 0.030681278988930846
0001e0 c8 10 c2 b9 3d af cb bf 5c 3b 1a 9f 91 6f d4 3f
       -0.21628543443887893 0.3193096212134401
0001f0 6e f6 99 70 7a 78 d4 3f 0e fe 43 5c 8e 29 d3 bf
       0.3198534106848915 -0.2994113827735142
000200 99 1a a1 96 a2 79 c3 bf 2c a7 c1 0a 61 bc d2 3f
       -0.1521495090002716 0.29274774599490416
000210 1e 5f bc b8 e6 57 a5 bf 21 b8 57 03 23 38 ca 3f
       -0.0416862583644486 0.20483815825667853
000220 2b 99 40 49 b6 47 d3 3f b1 e2 10 a9 5f 3a ce 3f
       0.3012519564967017 0.23615642314122945
000230 ec 9c 7d fa fd 4e cb 3f c0 c3 be 7c c7 f9 96 3f
       0.21334814768781685 0.022437207211343013
000240 2d 9e 79 3b dc 86 cf 3f 1f e5 fe fa ac c6 ae 3f
       0.24630310920768875 0.06010952533638147
000250 65 5f 1f 0b e6 18 bb 3f e8 c0 c4 af a0 a3 b1 bf
       0.10584867259546867 -0.0689030102846605
000260 77 96 34 a0 63 9d b1 bf 8f 05 e3 08 03 66 cc bf
       -0.06880781804337653 -0.22186315473485904
000270 75 7f 2d e0 e1 f6 c0 3f 19 e6 73 d0 17 84 d4 bf
       0.13253425069978744 -0.3205623183890523
000280 b9 ea 3d 73 51 30 c5 bf 33 db ed b0 33 14 c0 bf
       -0.1655370533661278 -0.12561651362531165
000290 a2 20 40 b4 10 f8 ac bf c7 f9 f7 be 02 dc b5 bf
       -0.05658008766482793 -0.08538834726639442
0002a0 d1 1b 31 9a 7f d4 b5 bf 69 d0 5b f2 0f f2 c4 bf
       -0.08527371897171966 -0.16363715490263367
0002b0 95 8d 9e 2b c3 8d d1 bf 6c 51 69 0a 6b 7d ba bf
       -0.27427748927785817 -0.10347622875389612
0002c0 04 71 f9 86 a3 2c c0 3f 19 80 89 5d de 32 d4 3f
       0.12636226740404066 0.31560477385028346
0002d0 74 2e 2d 7a 71 82 b0 3f db 56 13 71 5e 9b dd bf
       0.06449040634941544 -0.46260796587499237
0002e0 44 cf 1e 73 88 25 c2 bf cc 1b 0c df ee 35 b7 3f
       -0.14177041646109434 0.09066670365801527
0002f0 d7 17 0d c5 9a 7a d8 bf 87 52 08 4e 72 0a c4 bf
       -0.38248318904186135 -0.1565688019769775
000300 2e 89 5d ed d1 ab bd 3f b4 62 b4 e8 ca e5 bf 3f
       0.11590301556637847 0.12460010701432617
000310 d0 1b f1 a8 2b d7 bf bf 50 d7 b3 a9 e9 55 c7 bf
       -0.12437699198299801 -0.18230934892897688

feature_extractor.linear3.bias f8 [2]
000000 6d f3 84 49 f3 b6 c1 3f 92 7f a8 02 00 12 c1 3f
       0.13839570131122106 0.13336181764406924

mean_module.raw_constant f8 []
000000 c6 41 0a 6c b5 64 0c 40
       3.5491741600637594

covar_module.raw_outputscale f8 []
000000 a1 78 5b 9c fe 72 dc 3f
       0.44451871175068375

covar_module.base_kernel.raw_lengthscale f8 [1, 2]
000000 ec f3 eb 6c a0 41 da bf e5 5c 84 2d a3 9a e2 3f
       -0.41025553357013567 0.5813766373638855

covar_module.base_kernel.raw_lengthscale_constraint.lower_bound f8 []
000000 00 00 00 00 00 00 00 00
       0.0

covar_module.base_kernel.raw_lengthscale_constraint.upper_bound f8 []
000000 00 00 00 00 00 00 f0 7f
       inf

covar_module.raw_outputscale_constraint.lower_bound f8 []
000000 00 00 00 00 00 00 00 00
       0.0

covar_module.raw_outputscale_constraint.upper_bound f8 []
000000 00 00 00 00 00 00 f0 7f
       inf
