dkl_gp_for_Good.pth (torch, 61165 bytes, 9 tensors)

variational_strategy.inducing_points f4 [88, 2]
0	0x3d3272f3	0.043566655
1	0xbe7aadc1	-0.24480344
2	0x3f7aaf4b	0.97923726
3	0x3ecdc3ae	0.40188354
4	0x3f37606a	0.7163149
5	0x3eed03c0	0.46291924
6	0x3e9d42d5	0.3071505
7	0x3f314224	0.6924155
8	0x3e851b4a	0.25997382
9	0x3f2d2b62	0.6764432
10	0x3cd3ed9b	0.025870135
11	0x3ee4e59a	0.44706422
12	0x3e413e2f	0.18871377
13	0x3e93148a	0.28726608
14	0x3db9c1f0	0.09070194
15	0x3ed34358	0.41262317
16	0x3f8e6cef	1.1126994
17	0x3ea9ea70	0.33186674
18	0x3f6c48d3	0.9229862
19	0x3edeff87	0.43554327
20	0x3eb37fe8	0.35058522
21	0x3f310c63	0.69159526
22	0x3f48d9b0	0.78457165
23	0xbe8af0f6	-0.27136964
24	0x3ea46b64	0.32113183
25	0x3f3cac25	0.7370017
26	0x3d6bcb00	0.057566643
27	0x3f187f0a	0.59568846
28	0x3eaae93e	0.33381075
29	0x3f42814d	0.7597855
30	0x3e8727a5	0.26397434
31	0x3ed1f958	0.41010547
32	0x3e4d9ef7	0.20080172
33	0x3f9f2378	1.2432699
34	0x3fa048cd	1.2522217
35	0x3ed7694c	0.42072523
36	0x3e3066f0	0.17226768
37	0x3e48e926	0.19620189
38	0x3f2de0b5	0.67921
39	0x3eff5d36	0.49875802
40	0x3f6a1b10	0.91447544
41	0x3f02683c	0.509403
42	0x3e9db3cf	0.30801246
43	0xbdea9105	-0.114534415
44	0x3e88a8cf	0.2669129
45	0x3f8ede35	1.1161562
46	0x3ea6f2aa	0.32607013
47	0x3fca6f7b	1.5815271
48	0xbb9c1b2a	-0.0047639804
49	0x3ee20781	0.4414635
50	0x3ed1deca	0.40990287
51	0x3f12a9c2	0.5729028
52	0x3ee61120	0.4493494
53	0x3f95b0fe	1.1694639
54	0x3eed53f0	0.46353102
55	0x3f1620c4	0.58643746
56	0x3de5d536	0.112223074
57	0x3f3ab7c2	0.7293664
58	0x3f6a9bac	0.91643786
59	0x3ec1b262	0.37831408
60	0x3e575077	0.21026789
61	0x3f065df1	0.52487093
62	0xbdd1dc86	-0.1024714
63	0x3efcba9c	0.49361122
64	0x3efe2250	0.49635553
65	0x3f142587	0.5786976
66	0x3e785d66	0.24254379
67	0x3f884200	1.0645142
68	0x3ea92cf0	0.33042097
69	0x3f951cdc	1.1649432
70	0x3ee8efcc	0.4549545
71	0x3f8f3d5c	1.11906
72	0x3e5bb238	0.21454704
73	0x3f01a622	0.50644124
74	0x3f0abee3	0.5419752
75	0x3ee3b073	0.44470558
76	0x3d59299a	0.05301819
77	0x3eebf36c	0.46084154
78	0x3e26e4ac	0.16298169
79	0x3eca3444	0.39493
80	0x3d71dfc0	0.059051275
81	0x3ebb5a17	0.3659217
82	0xbe410259	-0.18848552
83	0x3f5776dc	0.8416574
84	0x3e519288	0.20466053
85	0x3f7a989d	0.9788912
86	0xbe56ca9a	-0.20975724
87	0x3f87bd2a	1.0604603
88	0x3f31cc80	0.6945267
89	0x3f17d1b8	0.5930438
90	0xbdb9681c	-0.090530604
91	0x3f2c6d68	0.6735444
92	0x3ef5b24a	0.47987586
93	0x3f883133	1.0640014
94	0x3f1ab180	0.60427094
95	0x3f190a9e	0.59781826
96	0x3f58ec4d	0.84735566
97	0x3f203062	0.62573826
98	0x3f26bcec	0.6513202
99	0x3f2d02c3	0.6758234
100	0x3f92060b	1.1408094
101	0x3f6c35dd	0.9226969
102	0x3f220aa2	0.63297474
103	0x3f1461c3	0.5796167
104	0x3ed67706	0.41887683
105	0x3ed839dd	0.42231646
106	0x3ec026bb	0.3752955
107	0xbd99073e	-0.074720845
108	0x3f017715	0.5057233
109	0x3f162580	0.5865097
110	0x3e6e3f9b	0.23266451
111	0x3f10cbfa	0.56561244
112	0x3f1fb56b	0.62386197
113	0x3f2eccd3	0.68281287
114	0x3f554bf7	0.8331904
115	0x3e87b3e2	0.26504427
116	0x3fbf45d4	1.4943185
117	0x3f27466b	0.65341824
118	0x3f393bce	0.7235688
119	0x3f51f912	0.82020676
120	0x3ed6fa95	0.41988054
121	0xbd44783b	-0.047966223
122	0x3f15fba5	0.58587104
123	0x3f62e5de	0.88632
124	0x3ecfc5d4	0.40580618
125	0x3f408853	0.75208014
126	0x3f64e9a0	0.89418983
127	0x3f0b1812	0.54333603
128	0x3f047ee4	0.5175612
129	0x3f229023	0.63501185
130	0x3e9388aa	0.28815204
131	0x3eb00bb3	0.34383926
132	0x3f82f629	1.0231372
133	0x3f621d4b	0.8832595
134	0x3ef849c9	0.48493794
135	0x3f811711	1.0085164
136	0x3f3f93cd	0.748349
137	0x3edea779	0.43487146
138	0x3f87f853	1.0622658
139	0x3efac6a8	0.48979688
140	0x3ed7cfc6	0.42150706
141	0x3f2fedca	0.6872221
142	0x3eb6fec3	0.35741243
143	0x3f65a423	0.8970358
144	0xbd3e11fd	-0.046403874
145	0x3de7f334	0.11325684
146	0x3f017962	0.5057584
147	0x3e346d51	0.17619826
148	0x3e481cc5	0.19542225
149	0x3e4f401d	0.20239301
150	0x3c93a3f0	0.018022507
151	0x3e00cd44	0.12578303
152	0x3e92f54f	0.2870278
153	0x3f171b5c	0.5902612
154	0x3f5f162f	0.87143224
155	0x3f66bfac	0.9013622
156	0x3f90754c	1.1285796
157	0x3e690bae	0.22758362
158	0x3f210d12	0.6291057
159	0x3ebd788f	0.3700604
160	0x3f5886f5	0.8458093
161	0x3f514ac4	0.8175471
162	0x3f81b49c	1.0133243
163	0x3ee4c3c9	0.44680622
164	0x3df03345	0.11728529
165	0x3dde0d74	0.1084241
166	0x3f3a66c4	0.7281306
167	0x3cb8d44f	0.022562174
168	0x3f44ad3b	0.7682683
169	0x3de0c951	0.10975898
170	0x3e693a3f	0.22776125
171	0x3eede143	0.46460924
172	0x3f73b3a3	0.9519598
173	0x3f2667f1	0.6500235
174	0x3ea5156b	0.32242903
175	0x3e4bfaa2	0.19919828

variational_strategy._variational_distribution.variational_mean f4 [88]
0	0xbe8a2f5a	-0.2698925
1	0xbf20df4b	-0.6284072
2	0xbefc5b1b	-0.49288258
3	0xbf193966	-0.5985321
4	0x3f94249e	1.1573675
5	0xbf6008bf	-0.87513345
6	0x3fa40842	1.281502
7	0x3f5cc326	0.8623527
8	0xbf291af3	-0.66056746
9	0xbf3b0191	-0.73049265
10	0xbf0c40b2	-0.5478622
11	0xbec5d2b8	-0.38637328
12	0xbf095b2f	-0.5365476
13	0xbf128314	-0.5723126
14	0xbf0b7af8	-0.5448451
15	0xbeccfba7	-0.40035746
16	0xbecef4d7	-0.40421173
17	0xbe70247b	-0.23451416
18	0xbf1815de	-0.59408367
19	0x3d51a552	0.051183052
20	0xbe02ae87	-0.1276189
21	0xbeaf792d	-0.34272137
22	0xbe31eac5	-0.17374714
23	0xbdb31597	-0.08744352
24	0xbdc0718b	-0.093966566
25	0xbe66bf0b	-0.22533815
26	0xbda039fa	-0.07823558
27	0x3cf135d0	0.029444605
28	0x3c3cdbb4	0.011526991
29	0xbf0387b1	-0.51378924
30	0x3e85962e	0.2609114
31	0xb857a274	-5.141129e-05
32	0xbce0d269	-0.027444081
33	0xbc8eef24	-0.017448016
34	0xbbeaa865	-0.0071611875
35	0xb6a5ea80	-4.9446826e-06
36	0x3dd3fda7	0.10351115
37	0xbf1b65ca	-0.6070219
38	0xbcc11785	-0.023570785
39	0x3d2b43b4	0.041812614
40	0x3c76ae46	0.015056198
41	0x39668bc4	0.00021986576
42	0x3bb65ea8	0.005565483
43	0x3a4d609e	0.00078345265
44	0xbcddac85	-0.027059803
45	0xba825a16	-0.0009945061
46	0xbc929e51	-0.017897757
47	0xbd1840b3	-0.037171077
48	0xbbc9811a	-0.0061494233
49	0xbb0d8a4a	-0.002159732
50	0xba95be5e	-0.0011424532
51	0xbb54bcec	-0.003246124
52	0xbed29160	-0.41126537
53	0xbe202f83	-0.15643124
54	0xba32393e	-0.0006798691
55	0x3cccbdf1	0.024992915
56	0x3949bd46	0.00019239364
57	0xbe8b233a	-0.27175313
58	0xbb3b2c44	-0.002856032
59	0xbc1af681	-0.009458185
60	0x3d21f7e4	0.039543048
61	0xbb37defb	-0.002805649
62	0xbb89a46d	-0.0042005093
63	0x3b975c60	0.0046191663
64	0xba9e1873	-0.001206173
65	0xbd07ca74	-0.03315206
66	0xbb3745db	-0.002796522
67	0x3a42708c	0.00074172835
68	0x3b8efa13	0.0043633073
69	0xbcc5d67d	-0.024150128
70	0xbb5d0800	-0.0033726692
71	0xb9c71a17	-0.00037975676
72	0xba3346d8	-0.00068388646
73	0xbd2d50c5	-0.042313356
74	0xbc568647	-0.013093538
75	0xba0c0abc	-0.0005342176
76	0xbc8cd8ab	-0.01719316
77	0xbb012808	-0.0019707698
78	0xbc6d3013	-0.014476794
79	0xbc3ecbc7	-0.011645264
80	0xbabdddb4	-0.0014485628
81	0xbc7eaac9	-0.015543648
82	0xbce9426e	-0.028474059
83	0xbbd7246b	-0.0065656207
84	0xbac12d3e	-0.0014738215
85	0x3d3369ed	0.04380219
86	0xb9bfee7c	-0.00036608044
87	0xbbc3eea9	-0.0059793782

variational_strategy._variational_distribution.chol_variational_covar f4 [88, 88]
0	0x3f4a505d	0.79028875
1	0x00000000	0.0
2	0x00000000	0.0
3	0x00000000	0.0
4	0x00000000	0.0
5	0x00000000	0.0
6	0x00000000	0.0
7	0x00000000	0.0
8	0x00000000	0.0
9	0x00000000	0.0
10	0x00000000	0.0
11	0x00000000	0.0
12	0x00000000	0.0
13	0x00000000	0.0
14	0x00000000	0.0
15	0x00000000	0.0
16	0x00000000	0.0
17	0x00000000	0.0
18	0x00000000	0.0
19	0x00000000	0.0
20	0x00000000	0.0
21	0x00000000	0.0
22	0x00000000	0.0
23	0x00000000	0.0
24	0x00000000	0.0
25	0x00000000	0.0
26	0x00000000	0.0
27	0x00000000	0.0
28	0x00000000	0.0
29	0x00000000	0.0
30	0x00000000	0.0
31	0x00000000	0.0
32	0x00000000	0.0
33	0x00000000	0.0
34	0x00000000	0.0
35	0x00000000	0.0
36	0x00000000	0.0
37	0x00000000	0.0
38	0x00000000	0.0
39	0x00000000	0.0
40	0x00000000	0.0
41	0x00000000	0.0
42	0x00000000	0.0
43	0x00000000	0.0
44	0x00000000	0.0
45	0x00000000	0.0
46	0x00000000	0.0
47	0x00000000	0.0
48	0x00000000	0.0
49	0x00000000	0.0
50	0x00000000	0.0
51	0x00000000	0.0
52	0x00000000	0.0
53	0x00000000	0.0
54	0x00000000	0.0
55	0x00000000	0.0
56	0x00000000	0.0
57	0x00000000	0.0
58	0x00000000	0.0
59	0x00000000	0.0
60	0x00000000	0.0
61	0x00000000	0.0
62	0x00000000	0.0
63	0x00000000	0.0
64	0x00000000	0.0
65	0x00000000	0.0
66	0x00000000	0.0
67	0x00000000	0.0
68	0x00000000	0.0
69	0x00000000	0.0
70	0x00000000	0.0
71	0x00000000	0.0
72	0x00000000	0.0
73	0x00000000	0.0
74	0x00000000	0.0
75	0x00000000	0.0
76	0x00000000	0.0
77	0x00000000	0.0
78	0x00000000	0.0
79	0x00000000	0.0
80	0x00000000	0.0
81	0x00000000	0.0
82	0x00000000	0.0
83	0x00000000	0.0
84	0x00000000	0.0
85	0x00000000	0.0
86	0x00000000	0.0
87	0x00000000	0.0
88	0xbdf64b7e	-0.12026118
89	0x3f371586	0.7151722
90	0x00000000	0.0
91	0x00000000	0.0
92	0x00000000	0.0
93	0x00000000	0.0
94	0x00000000	0.0
95	0x00000000	0.0
96	0x00000000	0.0
97	0x00000000	0.0
98	0x00000000	0.0
99	0x00000000	0.0
100	0x00000000	0.0
101	0x00000000	0.0
102	0x00000000	0.0
103	0x00000000	0.0
104	0x00000000	0.0
105	0x00000000	0.0
106	0x00000000	0.0
107	0x00000000	0.0
108	0x00000000	0.0
109	0x00000000	0.0
110	0x00000000	0.0
111	0x00000000	0.0
112	0x00000000	0.0
113	0x00000000	0.0
114	0x00000000	0.0
115	0x00000000	0.0
116	0x00000000	0.0
117	0x00000000	0.0
118	0x00000000	0.0
119	0x00000000	0.0
120	0x00000000	0.0
121	0x00000000	0.0
122	0x00000000	0.0
123	0x00000000	0.0
124	0x00000000	0.0
125	0x00000000	0.0
126	0x00000000	0.0
127	0x00000000	0.0
128	0x00000000	0.0
129	0x00000000	0.0
130	0x00000000	0.0
131	0x00000000	0.0
132	0x00000000	0.0
133	0x00000000	0.0
134	0x00000000	0.0
135	0x00000000	0.0
136	0x00000000	0.0
137	0x00000000	0.0
138	0x00000000	0.0
139	0x00000000	0.0
140	0x00000000	0.0
141	0x00000000	0.0
142	0x00000000	0.0
143	0x00000000	0.0
144	0x00000000	0.0
145	0x00000000	0.0
146	0x00000000	0.0
147	0x00000000	0.0
148	0x00000000	0.0
149	0x00000000	0.0
150	0x00000000	0.0
151	0x00000000	0.0
152	0x00000000	0.0
153	0x00000000	0.0
154	0x00000000	0.0
155	0x00000000	0.0
156	0x00000000	0.0
157	0x00000000	0.0
158	0x00000000	0.0
159	0x00000000	0.0
160	0x00000000	0.0
161	0x00000000	0.0
162	0x00000000	0.0
163	0x00000000	0.0
164	0x00000000	0.0
165	0x00000000	0.0
166	0x00000000	0.0
167	0x00000000	0.0
168	0x00000000	0.0
169	0x00000000	0.0
170	0x00000000	0.0
171	0x00000000	0.0
172	0x00000000	0.0
173	0x00000000	0.0
174	0x00000000	0.0
175	0x00000000	0.0
176	0xbdb7184d	-0.08940182
177	0xbe62268e	-0.2208502
178	0x3f590637	0.8477511
179	0x00000000	0.0
180	0x00000000	0.0
181	0x00000000	0.0
182	0x00000000	0.0
183	0x00000000	0.0
184	0x00000000	0.0
185	0x00000000	0.0
186	0x00000000	0.0
187	0x00000000	0.0
188	0x00000000	0.0
189	0x00000000	0.0
190	0x00000000	0.0
191	0x00000000	0.0
192	0x00000000	0.0
193	0x00000000	0.0
194	0x00000000	0.0
195	0x00000000	0.0
196	0x00000000	0.0
197	0x00000000	0.0
198	0x00000000	0.0
199	0x00000000	0.0
200	0x00000000	0.0
201	0x00000000	0.0
202	0x00000000	0.0
203	0x00000000	0.0
204	0x00000000	0.0
205	0x00000000	0.0
206	0x00000000	0.0
207	0x00000000	0.0
208	0x00000000	0.0
209	0x00000000	0.0
210	0x00000000	0.0
211	0x00000000	0.0
212	0x00000000	0.0
213	0x00000000	0.0
214	0x00000000	0.0
215	0x00000000	0.0
216	0x00000000	0.0
217	0x00000000	0.0
218	0x00000000	0.0
219	0x00000000	0.0
220	0x00000000	0.0
221	0x00000000	0.0
222	0x00000000	0.0
223	0x00000000	0.0
224	0x00000000	0.0
225	0x00000000	0.0
226	0x00000000	0.0
227	0x00000000	0.0
228	0x00000000	0.0
229	0x00000000	0.0
230	0x00000000	0.0
231	0x00000000	0.0
232	0x00000000	0.0
233	0x00000000	0.0
234	0x00000000	0.0
235	0x00000000	0.0
236	0x00000000	0.0
237	0x00000000	0.0
238	0x00000000	0.0
239	0x00000000	0.0
240	0x00000000	0.0
241	0x00000000	0.0
242	0x00000000	0.0
243	0x00000000	0.0
244	0x00000000	0.0
245	0x00000000	0.0
246	0x00000000	0.0
247	0x00000000	0.0
248	0x00000000	0.0
249	0x00000000	0.0
250	0x00000000	0.0
251	0x00000000	0.0
252	0x00000000	0.0
253	0x00000000	0.0
254	0x00000000	0.0
255	0x00000000	0.0

feature_extractor.linear1.weight f4 [100, 2]
0	0x3f2072a5	0.62674934
1	0x3f2d8709	0.6778417
2	0x3da1a440	0.07892656
3	0x3f2e5de2	0.68112004
4	0xbe1a3a8c	-0.15061396
5	0x3e130fa8	0.14361441
6	0xbf468bc4	-0.77557015
7	0x3ea82832	0.32843167
8	0x3f40ae70	0.7526617
9	0xbf39e520	-0.7261524
10	0x3f1d0322	0.61332905
11	0x3e79aeb8	0.24383056
12	0x3f24eac5	0.6442073
13	0x3e8e2f7b	0.277706
14	0x3eae921a	0.34095842
15	0xbdcc7768	-0.099837124
16	0x3f36937e	0.71318805
17	0x3d232a75	0.039835412
18	0xbe827eae	-0.25487274
19	0x3e79008f	0.2431662
20	0xbf2556d7	-0.6458563
21	0xbe14203f	-0.14465426
22	0xbe9d1a65	-0.306842
23	0x3ec00ad6	0.37508267
24	0xbf0ee42a	-0.558169
25	0xbea6e750	-0.32598352
26	0xbe4c760c	-0.19966906
27	0xbed9af13	-0.42516384
28	0xbd9d4c84	-0.0768061
29	0xbf929101	-1.1450502
30	0x3f333580	0.7000351
31	0xbf166a81	-0.5875626
32	0x3f16789f	0.58777803
33	0x3d61ee90	0.05515915
34	0xbe55ced5	-0.20879681
35	0x3f237734	0.63853765
36	0xbe044e05	-0.12920387
37	0x3ef5bf61	0.47997573
38	0x3d9e4fd0	0.07730067
39	0xbe645ac6	-0.22300252
40	0x3e428c38	0.18998802
41	0xbe445ad8	-0.19175279
42	0x3e742bff	0.23844908
43	0x3ed02e72	0.40660435
44	0x3f33d16e	0.7024144
45	0xbc63d2ac	-0.013905209
46	0x3f0fd4e7	0.5618424
47	0x3df52840	0.11970568
48	0x3eb7db1e	0.3590936
49	0xbedcaa16	-0.43098515
50	0xbfb16457	-1.3858746
51	0xbed51c78	-0.41623282
52	0xbf100834	-0.56262517
53	0x3f0c4963	0.5479948
54	0xbd8a602b	-0.06756624
55	0x3e5b5f1c	0.21423
56	0x3e64ff60	0.22363043
57	0xbc498940	-0.012300789
58	0x3f0daacf	0.5533876
59	0xbf009de0	-0.502409
60	0x3d365cc0	0.044522047
61	0xbef71b1e	-0.48262876
62	0x3e74cd24	0.2390638
63	0xbe865e7f	-0.2624397
64	0x3e5075b4	0.203574
65	0xbe3cef3e	-0.18450639
66	0x3f1ba78c	0.6080253
67	0xbed95632	-0.42448574
68	0xbf810d2b	-1.0082144
69	0xbf08c36e	-0.534232
70	0x3f2ac6cf	0.6670961
71	0x3e864911	0.2622762
72	0x3f046d7e	0.5172957
73	0xbf5aba15	-0.8544019
74	0xbf338c7b	-0.7013623
75	0xbf0d9f7b	-0.5532147
76	0xbef38a1a	-0.475663
77	0x3e92a3e4	0.28640664
78	0x3eb4d860	0.3532133
79	0x3f3f9550	0.7483721
80	0xbf45e229	-0.7729822
81	0xbf2a060e	-0.6641549
82	0x3e839096	0.25696248
83	0xbe87b308	-0.26503778
84	0x3f030163	0.5117399
85	0xbe70d00a	-0.2351686
86	0x3ed4521e	0.414689
87	0xbf1d3330	-0.6140623
88	0xbf164dd0	-0.5871248
89	0x3e9c8365	0.30568996
90	0x3e191350	0.14948773
91	0xbe389c20	-0.18028307
92	0x3ea634c3	0.3246213
93	0x3f207ca6	0.626902
94	0xbf8d6a7b	-1.104812
95	0xbeb37077	-0.3504674
96	0x3f40b5a3	0.75277156
97	0xbe862df5	-0.26206937
98	0xbdabc6e0	-0.08387542
99	0xbf6788f9	-0.9044338
100	0xbea8cebb	-0.32970223
101	0x3dd5abb1	0.10433138
102	0xbdbf2580	-0.093333244
103	0xbf03663f	-0.5132789
104	0xbd3e11de	-0.04640376
105	0xbed7307d	-0.4202918
106	0xbf199382	-0.59990704
107	0xbec75c75	-0.38937727
108	0xbf1e6e28	-0.61886835
109	0xbee68618	-0.4502418
110	0x3f632b9d	0.88738424
111	0x3ec68ca6	0.3877918
112	0x3d1cefde	0.038314693
113	0xbf47ab9b	-0.77996224
114	0xbeedc70b	-0.4644092
115	0xbe71036c	-0.23536462
116	0xbcc0329d	-0.023461634
117	0xbf32fddb	-0.699186
118	0xbf2b2d91	-0.66866404
119	0xbf50bb02	-0.8153535
120	0x3d35a545	0.044347066
121	0xbe8cf4d0	-0.27530527
122	0xbd48b3b0	-0.04899949
123	0xbef55402	-0.47915655
124	0xbf100dd5	-0.56271106
125	0xbec28890	-0.37994814
126	0xbe77d98e	-0.24204084
127	0xbf0ee006	-0.5581058
128	0x3f27d56d	0.65560037
129	0xbe816ddd	-0.25279132
130	0x3f09fdd2	0.53902924
131	0x3e65576a	0.22396627
132	0xbfa3427a	-1.2754662
133	0x3f01f2c4	0.50761056
134	0xbeacc22a	-0.33741885
135	0xbf204b7f	-0.626152
136	0xbf164241	-0.58694845
137	0xbf33f659	-0.7029777
138	0x3e4f2a8c	0.20231074
139	0xbe1e2b94	-0.15446311
140	0x3edd9d6a	0.4328416
141	0xbf0901d3	-0.5351841
142	0x3f0664df	0.5249767
143	0xbf04e0bf	-0.51905435
144	0xbe6682b5	-0.22510798
145	0x3e27b735	0.16378482
146	0x3d8bb2b3	0.068211935
147	0x3ef7925e	0.48353857
148	0x3f37960f	0.71713346
149	0xbf1132c9	-0.56718117
150	0x3e26bf2d	0.16283865
151	0xbf1072b2	-0.5642501
152	0xbd9eb220	-0.077488184
153	0xbf077dbe	-0.5292624
154	0x3f487c15	0.78314334
155	0xbec7fed6	-0.39061612
156	0x3e2e5769	0.17025532
157	0x3e83d92a	0.2575162
158	0x3e6b4b10	0.22977853
159	0xbec3bc1e	-0.3822946
160	0x3f4ae348	0.79253054
161	0x3d6f2d9a	0.0583931
162	0x3dba4a68	0.09096223
163	0xbf1f862f	-0.6231412
164	0x3ea2262e	0.31669754
165	0x3c4a8af3	0.01236223
166	0xbd9e38f2	-0.07725705
167	0x3f2f6d1e	0.68525875
168	0x3e216ea4	0.15764862
169	0xbec84eb5	-0.3912255
170	0xbeb73deb	-0.35789427
171	0xbd0a50c0	-0.033768415
172	0x3eca25fe	0.3948211
173	0xbe3906b8	-0.18068969
174	0xbefabc37	-0.48971722
175	0xbef411ba	-0.47669774
176	0xbf1fa126	-0.6235527
177	0x3e8150c7	0.2525694
178	0x3f0ef36b	0.55840176
179	0xbf5528dc	-0.8326547
180	0x3e32ac0c	0.17448443
181	0x3e8b18ec	0.2716745
182	0x3e034be8	0.12821925
183	0xbe80ee4f	-0.25181815
184	0x3ef7e079	0.48413447
185	0x3f16f9f2	0.58975136
186	0x3e87604a	0.2644065
187	0xbdfe78c8	-0.12425381
188	0xbe4bfa58	-0.19919717
189	0x3df0b92e	0.1175407
190	0xbdffd290	-0.124913335
191	0xbe57c69c	-0.21071857
192	0x3ee6a818	0.4505012
193	0x3f191509	0.5979772
194	0xbd8f5d10	-0.07000172
195	0xbe221e60	-0.158319
196	0x3c290e00	0.010318279
197	0xbd2cef00	-0.042220116
198	0x3e9397df	0.28826806
199	0x3e4258b9	0.18979158

feature_extractor.linear1.bias f4 [100]
0	0xbf174fdf	-0.5910625
1	0xbec44dbc	-0.38340557
2	0x3eefd400	0.4684143
3	0x3de75bc2	0.11296798
4	0x3d93cf1e	0.07217239
5	0xbeed2f56	-0.46325177
6	0xbe8d5a22	-0.27607828
7	0xbf2226b0	-0.6334028
8	0xbe3b6d17	-0.18303333
9	0x3e846047	0.25854704
10	0x3ebebc04	0.3725282
11	0x3e878799	0.2647064
12	0xbf2002ce	-0.6250428
13	0xbed9b76a	-0.42522746
14	0x3db1cda8	0.08681804
15	0x3f30ea67	0.6910767
16	0x3e0a18b6	0.13485989
17	0xbd5623ad	-0.052280117
18	0x3e4a8e98	0.19780958
19	0xbe89e4d3	-0.26932392
20	0xbeea54e2	-0.45767885
21	0x3ed9287b	0.42413697
22	0xbe62887b	-0.22122376
23	0xbdb36f4b	-0.08761462
24	0xbf34142d	-0.70343286
25	0x3e7bcdf3	0.24590282
26	0x3f13b0f5	0.5769189
27	0x3d79ae62	0.06095732
28	0xbefc70b2	-0.4930473
29	0xbf32a7bb	-0.69787186
30	0xbf130525	-0.57429725
31	0x3ee72a73	0.45149574
32	0x3e84a085	0.25903717
33	0x3eeab927	0.45844385
34	0x3e6d2162	0.23157266
35	0x3e00e570	0.12587523
36	0x3d1dcd39	0.038525794
37	0xbf09aa92	-0.53775895
38	0xbf1b17a3	-0.6058294
39	0xbf158c66	-0.58417356
40	0x3e03a607	0.12856303
41	0xbeea6507	-0.45780203
42	0xbba659e4	-0.0050766338
43	0xbed0698c	-0.40705526
44	0xbd71753c	-0.058949694
45	0xbefed0c1	-0.49768642
46	0xbf008e4b	-0.5021712
47	0x3e4cb22c	0.19989842
48	0xbcdb44d6	-0.026766222
49	0x3ec30dea	0.38096553
50	0xbe990c4e	-0.298922
51	0xbf04ca34	-0.5187104
52	0xbe4046b9	-0.18776979
53	0xbeaf7f4f	-0.34276816
54	0xbe5d867e	-0.21633336
55	0xbeda2d25	-0.42612568
56	0x3edb567a	0.42839414
57	0xbefc0d8f	-0.49229094
58	0x3ec5602c	0.38549936
59	0x3e0cd5c0	0.13753414
60	0x3ef90f0f	0.486443
61	0xbf0ad9ec	-0.5423877
62	0x3ef33f32	0.47509152
63	0xbeab2784	-0.33428586
64	0x3dc24475	0.094857134
65	0x3eeab821	0.45843604
66	0xbd5941eb	-0.05304138
67	0x3d56aa09	0.052408252
68	0xbe26b468	-0.16279757
69	0xbf1725fa	-0.5904232
70	0x3ea17f35	0.31542364
71	0xbf33b37d	-0.7019575
72	0x3e95e009	0.29272488
73	0x3ee3afa6	0.44469947
74	0x3f309a58	0.6898551
75	0xbe2e259b	-0.17006533
76	0xbf14bbab	-0.5809886
77	0x3e1cd38a	0.15315071
78	0x3e985704	0.29753888
79	0xbf342b8d	-0.70378953
80	0xbe59151b	-0.21199457
81	0xbed906ac	-0.42387903
82	0x3d44dd24	0.04806246
83	0xbeaede1d	-0.34153834
84	0xbe93fd5b	-0.28904232
85	0xbe65dd62	-0.22447732
86	0xbf2c05fe	-0.67196643
87	0x3efc7ef4	0.49315608
88	0x3f09b4c1	0.53791434
89	0xbda86a13	-0.08223357
90	0x3d7b29ea	0.06131927
91	0xbe93c154	-0.28858435
92	0xbf0089e5	-0.5021041
93	0xbf302870	-0.688117
94	0x3e53ad12	0.2067149
95	0xbec6c6a4	-0.38823426
96	0xbeffa581	-0.49930957
97	0xbd61fab0	-0.055170715
98	0xbe712036	-0.23547444
99	0xbe5b7c49	-0.2143413

feature_extractor.linear2.weight f4 [50, 100]
0	0x3d259f6c	0.04043524
1	0x3f063c10	0.524354
2	0x3dcf27c1	0.10115004
3	0x3dbc11d0	0.09183085
4	0x3d51afa8	0.05119291
5	0x3edbb8ec	0.42914522
6	0x3e047595	0.12935479
7	0x3cd9123c	0.026497953
8	0x3e69a539	0.22816934
9	0x3e1d816a	0.15381399
10	0x3ee89d61	0.4543257
11	0x3e3f65d6	0.18691191
12	0xbdb17ac8	-0.08665997
13	0x3d229246	0.03969028
14	0x3d530340	0.05151677
15	0xbc0bdbbc	-0.0085362755
16	0x3d756e3c	0.05991958
17	0x3e1d8c57	0.15385567
18	0x3dd72937	0.10505908
19	0x3caa0754	0.020755447
20	0xbd8e57db	-0.06950351
21	0x3d7eafb1	0.06217927
22	0x3d8553d3	0.06510129
23	0x3dc58163	0.09643819
24	0xbd81985e	-0.0632789
25	0x3d548ab6	0.051890098
26	0x3d965424	0.07340267
27	0x3c269b46	0.010168856
28	0xbd9e081b	-0.0771639
29	0xbcca9608	-0.024729744
30	0x3d8a3701	0.067487724
31	0x3ab9c1e0	0.0014172159
32	0xbdca37bb	-0.09873911
33	0xbdee8284	-0.11645988
34	0x3e3ca5cc	0.18422621
35	0xbd591d4f	-0.053006466
36	0xbdb1bb6e	-0.086783275
37	0x3d447cd2	0.0479706
38	0xbd3d915d	-0.046281207
39	0xbe34dda6	-0.17662677
40	0xbb31f78b	-0.0027155604
41	0xbdec07e9	-0.11524946
42	0xbe16e33f	-0.14735125
43	0x3d0c8740	0.034308672
44	0x3dc92eeb	0.09823402
45	0xbd5b533a	-0.053546168
46	0x3d7b7cd9	0.06139836
47	0x3dc1ae76	0.09457104
48	0xbe1586ff	-0.14602278
49	0x3d9808bd	0.07423542
50	0x3ce1c7ac	0.027561031
51	0x3d606c82	0.05479098
52	0x3d9bac33	0.07601204
53	0x3d64187e	0.05568742
54	0xbdcb0f35	-0.0991501
55	0x3e24be0c	0.16088122
56	0x3d980cc2	0.07424308
57	0xbc176e10	-0.00924255
58	0xbd2e879e	-0.042609803
59	0x3d8eda69	0.06975252
60	0xbd2a9b5c	-0.04165207
61	0xbd69341a	-0.056934454
62	0x3d4865cc	0.048925206
63	0x3b925e80	0.0044668317
64	0x3aeab0ca	0.001790547
65	0x3d770d81	0.060315613
66	0x3e0d520b	0.13800828
67	0xbdf3eff3	-0.11911001
68	0xbdbf4297	-0.09338873
69	0x3ae6cf40	0.0017609373
70	0xbb9ed952	-0.004847684
71	0x3d6c4e96	0.057692133
72	0x3db55297	0.088536434
73	0x3db0eaad	0.08638511
74	0xbde09061	-0.10965038
75	0x3da4e09f	0.080506556
76	0x3c945b14	0.018109836
77	0x3ca349b4	0.019932605
78	0x3e1e100b	0.15435807
79	0xbdbc0733	-0.09181061
80	0x3ea6a80e	0.3255009
81	0xbd90719e	-0.07052921
82	0x3ce7268d	0.028216625
83	0x3eaab092	0.33337837
84	0x3ab80e80	0.0014042407
85	0x3dba5431	0.090980895
86	0xbdae800a	-0.08520515
87	0x3e0df951	0.13864638
88	0x3e6b8374	0.22999364
89	0xbe0ff39d	-0.14057775
90	0x3d4b677b	0.049659234
91	0xbd2ab7c7	-0.04167917
92	0x3dfe65d3	0.12421765
93	0x3d48e8fe	0.049050324
94	0x3e2ff70b	0.17184083
95	0xbd662e2a	-0.05619637
96	0xbd25ce8a	-0.040480174
97	0x3c3135d8	0.01081606
98	0x3cf2b62c	0.029627882
99	0x3e0dd3cd	0.13850327
100	0xbce535d4	-0.027979769
101	0x3d8a50b9	0.06753678
102	0x3c0283b0	0.007965967
103	0x3b93d800	0.004511833
104	0xbcc99b08	-0.024610057
105	0xbdb976fb	-0.09055897
106	0xbdc09092	-0.094025746
107	0xbd43cb83	-0.047801506
108	0xbd50355d	-0.05083214
109	0x3cff3984	0.031155355
110	0xbcee7a58	-0.029111072
111	0xbd203e9d	-0.039122213
112	0x3dc3432f	0.09534299
113	0x3d0eac4e	0.03483229
114	0x3d92009d	0.07129023
115	0xbd464ae7	-0.048411276
116	0xbd274eda	-0.040846683
117	0x3d168b6a	0.03675405
118	0xbd887402	-0.06662752
119	0xbd85e0ec	-0.06537041
120	0xbb9e44b0	-0.0048299655
121	0xbd15d0ca	-0.03657607
122	0xbd9987ab	-0.0749658
123	0x3d72f53a	0.059315898
124	0x3da4b14b	0.080416285
125	0x3c84e4b4	0.016222335
126	0xbc8ea234	-0.017411329
127	0xbdbdb362	-0.0926273
128	0xbd153134	-0.036423877
129	0x3cd08e7c	0.025458567
130	0x3d41239a	0.047153093
131	0xbc4f1f58	-0.01264175
132	0xbd21efc0	-0.039535284
133	0x3d643d62	0.0557226
134	0xbda31a48	-0.07963997
135	0x3d816ff1	0.06320179
136	0xbd1ee803	-0.038795482
137	0x3ac89c80	0.001530543
138	0xbca1e30c	-0.019761585
139	0x3c46a350	0.012123898
140	0xbcf78f98	-0.030219838
141	0x3d94ea65	0.0727127
142	0xbb2a6000	-0.0025997162
143	0x3d9fdde5	0.07805995
144	0x3dc4e945	0.09614805
145	0xbd478dad	-0.048719097
146	0xbd95674a	-0.072950915
147	0x3da44fbb	0.0802302
148	0x3da07bf1	0.0783614
149	0xbd9c5fde	-0.07635473
150	0xbbfd4eb0	-0.0077303275
151	0xbdc9f56b	-0.09861263
152	0xbda7a62b	-0.08185991
153	0x3c9e38ec	0.019314252
154	0x3cd9ef84	0.026603468
155	0x3cada7a8	0.021198109
156	0xbcdef514	-0.027216472
157	0x3dbcf1a5	0.092257775
158	0x3c6a4150	0.014297798
159	0xbd71b2e0	-0.05900848
160	0xbbb98320	-0.0056613833
161	0x3cc4ba18	0.024014518
162	0x3d0f705e	0.03501927
163	0xbd90cf66	-0.07070808
164	0x3d19838a	0.03747896
165	0xbd5141d3	-0.051088165
166	0xbdaa2d35	-0.08309404
167	0xbd5fba00	-0.054620743
168	0x3dc582d3	0.09644093
169	0x3daf132b	0.08548578
170	0x3db7652d	0.089548446
171	0x3d707096	0.05870112
172	0x3d9ab751	0.07554496
173	0xbc5b4ca8	-0.0133849755
174	0xbd615f93	-0.055022787
175	0x3d4ca8ca	0.049965657
176	0xbd543f67	-0.051818278
177	0xbd8a3668	-0.067486584
178	0xbd02cc9a	-0.031933405
179	0x3cabeaac	0.020985924
180	0x3d52dc56	0.05147966
181	0xbd1f17a3	-0.0388409
182	0xbd7113a7	-0.058856633
183	0x3c5d0240	0.013489306
184	0xbd716e8d	-0.05894332
185	0xbd85565e	-0.06510614
186	0x3d55813a	0.052125193
187	0xbc899cec	-0.016798459
188	0x3dbb24a7	0.0913785
189	0x3dc739d3	0.09727826
190	0x3cf506fc	0.029910557
191	0x3d0cf78e	0.034415774
192	0x3cbca600	0.023028374
193	0x3acd4540	0.0015660897
194	0xbbee5460	-0.007273242
195	0x3ab42580	0.0013744086
196	0x3d18f46e	0.03734248
197	0x3dbe6ac5	0.092977084
198	0xbcd44d98	-0.025915906
199	0xbd2d24f7	-0.04227158
200	0xbd6205cc	-0.05518131
201	0x3db2e718	0.08735484
202	0x3dc98839	0.098404355
203	0x3e9269cf	0.2859635
204	0x3ddc1a06	0.10747151
205	0x3d58f00d	0.052963305
206	0xbdc9c877	-0.09852689
207	0xbd5bd593	-0.053670477
208	0x3af08019	0.0018348723
209	0x3d5b328d	0.053515006
210	0x3e01a8d8	0.12662065
211	0xbc8532fa	-0.01625966
212	0x3cfef8c4	0.03112448
213	0xbd9c3c78	-0.07628721
214	0x3c8d8ee2	0.017280046
215	0xbdd701b8	-0.10498375
216	0x3d934fd1	0.07192958
217	0xb96d5c80	-0.0002263654
218	0x3dfdb12d	0.12387309
219	0xbb5c4fc0	-0.003361687
220	0xbc3e8b40	-0.0116298795
221	0x3de77eb3	0.11303463
222	0x3e0a301b	0.13494913
223	0x3d5b2f1b	0.05351172
224	0x3d9412cf	0.0723015
225	0x3ce76550	0.028246552
226	0x3ded560c	0.11588678
227	0x3d7c8729	0.061652336
228	0x3cb02338	0.021501169
229	0x3c6f3140	0.014599144
230	0x3ce0139c	0.0273531
231	0xbd2b7416	-0.041858755
232	0xbcceab1a	-0.025228072
233	0x3d9a97cd	0.07548485
234	0xbcc4ce46	-0.02402414
235	0x389d17b5	7.490759e-05
236	0xbd4b6c77	-0.049663987
237	0x3b8f9d60	0.0043827742
238	0xbd8b76a0	-0.06809735
239	0x3db1e543	0.08686306
240	0x3db8cae2	0.09023072
241	0xbd93d9a1	-0.07219244
242	0xbcd2387f	-0.025661705
243	0xbc2faf7f	-0.010722994
244	0xbd86c5bd	-0.06580684
245	0x3c1badf0	0.009501919
246	0x3c951922	0.01820046
247	0x3e308e5d	0.17241807
248	0x3dbaf29b	0.091283046
249	0xbe8b4f42	-0.27208906
250	0xbde61c0f	-0.112358205
251	0x3d4566d6	0.048193775
252	0x3b3a2282	0.0028401916
253	0x3d3fcd0a	0.0468264
254	0xbcb2f800	-0.021846771
255	0xbdb63e58	-0.0889861

feature_extractor.linear2.bias f4 [50]
0	0x3d9ddc55	0.077080406
1	0xbc8f39a0	-0.017483532
2	0x3d2235a6	0.039601944
3	0xbd1396c6	-0.03603246
4	0x3da347ba	0.07972665
5	0x3dbd1d10	0.09234059
6	0xbd4cfe8a	-0.050047435
7	0x3e16e89b	0.1473717
8	0x3d97fcd4	0.0742127
9	0x3d18e3b8	0.037326545
10	0x3e0e4c64	0.13896328
11	0xbd0b76c0	-0.034048796
12	0x3dbed209	0.09317405
13	0x3ddc430f	0.10754978
14	0x3dfd02cf	0.12354051
15	0xbd54abbd	-0.051921595
16	0xbd3c0637	-0.045904364
17	0xbdc5af27	-0.09652548
18	0x3ccd0887	0.02502848
19	0xbce50b03	-0.027959352
20	0x3cab675e	0.020923313
21	0xbe0689c6	-0.13138494
22	0xbdc4937b	-0.09598442
23	0x3b3cb629	0.00287951
24	0xbddeb7b7	-0.108748846
25	0x3e4f3bc1	0.20237638
26	0x3e3be074	0.18347341
27	0xbe50e3ff	-0.20399474
28	0x3c8a844c	0.016908787
29	0xbcfdedcf	-0.030997185
30	0xbd260831	-0.040535156
31	0xbe1075e7	-0.14107476
32	0x3dfa424e	0.12219678
33	0xbdb1a101	-0.08673287
34	0x3c0d3c82	0.008620383
35	0xbc2248e9	-0.009905078
36	0xbe133c19	-0.14378394
37	0x3e17fede	0.14843318
38	0x3dd003e8	0.10156995
39	0xbd76f94a	-0.060296334
40	0xbdad3355	-0.084570564
41	0xbce0b554	-0.027430214
42	0xbd8debe0	-0.06929755
43	0xbd01d8d4	-0.031700924
44	0xbc89f105	-0.01683856
45	0x3df94703	0.121717475
46	0x3dcc6f89	0.09982211
47	0x3c0432ab	0.008068721
48	0x3d379b18	0.044825643
49	0x3e46c0b3	0.19409446

feature_extractor.linear3.weight f4 [2, 50]
0	0x3ea93a27	0.3305218
1	0xbe0dfba6	-0.13865528
2	0x3d70d694	0.058798388
3	0x3d7c6710	0.061621726
4	0x3e16f05a	0.14740124
5	0x3e428b2c	0.18998402
6	0xbe3b3482	-0.18281749
7	0x3da1ddfb	0.079036675
8	0xbdeffd86	-0.11718278
9	0x3de2858f	0.110606305
10	0x3dd4c0de	0.10388349
11	0x3c98b4c0	0.018640876
12	0x3de7a9c3	0.11311676
13	0xbee7aeac	-0.45250452
14	0xbd1a7bf3	-0.037715863
15	0x3ea46e93	0.3211561
16	0xbe02e438	-0.12782371
17	0xbd9a5294	-0.07535282
18	0xbe5c9c23	-0.21543936
19	0xbd0263c2	-0.031833418
20	0x3d920908	0.07130629
21	0xbbb9be4a	-0.005668436
22	0x3d12a6b0	0.035803497
23	0x3d5f120d	0.054460574
24	0x3e299007	0.16558848
25	0xbe39f261	-0.18158866
26	0xbe81b984	-0.2533685
27	0x3dccc43b	0.099983655
28	0xba074700	-0.0005160421
29	0x3deabe96	0.11462133
30	0x3d79e3c4	0.06100823
31	0x3d9ec397	0.077521496
32	0xbe70b9b9	-0.23508348
33	0xbd579e8e	-0.052641444
34	0xbf0520f7	-0.52003425
35	0x3e82e785	0.2556726
36	0x3ce5daef	0.028058497
37	0x3ed2950d	0.41129342
38	0x3df7687c	0.12080476
39	0xbc4b7dee	-0.012420161
40	0x3dd7a380	0.10529232
41	0x3dac7e32	0.08422507
42	0xbc63e870	-0.013910398
43	0xbe221f68	-0.15832293
44	0x3dd93b1f	0.106069796
45	0xbc7a4d8d	-0.015277279
46	0xbdcf7ec2	-0.10131599
47	0x3e7ae104	0.24499899
48	0x3db909dd	0.090350844
49	0xbe26e37b	-0.16297714
50	0x3d195476	0.037434064
51	0x3d436a4c	0.047708794
52	0x3d92b5c7	0.071635775
53	0xbcad63d0	-0.021165758
54	0xbe676954	-0.22598773
55	0xbe16cabd	-0.14725776
56	0xbd375a30	-0.044763744
57	0x3e99c7c8	0.30035233
58	0xbd363c1a	-0.04449091
59	0xbed35b5d	-0.41280642
60	0x3e9b7068	0.30359197
61	0xbdd0a43c	-0.10187575
62	0x3e3f70b7	0.18695341
63	0x3f03f304	0.5154269
64	0x3ebdfc39	0.37106493
65	0xbe663d55	-0.22484334
66	0xbaf47300	-0.0018649995
67	0xbe0bc3c0	-0.13648891
68	0xbe2e50bc	-0.17022985
69	0xbd6af265	-0.05736007
70	0x3d896055	0.06707827
71	0xbdd61274	-0.104527384
72	0xbd00868c	-0.031378314
73	0xbd1d6dfd	-0.03843497
74	0xbd616495	-0.055027563
75	0xbe9cf446	-0.30655116
76	0xbe087b5a	-0.13328305
77	0xbcd187e5	-0.025577495
78	0xbd31cd0c	-0.04340844
79	0xbd2f1ffc	-0.042755112
80	0x3c458458	0.012055479
81	0x3ded7312	0.115942135
82	0xbc991075	-0.018684605
83	0xbd26c30d	-0.04071336
84	0xbd7538ae	-0.059868507
85	0xbe86eb7e	-0.2635154
86	0x3d1da84b	0.038490575
87	0x3f3c1019	0.73462063
88	0xbe775be9	-0.24156155
89	0xbe46d829	-0.19418396
90	0xbe07b027	-0.1325079
91	0xbcbada1c	-0.02280908
92	0xb9b30a00	-0.0003414899
93	0xbe1b8ea7	-0.15191136
94	0x3e81881f	0.25299165
95	0x3e64872e	0.22317192
96	0xbd929a57	-0.07158344
97	0xbe88d8bd	-0.26727858
98	0x3e9e40cb	0.30908808
99	0x3e938a6a	0.2881654

feature_extractor.linear3.bias f4 [2]
0	0x3cff5ad4	0.03117124
1	0xbdb9d194	-0.09073177
