dkl_kernel_for_Width.pth (torch, 50513 bytes, 16 tensors)

likelihood.noise_covar.raw_noise f8 [1]
0	0xc0054ad29236a17f	-2.6615344450876246

likelihood.noise_covar.raw_noise_constraint.lower_bound f8 []
0	0x3f1a36e2eb1c432d	0.0001

likelihood.noise_covar.raw_noise_constraint.upper_bound f8 []
0	0x7ff0000000000000	inf

feature_extractor.linear1.weight f8 [100, 2]
0	0x3fe1bdf128d5aed1	0.5544362828781805
1	0xbfba21c33c61ac84	-0.1020776770034662
2	0x3fd7448de4c2b897	0.3635592206945914
3	0xbfe35cd8ac7177f9	-0.6050837867767306
4	0x3feb121a8eb4cce2	0.84595992920222
5	0xbfc0b74010bca1d7	-0.1305923539851068
6	0xbf99248cf4615e82	-0.024553491988938088
7	0x3fd6ac1f7fcc7f62	0.354255556872877
8	0xbfe754637d92de61	-0.729051347027916
9	0x3fe10eac544c1b3f	0.5330411573821506
10	0x3f6769ceaa7aa3a6	0.0028580700344104813
11	0xbfcd361c17dccf53	-0.22821379819071783
12	0xbfae8839d2e0cf50	-0.05963307093807535
13	0xbfe07b11f2879d4b	-0.5150232064160404
14	0x3fd7501dbfc1653d	0.3642649052249743
15	0x3fdaad435d002f3c	0.4168251426897205
16	0xbfb22d6e235cc84a	-0.0710057102521954
17	0xbfb0a400ee874887	-0.06500249694298264
18	0xbfd5fbf2fc0224ac	-0.3435027562159785
19	0xbfb5cb5ada926ac0	-0.08513419948796308
20	0x3fb2c23632215498	0.07327593540078892
21	0xbfcf0a95073255bc	-0.24251044131658073
22	0x3fbbba12fea59ff0	0.10830801693884928
23	0xbfde630e51f95140	-0.4747958946729973
24	0xbfdf264eca255860	-0.4867131208496911
25	0x3fdcd41f90c6029a	0.45044697893175967
26	0x3fd39d785a6a5d8f	0.3064862139667292
27	0x3fcd6c612d18a047	0.22986998273813894
28	0x3fcef93c7de34b05	0.2419810881316026
29	0x3fb7a6c5072e7ff5	0.09238845277150161
30	0xbfdaf3b4b0e52ee6	-0.421124623059525
31	0x3fe7a6082d4bd4de	0.7390175709430442
32	0xbfad73c25afa3320	-0.05752379761279358
33	0xbfe4498e7c605643	-0.633979075357907
34	0x3fe1fd3ae5eff070	0.5621618739092025
35	0xbfd970c585d93dfe	-0.3975080306163078
36	0x3fd5644658068eca	0.3342452869057807
37	0xbfdd4aa520977102	-0.4576809709813149
38	0xbfbe503c4e78e88c	-0.11841179767444227
39	0xbfe80cc5c3d7f633	-0.7515591454572984
40	0x3fafdbad09032650	0.062222869253287016
41	0x3fd617002e2d1a66	0.3451538515986726
42	0x3fe666e0a3ffddb3	0.7000582888712671
43	0x3fb8ccaa76f9c30f	0.09687295345953494
44	0x3fe71d189148c18e	0.7223017537672136
45	0x3fc1d7336880eb5f	0.13937990763391903
46	0xc0051dbf51da4f48	-2.639525069689544
47	0x3fd8940216efb694	0.38403370132332637
48	0xbfba086e2eb36b88	-0.10169113769681648
49	0x3fc009e921696fd4	0.1253024495262013
50	0x3fb2e35b8db53581	0.07378170213379144
51	0xbfe139a914228a58	-0.5382886307964538
52	0xbfe6e42694b39cb5	-0.7153504280403441
53	0xbfeace746ee37816	-0.8377020040313734
54	0xbfb1e06ff433b2d8	-0.06983089172326673
55	0xbfd72b016e177cb6	-0.36199985266825807
56	0x3fa3d6aaaa3b0425	0.038747151641935575
57	0x3fd8807ea736c4e7	0.38284269647108576
58	0xbfe371c581d28909	-0.6076381240457361
59	0x3fdae6921ad80e47	0.4203229200504421
60	0x3fd3c79f8e69fb50	0.3090590372811919
61	0xbfc7b5e1dd41b958	-0.18523810676146968
62	0x3fe1b0f34a1df5e4	0.5528503844831758
63	0xbfcefc165e7f0354	-0.24206809629506643
64	0xbfddb4aab23761fa	-0.4641520252603467
65	0xbfbea690ec76f057	-0.11972909710942879
66	0xbfbcad3ec8ffbbf8	-0.11201851279450625
67	0x3fc3be7848a723c0	0.15425017879013403
68	0x3f8d097956cc43f1	0.014178226434099247
69	0x3fd48aa57a1a30cc	0.32096230434468676
70	0xbfb2a3951ab6de88	-0.0728085699291744
71	0x3fd491441791a73b	0.32136633206993154
72	0x3fda1c921f0e5233	0.40799382241064847
73	0xbfaae747f65be07c	-0.05254578478155822
74	0xbfe2a4318246f57d	-0.5825431389309156
75	0xbfdd87470ac5108a	-0.4613816838430088
76	0x3fe28a32b20de439	0.5793698766348206
77	0xbfdac5ac586a02ce	-0.41831501611890765
78	0xbfd108cbe09e042b	-0.2661618894126742
79	0xbff11b98e184e7bc	-1.0692375954954363
80	0x3fc5559dd5206760	0.16667530924388085
81	0xbfb660a70e1d2894	-0.08741230101182601
82	0x3f655521da4f889a	0.002604070776656431
83	0xbfd3b1dfa36fe45f	-0.3077315422120303
84	0x3fb2ffede51c326e	0.07421767085561168
85	0xbfb771d854641789	-0.09158088741614114
86	0xbfe90de3a6c8b0cb	-0.7829454667567232
87	0x3fb0813b95dc0bab	0.06447193535500044
88	0xbfbb0fe8e716eb70	-0.1057115139182494
89	0xbfebb26b8b743368	-0.8655297969540756
90	0x3fd0c4c8e6aad323	0.2620107891664693
91	0xbfcbd5002eabcbe7	-0.21743776587354022
92	0xbf50c70b5d3cee63	-0.0010240183809874452
93	0x3fea5e2a21546a82	0.823994698617142
94	0xbfc382b223d1f31c	-0.15242602108983128
95	0xbfe02d15e3ab3d6e	-0.5055036017092058
96	0x3fdd5902248cf15a	0.45855763978376773
97	0xbfe2d95f75e81fa1	-0.5890347769609329
98	0xbfc657070975e9a0	-0.1745308681673352
99	0xbf978f1fc4679a60	-0.023006912577239524
100	0x3fd5199ca044afd5	0.32968822146608306
101	0xbfec31f9eff6798e	-0.8811006247304236
102	0xbfe25582eeed846c	-0.5729384104307775
103	0xbfdaedc448a24cee	-0.4207621297184251
104	0xbfc2fc860122e6e4	-0.1483314042614473
105	0xbfe089ff55132fef	-0.516845384752285
106	0xbfd1dd95495f5d28	-0.2791493622330159
107	0x3fdc440df8db6811	0.44165372183272306
108	0xbfda9c2a5a3173df	-0.41578158195426157
109	0x3fb4fbecbc6786f0	0.08196906661717285
110	0xbf3d0ad7d111d06d	-0.0004431511779963208
111	0xbfe57e2298a2a942	-0.6716473561439573
112	0x3f8174db64ebfa46	0.008523668305767573
113	0x3fcc0ba0336730d7	0.21910479078213171
114	0x3fe6f88fb68f9228	0.7178419652596562
115	0xbfb0f9704a2b644c	-0.06630613146570957
116	0xbfb1038e2e41bf86	-0.0664605009967528
117	0x3fc9c482ad547528	0.20130952323317186
118	0x3fbb4c798bf31488	0.10663566271530744
119	0x3fafd9c3aab59a0e	0.06220828493933449
120	0x3fc87e0de783fbe0	0.19134687237234882
121	0xbf6e7dcf841beef5	-0.0037221005485416022
122	0xbfdb07653b21f592	-0.4223263814418142
123	0xbfe4161fc934fed1	-0.6277007036041714
124	0xbfeec44f60f0b865	-0.961463631950903
125	0xbfe629625c566d52	-0.6925517848461971
126	0x3fe22ea6b5c945bb	0.5681947279464831
127	0xbfeae97c4f883a35	-0.8410016587602686
128	0xbfd0f12671f2e480	-0.26471863868534484
129	0x3fd239be43a5d33d	0.2847743664381602
130	0x3fb06193bf203cca	0.06398890892181722
131	0xbfc269c488d40f6e	-0.14385277443954742
132	0xbfbfbc5f2676a0ed	-0.12396807374046022
133	0xbfc0e4699d20ad4c	-0.13197059795616395
134	0x3fccd1782e265820	0.22514250043303807
135	0x3fb3ee872eea3d38	0.07785839934716854
136	0xbff24241b9d8025b	-1.1411759624026192
137	0x3fb71dd59f3697fc	0.09029898774187467
138	0xbfc795e390976094	-0.18426174697993203
139	0x3fcab1538c9f5238	0.20853657118154145
140	0xbfcda137c4ca7700	-0.231482478226944
141	0x3fbee3c595f70138	0.12066302214862368
142	0xbfe6cc247f9ce7ee	-0.7124197475852705
143	0x3fc0e411c52220d0	0.13196012616777475
144	0x3fce7909f495ab17	0.23806881373033015
145	0xbfed9587f9252caf	-0.92450331364798
146	0x3fd87605b4175d42	0.3822035082534577
147	0xbf96f77c0bd1f58e	-0.022428453656620877
148	0xbfc57d2737864711	-0.16788187228353782
149	0xbfc072c1a79b9c61	-0.12850208934762278
150	0x3f8f92eebea93b40	0.015416970437539868
151	0xbfe1287ee1237492	-0.5361933133350638
152	0x3fd9e15117d9d958	0.4043772442741065
153	0xbfadf1aeb2343176	-0.05848451543178872
154	0xbfbd2e797f069346	-0.11399039603436475
155	0xbfef274e4c1c0aaf	-0.9735480772509016
156	0x3fc9238bf4b8c2b4	0.19639729928305416
157	0xbfd97f6a77d26da5	-0.39840184880605484
158	0xbfa880c2e1f7514e	-0.047857370456457646
159	0x3fe6caf4fd8317ed	0.7122750235946548
160	0xbfce3a3530337aa6	-0.2361513600689779
161	0x3fc4995083b9e718	0.16092878753607276
162	0xbfd6996d927f0e47	-0.35311450296669417
163	0xbfe00135541eb9d0	-0.5001474993676371
164	0xbfe09b44a0b665a9	-0.5189536227145953
165	0xbfe36a89dadd9d92	-0.6067551874847814
166	0xbfd5b15e0a70eadc	-0.33895064372670247
167	0xbfe52ef409ab89f3	-0.6619816006535174
168	0xbff4a74600408d95	-1.290838242516519
169	0xbfe4ae023ccf7a5c	-0.6462413013176262
170	0x3f776d92bb30f692	0.005719731491863238
171	0xbf79736f35038fff	-0.006213602450063859
172	0xbfd135640fe29ca1	-0.2688837199334078
173	0xbfd6b36483e6d2aa	-0.3546992576696463
174	0xbfc20036f2351d66	-0.1406315500882826
175	0xbfb02f643b7e6e3c	-0.06322313740241098
176	0xbfa7f61223cb20a5	-0.04679924666339844
177	0x3fde1552a3a310bc	0.47005144100354435
178	0x3fe5c126720b0078	0.6798279025461076
179	0xbfe1d77bc178de84	-0.557554128527912
180	0x3fd19b203ff59290	0.27509313817999104
181	0x3fd5b8caefc85333	0.33940385261785194
182	0x3fc98046dee947f0	0.19922719845141001
183	0x3fc1f75969fd84dd	0.14036100077922856
184	0xbfcee26463da76c8	-0.2412839400830562
185	0x3fd24fecaf8c9804	0.28612820762134583
186	0x3fe4115d6fe817c6	0.6271197496105223
187	0xbfd252f4677b9a37	-0.2863131533216889
188	0xbff366e1f7a775b6	-1.212617843054756
189	0x3fc466a6f07ed237	0.15938269370021071
190	0xbff4ccf48260c2ba	-1.3000378697289947
191	0x3fdb99fa8d219a09	0.4312731149897507
192	0xbfe52aa32302ada1	-0.6614547427938541
193	0xbfe21930bb22c5b8	-0.5655749945637387
194	0xbfdec60f53a20a2f	-0.4808386151054575
195	0x3fc491c0f3e9ed82	0.1606980505929237
196	0xbff0011ccecd36bc	-1.0002716139019148
197	0x3fe17cb078c45c20	0.5464708670359677
198	0xbfd0065ee04ff2b6	-0.2503888311910417
199	0x3fd71862e00a4d72	0.360863417424489

feature_extractor.linear1.bias f8 [100]
0	0xbfccefe82a63b25e	-0.22607137746617217
1	0x3fc639fde619a4e3	0.17364476905212375
2	0x3fe6e1f56af79fd3	0.7150828446583496
3	0x3fcc4ae1557c1730	0.2210351626783278
4	0x3fe83a87a63dcead	0.7571447607901597
5	0xbfd9379d375a94ed	-0.394019416862945
6	0xbfce6270dcb78978	-0.23737917687601473
7	0x3fdae14a4c2821bd	0.4200006240576178
8	0xbfc306e1301bd398	-0.1486474499612569
9	0xbfd5afe77c198ae8	-0.33886134261244516
10	0xbfad6c8a6e640190	-0.057468725181027414
11	0xbfd37718727d6b7c	-0.30414401226669674
12	0xbfdc5a5af5efefd6	-0.44301485078153513
13	0xbf80377036bc2540	-0.007918240232828055
14	0xbfe4f6a783d0c164	-0.6551091742058301
15	0x3fe87445644a3f6a	0.7641932448186541
16	0xbfe1ba4e95a870f9	-0.5539925501830388
17	0x3fed842548217eb9	0.9223810585790125
18	0xbfdfdd9f02112ebc	-0.4979016800104821
19	0x3fbbfa51d875e277	0.10928832564048628
20	0xbfdbdeedee728371	-0.4354815319621173
21	0xbfe9b9310cb90007	-0.8038563965310467
22	0xbfb3d3dd9b5ae7f7	-0.07745156329011126
23	0xbfbccfb50d3b08a7	-0.11254436085713114
24	0xbfdd1e5e05143105	-0.4549784707640046
25	0x3fdb704b15e744b1	0.42872883929255595
26	0xbfb9d29893e64416	-0.10086969004466115
27	0xbfb5ecb39c9fde88	-0.08564302991714545
28	0xbfddf0288475a17e	-0.4677830976056824
29	0x3fd6f0c238c8ce46	0.35844474358893696
30	0x3febccdf43779f59	0.8687588041038722
31	0x3feb7f82993c2223	0.8593152039403019
32	0x3fd1085e9ddcb868	0.26613583961705567
33	0xbfdd15edd28b0068	-0.45446343956792257
34	0x3fcab9a71146ca0f	0.20879066794948684
35	0x3fd6b589caa28f3f	0.3548302153451352
36	0x3fce4b3569c3fa03	0.23667018570263573
37	0x3fd2fdb4e874cc4f	0.29673502636723453
38	0xbfe65b1afa15fa60	-0.6986212620248118
39	0x3fc6c580f1d8f811	0.17790233429872207
40	0x3fd05e269783fc4d	0.25574650570337526
41	0xbfda7be08b7b1341	-0.41381085988205163
42	0x3fe576a7fb5cf6e5	0.6707343968807576
43	0xbfd88eca98b415ba	-0.3837152949566548
44	0x3fd0d61907252113	0.2630674905563108
45	0xbfda19004b492dc4	-0.4077759490216659
46	0x3fdeef27599cb70d	0.4833467841261701
47	0xbfd7dcc5ecfd3204	-0.37284992354833
48	0xbfe515676e0ea2bd	-0.65886279578725
49	0xbfc5d88afd2d5200	-0.17067086565170086
50	0xbfe73966fd131f92	-0.725757116591
51	0xbfcf432b0dc3e228	-0.2442373101437323
52	0xbfdb734cead67765	-0.42891238149046834
53	0xbfec709cd1b5ef91	-0.8887466522132731
54	0xbfc3e088c9bf08c8	-0.15528974390878703
55	0x3fd45b9db936813a	0.3180918034286325
56	0x3fec5a5eefab79fb	0.8860315972377174
57	0x3fcfcaf99903d752	0.248381805147512
58	0xbfe679bfc93d6a58	-0.7023619585482477
59	0xbfe184333a0c8a62	-0.5473877080697316
60	0xbfe2e4681328f5ed	-0.5903816580027389
61	0xbfd0432daac9e38e	-0.25410024336411474
62	0xbfaeb9fd5cb8b0e7	-0.0600127387700427
63	0x3fd6c8d0bc880c1d	0.3560067978980344
64	0x3fe135aea851bb10	0.5378030097470816
65	0x3feaccbeff976b60	0.837493418886293
66	0x3feb6c037684f38f	0.856935245020951
67	0x3fd2b62c2c07ed7d	0.2923689298620145
68	0x3f9d15c7d425081d	0.028403398822099846
69	0xbfe02b347d4f578c	-0.5052740523776591
70	0xbfd9284074729027	-0.39308177348925927
71	0xbfdcd5fd595b65d8	-0.4505608914019752
72	0xbfda8d3de3120eee	-0.4148707120404954
73	0x3fcc294e5b3cde36	0.22001056151360537
74	0x3fd72ecf54279fca	0.3622320482086222
75	0xbfd65325ec150922	-0.3488249593248317
76	0xbfe4d1e0661f842d	-0.6506196970550541
77	0xbfc0f63d93d0d75a	-0.1325146648175018
78	0xbfe5ca4e200ef42f	-0.6809454561367881
79	0x3fee7707e5f3908f	0.9520301333655129
80	0xbfddb79b6f098a1b	-0.46433149188502093
81	0xbfddfec1a69d3195	-0.46867409964468126
82	0xbfd798f486cd06d2	-0.36871064342640836
83	0xbf99374b8e65c997	-0.024624996725330552
84	0x3fd25155e385831f	0.2862143251314126
85	0x3fe0e98d9b6aac31	0.5285099063379503
86	0xbfd0e1cdec08e15c	-0.2637820057893998
87	0x3fdfae0a8f2b12dd	0.49499763470912034
88	0x3fd1c5662dec9b6b	0.27767328724660584
89	0x3fc850daf1ba24da	0.1899675064380862
90	0xbfe6ae65f6352519	-0.7087888535253654
91	0x3fd2a796e3bbcd41	0.29147884597405854
92	0x3fdfcde4eb0b7afa	0.49694178536985556
93	0x3fe3a522b63febdf	0.6139081534923853
94	0x3fd76b178a1ae583	0.36591137396643364
95	0xbfd2719681ab8368	-0.28818285620768913
96	0xbfc137635897a8c4	-0.13450280977060036
97	0x3fe0301fe31657bf	0.5058745799349181
98	0x3fd56a947649c447	0.33463012267663256
99	0xbfdc1621b6768954	-0.438850811182552

feature_extractor.linear2.weight f8 [50, 100]
0	0x3f9090992db5d108	0.016176598944597692
1	0x3f7c3e94943c9850	0.006895618807709239
2	0x3fb1f3d090cabccf	0.07012656722030218
3	0xbfaebae99c71667f	-0.06001977953628756
4	0xbfb3a9d6b5fd9cd6	-0.07681028311855029
5	0x3fb7de1ff7fafd17	0.09323310665330485
6	0xbf63ab8ffcce9240	-0.0024011432892215023
7	0xbf969f9cf059ff98	-0.022093250436682504
8	0xbfad1256b05c2d26	-0.05678053763230144
9	0xbfb7b09235157fe4	-0.09253801151271507
10	0xbfb2a845fd6f100e	-0.0728801482901533
11	0x3fb55b92cd2bc311	0.08342854985290794
12	0x3fb5027b009dd411	0.08206909909297645
13	0xbfaf56117756f562	-0.06120352346213555
14	0x3fb56ffb33d1b1c3	0.08373994841685488
15	0xbfb90de31590977e	-0.09786814953312548
16	0xbfa6a1ed1c07db3f	-0.044204148933138836
17	0xbfb4068687eadcd3	-0.07822457140251808
18	0xbfb56a13a727a216	-0.08364985304763936
19	0x3fa2ed175ab1a0d6	0.036965112515476115
20	0x3fb90ad7890d9b55	0.09782168479942517
21	0xbf86d277d4a3c7b0	-0.01114362352061335
22	0x3f9c5f1416bc7e84	0.02770644558688541
23	0xbfb41c62fb52e254	-0.07855814586481219
24	0x3fb67e37a21f1dfd	0.0878634234242028
25	0x3fb77bc6d21193ad	0.09173243168477425
26	0xbfabf499f0c44e83	-0.0546005350498975
27	0xbfa183859f8bf2d0	-0.03420655796614869
28	0x3fb20cdde2e07be7	0.07050883091913783
29	0xbfb6876ffc421a4e	-0.08800411137244987
30	0xbfb0f3dff9a7128b	-0.06622123570475417
31	0x3f9748b5ad71ab40	0.02273830290907175
32	0xbfa34cd6d5803986	-0.03769561153613936
33	0x3fae6c16dd6d6e1e	0.05941840603801672
34	0xbfb7a5701a68a4f7	-0.0923681320642976
35	0x3facef712a508b5e	0.05651429788146943
36	0x3fa6b1e84929f0c2	0.044326075488216
37	0xbfb6654823dbcfd6	-0.08748293757872658
38	0xbf9bae04052be160	-0.02703100472987907
39	0x3fb36c02c4562315	0.07586686414118689
40	0xbf8c3ff590ebaf90	-0.013793867573859392
41	0x3faca3040ef137f2	0.0559312122573913
42	0x3f8805b8d7e0a1a8	0.011729663932855086
43	0x3fafe941eb739ce2	0.062326488486911705
44	0xbfb726b49fb51f48	-0.09043435000523659
45	0xbf9c9b29b5503464	-0.027935649577603874
46	0x3fb2bddfa8fbe9a9	0.07320974231325884
47	0x3f939edb1b99f960	0.01916067462888671
48	0xbfb76fb5403251dc	-0.0915482789735686
49	0x3fb8da83ef250271	0.09708427990427439
50	0x3f5b4fc37b74c8c0	0.0016669663435320697
51	0xbfb77c086550ff59	-0.09173634027046997
52	0x3f9372254ccf49c4	0.01899011880215952
53	0x3f9a9d9cbecc44e4	0.025991868157750356
54	0xbfb19315cf11a683	-0.068650591901724
55	0xbfa55c41e4a6a55c	-0.041719493066305374
56	0xbf6b7c894e387900	-0.0033552819966323755
57	0xbfa3bda46d92114c	-0.03855623090297175
58	0xbfab7f03e2a96213	-0.05370342389932516
59	0xbf562189a2790f40	-0.0013507694328760006
60	0x3fa9fc45a6b5116e	0.050752808189403406
61	0xbf93f9062ff28880	-0.019504639317013517
62	0xbfb0f515538eb31b	-0.06623967447258076
63	0x3fb4c22a948ebc93	0.08108774306195903
64	0x3f3155170e076000	0.00026447117673233933
65	0xbfb251d5fb3c0d66	-0.0715612161985085
66	0xbf7c247188f65ca0	-0.00687069272625887
67	0x3f9d85ec468ceadc	0.02883118801694705
68	0xbfa0b9c1640d6e20	-0.032667201484141595
69	0x3fb06c1a17131175	0.06414950431196138
70	0xbfb50f513d723e73	-0.08226497411873783
71	0xbfb8a263d4779bce	-0.09622787415683762
72	0x3fb3cdb2540e80a5	0.07735743095554655
73	0x3f845367afa20740	0.009924707457915738
74	0xbf9a6478f731c240	-0.025773897254511846
75	0xbf93b2decab05094	-0.019237023469103123
76	0xbfa04ad44e0459fc	-0.03182090237003263
77	0xbf829f036a412cc0	-0.009092356376774524
78	0x3fb8c87567f7f775	0.09680875576301935
79	0x3f7164a7f444f7e0	0.004246383734708176
80	0x3fb1e67e1963dabb	0.06992328758119985
81	0x3f793f4f4c7aa150	0.006163892517783445
82	0x3fb8d26193e1b8df	0.09696016178506593
83	0x3fa8528f5e4e9d2e	0.04750488306245369
84	0x3fb5b9f8e5bb2f8f	0.08486896141692866
85	0x3f4a32eec06ad680	0.0007995286731190127
86	0x3fa529eb182caad2	0.041335436535822404
87	0x3f9cb9e9eb3576f4	0.028052954655655563
88	0x3fb46180d8f34715	0.07961278244627253
89	0xbfb866e4c41fcc24	-0.09532003200710953
90	0xbfab24ff0e50f706	-0.05301663446196696
91	0xbfb4551e220c9969	-0.0794237931373566
92	0xbf9234997a25f5d8	-0.01777877624544097
93	0xbfb0c663905f9c61	-0.06552717470877802
94	0xbfa21374811b8456	-0.03530468059558049
95	0x3fa8bf10f780311e	0.048332720005506355
96	0xbfb3a459fb276bb3	-0.07672655469597948
97	0xbf69120f7215c860	-0.0030603696511031647
98	0xbfb1671106dcffa1	-0.06797892015037955
99	0x3f9bda9d0040567c	0.027201131000842413
100	0xbfc713a7c923c400	-0.18028733559870602
101	0xbfd6714fddedae47	-0.3506660144109656
102	0xbfc54d037f5dd4fd	-0.16641277045315653
103	0xbfd36ab48180a11e	-0.3033877625153013
104	0xbfd46c32c42d9efb	-0.319103900509148
105	0xbfd0711bae77a43f	-0.2569035724432673
106	0x3fb31769dc5ad41b	0.07457601194148859
107	0xbfcadd12ac4037f1	-0.20987161074339114
108	0xbfce461d874ce04a	-0.23651475054225762
109	0x3fb4f5144027b5d5	0.08186461035048549
110	0xbfb83a1ec67d3079	-0.09463684411929475
111	0x3f901a69da432a08	0.01572575945537305
112	0x3fc5e2420a036f21	0.1709673451322198
113	0xbfcdad1fb54ffdbe	-0.2318458209337972
114	0xbfce529e867bb86c	-0.23689633909765762
115	0xbfd5f198447836ea	-0.34287077604754634
116	0x3faee676142a1dee	0.06035202976368824
117	0xbfd52a63ef8d20d2	-0.3307123031013478
118	0xbf85151311a4b3a8	-0.010294102645809947
119	0x3facbeecc310ea1e	0.056144141017700586
120	0xbfb32b68d092fdf6	-0.0748811253752065
121	0xbfc6d13f2987e3e2	-0.17826070335266225
122	0xbfd1cf43d2ad1e19	-0.2782754475960885
123	0xbf9c2ffb4122786c	-0.02752678475427965
124	0xbfb4290c904b11a1	-0.07875135920318722
125	0xbfd205183dd9fd78	-0.2815609554308689
126	0xbfa0be191f49b71c	-0.03270033366139399
127	0xbf8806edcd68d690	-0.011731965857602306
128	0xbfd351b59b08bde4	-0.3018621458058688
129	0x3fc888519c9ff6b4	0.19166011951158668
130	0xbfd25790edd7b20c	-0.28659461237728645
131	0xbfd2aa8a7289b605	-0.29165898499817927
132	0xbfd21680dd614995	-0.2826234971918436
133	0x3f90393e1757b2e0	0.015843362974851227
134	0xbfc8f51f2796d086	-0.19498052056372134
135	0xbfceb780729449d8	-0.23997502894105938
136	0xbfd1c821ab1c0fda	-0.2778400584213593
137	0xbfc5641305747344	-0.16711652532912968
138	0xbfb02f869cb6c34b	-0.06322518659613967
139	0xbfd528f8d6bae4ae	-0.33062573404056195
140	0x3fac2176b6c79ac6	0.054942807971931226
141	0xbfd3d8aee6b558bc	-0.310100293446691
142	0xbfd69e2b0ffde268	-0.35340382157986605
143	0x3fd47a37d4cb3ba3	0.3199596002640936
144	0x3fab11baa417ce2e	0.05286963704193358
145	0xbfc5f1e38b6852e6	-0.1714443617535359
146	0xbfd439520e4d0aeb	-0.3159985675485319
147	0xbfb3e33a0d698a10	-0.07768595530937028
148	0x3fb565d83635bb2f	0.08358527492030697
149	0x3f6df706c1f64b40	0.0036578304277069817
150	0x3f7524d0ab19fab0	0.005162062750626958
151	0xbfb88ea38116a47c	-0.09592649365971967
152	0xbfa1631d1fc3cb36	-0.03395930302385468
153	0xbfc566a6f384db48	-0.16719519510817293
154	0x3f9800f1d16cc780	0.023441103369982397
155	0xbfc9e7d4487d433d	-0.20238736667172388
156	0xbfd02d610016be65	-0.25276970871616405
157	0xbfd5fe042c13a9e9	-0.34362892441154586
158	0xbfd68e7edfd7fad4	-0.35244724139913086
159	0xbfd0bff21dbd8dac	-0.2617154398378385
160	0xbfd632c7c97c5adb	-0.3468493907579792
161	0x3fb3b31df5c47f75	0.07695185899910746
162	0x3fa430b170d9445a	0.03943399908588026
163	0xbfd46c28300e9d43	-0.31910137837481417
164	0x3fab3216ccc10a22	0.05311652421416492
165	0xbfd44d8418f6a66b	-0.3172312015327409
166	0xbfc64c6531bc072a	-0.17420639923516862
167	0xbfcfe0fa08cbd475	-0.24905324391844244
168	0x3fca752feb043e56	0.20670126891535529
169	0x3fa908e78a9da546	0.04889606062972489
170	0xbf9b117b91cad2f4	-0.026433878682570147
171	0x3fd4eb448b452ba8	0.3268596038876077
172	0xbfc73dbac4cb3067	-0.18157133683269253
173	0xbfcdc1361e662d0b	-0.23245884403545633
174	0xbfc9c02564b220e7	-0.201176332633856
175	0x3fb2637577bfc5c5	0.07183012174188892
176	0xbfc6fb003f92ffb0	-0.17953494171342532
177	0xbfa17086bf8082d0	-0.03406163299246645
178	0xbfa865d648f3af13	-0.04765195503736499
179	0xbfd30d229f99072b	-0.29767671189994144
180	0x3fb22b0040b0cafd	0.07096864299164092
181	0xbfa8d121a4cdd1d3	-0.04847054611937875
182	0x3fa67c2ae8db770e	0.0439160737275711
183	0x3f938acb6c2a3124	0.01908414695439932
184	0xbfa7c8cbbc8de2b9	-0.04645382572829732
185	0xbfd20a2ff9519642	-0.28187178943185043
186	0x3f912ea2337f4424	0.016779455559859838
187	0xbfd2098371bd602c	-0.2818306551685079
188	0xbfca12674355e1f5	-0.2036866263185996
189	0xbfd45bc529ce2377	-0.3181012066129862
190	0xbfc7f51434b1e2ca	-0.1871667153643755
191	0xbfce8bf68b7b067e	-0.23864633379530525
192	0xbfd22009373118a0	-0.2832053221685644
193	0xbfcfd74698b62e4b	-0.24875719505904423
194	0xbfa016f650c1cae6	-0.03142518745234728
195	0x3fc6e7bbd9c90a52	0.17894695409821054
196	0x3f77a0c1496e9f50	0.005768542315230565
197	0xbfd2027198c61a62	-0.28139915389366454
198	0xbfd0b517f7c6d982	-0.26105307766865604
199	0x3faa982e76e922fa	0.05194230271860607
200	0xbfce63b7239d7fb9	-0.2374180721189967
201	0xbfc620b9d002a14d	-0.17287371308089874
202	0xbfd3d91c92c45003	-0.3101264413137416
203	0xbfcc95a7a6aeeb7b	-0.22331710470993102
204	0xbfd3ee355d91a3e3	-0.3114140905150277
205	0xbfd5f9628ec3acf8	-0.34334625188667145
206	0xbf9bcab2951ca554	-0.027140417433803535
207	0xbfc62fba7f07b964	-0.17333155825276514
208	0xbfd02e9078941190	-0.25284206176027
209	0xbf942f849501b54c	-0.019712516398091837
210	0x3fac3c3e1a3d8ca6	0.055147114470650835
211	0xbfb361674776fdd9	-0.07570500845667229
212	0x3f7aaac11c263660	0.006510500274442416
213	0xbfd21342de26072e	-0.2824256104869275
214	0xbfd3a376a5a8c77d	-0.30685201814332413
215	0xbfd6c973deee4efe	-0.35604569216341975
216	0xbfa85a923583e4cf	-0.04756600287687151
217	0xbfcb2abcc9b98815	-0.21224174356308426
218	0x3fa3669d2272cd7e	0.037892256217129536
219	0x3fd1bb70db9379ff	0.27706548159576977
220	0xbfa7730399948e86	-0.04579936265716093
221	0xbfd55d4c80b548f6	-0.33381950921206227
222	0xbfd6501f3d04e43b	-0.34864026030442447
223	0xbfd051fce2bbe4a2	-0.25500414030063656
224	0x3f8977c010ce51d0	0.012435436737896405
225	0xbfcf5eda69144f02	-0.2450821889002484
226	0xbfd22d0917727955	-0.28399874963533495
227	0x3fa985694636846a	0.04984597189037106
228	0xbfc8cef99e0b298d	-0.19381637780163566
229	0xbfcefb848ee47b72	-0.24205071427510522
230	0xbfd2befa232d25c6	-0.29290631709281134
231	0xbfc81fb1e71fcf9a	-0.18846725259174663
232	0xbfcaf510fcd161fd	-0.21060383171676725
233	0x3f81daa7a8609b30	0.008717832399339182
234	0xbfd03175056806a3	-0.25301862266506187
235	0xbfc7340f0a34013f	-0.18127620695305244
236	0xbfd362dafb224539	-0.30290865444938536
237	0xbfc95e75d81c3f15	-0.19819520046484543
238	0x3fb7c009baa51fa1	0.09277401739848169
239	0xbfcf6320672b271c	-0.24521260297324765
240	0xbfc85c3adb16b192	-0.19031463334739535
241	0xbfcaaf350822050e	-0.20847189805139305
242	0xbfd08f46f180568d	-0.25874494155991884
243	0xbfd59f42d299d48b	-0.33784552160734255
244	0xbfca08b1e2e3a53a	-0.20339034632278602
245	0xbfcbaba02a055f25	-0.21617509891324818
246	0xbfd410548c57aa0f	-0.3134967203647258
247	0xbfb1302efb81df74	-0.0671414722472699
248	0xbfafb4d0546f0829	-0.061926374728060125
249	0xbfb409d468e6e529	-0.07827498971063974
250	0xbfc6d4cfedbce80c	-0.1783695135907809
251	0x3fb1879decfbf5f1	0.06847559962985607
252	0x3fb26e5532a0e957	0.07199604497956123
253	0xbf7ef358a2524500	-0.007556291796519732
254	0x3fb810658360f55d	0.09400019128311983
255	0xbfca1703c2196ccb	-0.20382735230928115

feature_extractor.linear2.bias f8 [50]
0	0xbfa8d9f49cea9ac0	-0.048537868647419824
1	0xbfd18709a0eb6515	-0.27386704172893533
2	0xbfd30a8840a248bf	-0.29751783668428894
3	0xbf7fdedacc9fe180	-0.0077808901642061334
4	0xbf71891e9ec07a80	-0.004281158075200353
5	0x3fd29fbff6702834	0.2910003573057367
6	0x3fa470f9aa41d268	0.03992443278631158
7	0xbfb454549030be3c	-0.07941177864335541
8	0x3fe045e347e03d2f	0.5085312274767712
9	0x3fd5f8ca77199fa9	0.3433099902235833
10	0xbfa425ba3ff01e93	-0.03935033827297931
11	0x3fd6452e1d63fcb0	0.34797242040799414
12	0x3fc7ab9f03dbf50a	0.18492496193349722
13	0x3fcd654a30e5700b	0.22965361964713824
14	0x3fd1ec74d785c598	0.2800571541511885
15	0xbfd3e047e97011d5	-0.31056402012498313
16	0x3fa28340514fece4	0.036157617498213473
17	0x3fb616b5610aa9d0	0.08628400439435002
18	0xbfc31c858dc62808	-0.1493079130416961
19	0xbfa8d1da82a2cfad	-0.04847605557134158
20	0xbfd9123474bf0f80	-0.39173613930710616
21	0xbf91b55169529274	-0.01729323582971394
22	0x3fa27f32610ea0f8	0.03612668452052675
23	0x3fc439290a75c08e	0.1579943944047994
24	0xbf88e92df36c2968	-0.012163504592099542
25	0xbfdaff30d6a4b8f5	-0.42182560883783476
26	0xbfc427a479c91757	-0.1574597925811598
27	0x3fd28a61e2969af0	0.28969618919147333
28	0xbfe18ab55f0f4c9d	-0.5481821877132408
29	0xbfda359a3aaf5869	-0.40952163439704364
30	0xbfce72174b498cd5	-0.23785678077829311
31	0x3fda9b9b55b91098	0.4157474839341915
32	0x3fc272da401cbb50	0.1441300213859571
33	0xbf82ec81ca375f10	-0.009240163787509498
34	0xbfca441dcd5dcf5f	-0.20520374801310035
35	0xbfb0502aa4157a25	-0.06372324472383946
36	0xbfd3eddcbc48c356	-0.31139295947200674
37	0x3feb9266063b85e5	0.8616209146240946
38	0x3fc6a7f3a68a20e8	0.17700048095526388
39	0xbfaf320209f266d0	-0.06092840548917666
40	0x3fb83035701724a8	0.09448560701925379
41	0xbfd5844688332314	-0.33619845677144267
42	0x3f9acad76b9af404	0.02616440386076492
43	0xbfcdf5483e3420c8	-0.23404791867529284
44	0x3fd379150794efae	0.30426526775749607
45	0xbfda61412a4d89fa	-0.41218594676152487
46	0x3fcad0e963e19c49	0.20950047852531586
47	0x3fd6ddacdbdf38dc	0.3572799822985766
48	0x3fd32f21ab41bd21	0.2997516796521769
49	0x3fccf50501db464d	0.22622740355159224

feature_extractor.linear3.weight f8 [2, 50]
0	0xbfbcb29fc1e709fe	-0.11210058673808729
1	0xbfd910a6a13c601f	-0.39164129014671006
2	0x3fc15842cfb4f9da	0.13550601140919022
3	0x3fbfd18ddc680d46	0.12429129248635204
4	0xbfa038ad3ac3bce0	-0.03168240873662298
5	0xbfb7a2ef36acfa65	-0.09232993206840374
6	0xbf89e15080d49200	-0.012636784488287311
7	0x3f93229521fc1240	0.01868660945821632
8	0x3fc99d030f450f1d	0.20010412450403062
9	0xbfd63f8d9315a083	-0.34762896884650035
10	0x3fb8ab4c89a6c5c8	0.09636381493216739
11	0x3fe3195ddf036be9	0.596846519062976
12	0xbfc5596b92fd8609	-0.16679138829481158
13	0xbfa3212de544a22b	-0.03736251281435828
14	0x3fb2552e14f84e09	0.07161224376641696
15	0x3fd2535686f353ad	0.2863365476489957
16	0xbfbc456f520583d1	-0.11043449165801113
17	0xbfb76291f1869246	-0.09134781023619451
18	0xbfc7b9949a3fe47a	-0.18535096675603652
19	0xbf5e2ee5ec6b7b00	-0.0018422360750986466
20	0xbfd61cd40d7e2ed1	-0.34550954168001363
21	0xbf7d34733c535140	-0.007130098475688407
22	0xbfb2b586a192c04f	-0.07308236546191547
23	0xbfd82af5e4e78cb5	-0.37762210229829957
24	0x3fb09a352bb6b458	0.06485302273968452
25	0xbfd3bb0cf063a1f9	-0.3082916591215788
26	0xbfd3a2fed117b5df	-0.30682344836426795
27	0x3fc24e3c98861013	0.1430125946754975
28	0x3fd271bd41e83bf8	0.28819209514853084
29	0x3fd0aeccb679169a	0.2606689245188619
30	0xbfd981bfe725ca44	-0.3985442883778527
31	0x3fce15cb346d05e4	0.23504009303910245
32	0x3fc10d97a4475cc7	0.13322730561660576
33	0x3fb76a2aff11e7ca	0.09146374442380459
34	0x3fd0ed532c051823	0.2644851617700416
35	0xbfc01b73243de01b	-0.1258377005540304
36	0x3fd46db3596c7cb4	0.31919559223929217
37	0xbfa1fc99847eba0f	-0.03513030760165147
38	0x3fc92e43927e0003	0.1967243638318906
39	0x3fb30dc6210aa7ca	0.07442892367058032
40	0xbfba5c07b84c4f50	-0.10296676873650523
41	0x3fd0e6671d3b3993	0.26406267027496105
42	0xbfbafe601ca69108	-0.10544396113852283
43	0x3fd82c61f4e4dcea	0.3777089015524796
44	0xbfd568c714ea433c	-0.3345201210259352
45	0xbf8abfd82b5e70c3	-0.013061226676477472
46	0x3fba0ca654755070	0.10175551950425343
47	0xbfd6a48f6b5e08c5	-0.35379395947542164
48	0x3fda8da3cfd3e5f1	0.4148950128142977
49	0x3fbd929f393b3e39	0.11551852366687222
50	0xbfa24a0848f8bb7e	-0.03572107210890517
51	0xbfc3a6755baa51a3	-0.15351740814061285
52	0xbfd0991e4cdec9ec	-0.2593456030546395
53	0xbfc0918876e0cde1	-0.1294413166484523
54	0x3fb891d277339408	0.09597506914322207
55	0xbfd85ee18fc969ba	-0.3807910827796622
56	0x3fb83d7e6ad77134	0.09468832119404597
57	0x3fbd2895f27d4922	0.11390053911353396
58	0xbfb14b5346da78a2	-0.06755562286204733
59	0xbfc43e81fca02025	-0.15815758548001316
60	0xbfc81bd6e1336836	-0.18834959026463743
61	0xbfbb2fb6baf639ef	-0.10619680466172786
62	0x3fdcc2f2576eb0bb	0.44939859903639573
63	0xbfd37b54504ab727	-0.3044024261570137
64	0x3fca490432ed855d	0.20535328375539566
65	0x3fbcf481f62c44ea	0.11310589084702696
66	0x3fc045475978a08b	0.12711421841345713
67	0x3fbe9519f0d11c0e	0.11946260575597042
68	0xbfc9d63cfec4b6e5	-0.2018505329119115
69	0xbf846b0e19596030	-0.0099698163495959
70	0x3fcf722b995f1a07	0.24567170132486657
71	0xbfb1619a9cec57ca	-0.06789556819089096
72	0xbfc0c01a95460322	-0.13086254395241165
73	0x3fd68a77073f8d78	0.35220123012387416
74	0xbf96819234d98b48	-0.02197864959306209
75	0x3fdd34c487762373	0.45634568432483674
76	0x3fb5e4b1a26b51df	0.08552084174454631
77	0x3fd324647031356e	0.29909621197005876
78	0xbfd05c7fbf72c660	-0.2556456918347063
79	0xbfcd5630d52e8bd4	-0.22919283303516969
80	0xbfc7986a8c841c6a	-0.1843388734925811
81	0xbfc96121372dcdf1	-0.1982766646793688
82	0xbfd1d03685d05057	-0.2783333117270152
83	0x3fa32f6a4e1ef6f4	0.037471124683618046
84	0x3fd0142eb3ede8a1	0.25123183795188636
85	0xbfba7074822d203a	-0.10327842882281937
86	0xbfcdf912d0a29f66	-0.23416361987369355
87	0xbfcba0736a6720a8	-0.21583407111598274
88	0xbfd9a72ab5abe9e4	-0.40082805386887643
89	0x3fbeb769c300d71a	0.11998616228887862
90	0xbfb4cba2f330ed23	-0.08123224675448575
91	0xbfc506efd466b0b1	-0.16427419539593793
92	0xbfd71dcbddfac11c	-0.36119362523733556
93	0x3fc1ccbe3774ae40	0.13906076152612634
94	0x3fcb8b71952b6ac0	0.2151929834716011
95	0xbfa6ff0527836df4	-0.04491439921704546
96	0xbfd8d26aa23b04b4	-0.38784280627084944
97	0x3fc28ed71865cafb	0.1449841374520345
98	0x3fe58fd748c9d0f0	0.6738087102553703
99	0xbfd5dd70989d83fb	-0.34164061454617894

feature_extractor.linear3.bias f8 [2]
0	0x3fb9be5506e76c43	0.10056048792414267
1	0xbfc012e4068133a6	-0.12557649915325192

mean_module.raw_constant f8 []
0	0x40105221177d1cbd	4.080204360018965

covar_module.raw_outputscale f8 []
0	0x40109b6d06f60d11	4.151783093230976

covar_module.base_kernel.raw_lengthscale f8 [1, 2]
0	0xbfdada920d37e1bd	-0.41959048548553907
1	0x3feff1df16b60e9b	0.998275322301612

covar_module.base_kernel.raw_lengthscale_constraint.lower_bound f8 []
0	0x0000000000000000	0.0

covar_module.base_kernel.raw_lengthscale_constraint.upper_bound f8 []
0	0x7ff0000000000000	inf

covar_module.raw_outputscale_constraint.lower_bound f8 []
0	0x0000000000000000	0.0

covar_module.raw_outputscale_constraint.upper_bound f8 []
0	0x7ff0000000000000	inf
