dkl_kernel_for_Keyhole.pth (torch, 27213 bytes, 6 tensors)

linear1.weight f4 [100, 2]
-0.55454713 -0.6667231 0.11753205 -0.5468021 -0.27941313 0.43162164 0.7162721 -0.29183355
0.42927158 -0.11342232 -0.14150332 -0.0836813 -0.43491718 0.3326232 -0.01303292 -0.24504642
0.5976994 -0.45290768 -0.85314834 0.30107212 0.11011676 -0.3861419 -0.49887335 0.051111296
-0.61647016 0.56756055 -0.35673627 0.40778252 0.38987932 0.091385566 -0.017658418 -0.32278645
0.30315077 -0.6893146 -0.51659536 0.48682004 -0.32502744 0.589257 0.5499142 -0.2286314
-0.6976518 0.5944976 -0.19261128 0.6362394 -0.6888402 0.2339354 -0.6447271 0.05783438
-0.42693213 -0.9790994 -0.15872334 0.70685166 0.074503526 -0.14189352 0.7184788 -0.049480308
-0.4214261 0.6488223 0.33170396 0.27606016 0.43703106 0.37196904 -0.4014128 0.2575335
-0.41481376 -0.07344477 0.7477342 -0.5679059 0.20526789 -0.3444687 0.0038776787 -0.08418951
-0.36124587 0.2661784 -0.57809246 0.6711438 -0.4997593 0.48871022 -0.17922333 -0.54443944
0.50697255 -0.19524346 -0.3097215 0.16914722 -0.27466634 0.23649417 -0.17156364 -0.20401393
0.08511455 0.24866568 0.6834607 0.084350474 -0.18356216 -0.15064557 -0.14706026 -0.22961655
-0.28983137 0.05168723 0.29429856 0.25690448 0.6679441 -0.8583445 0.45777068 -0.23299316
-0.7795685 0.57523423 -0.786597 -0.61122435 0.27629247 0.030890042 0.28759012 -0.4922559
0.38118398 0.33174354 0.4386889 -0.31792748 0.14064774 0.071550496 0.68757063 -0.7019006
-0.73406905 -0.67207986 -0.005816695 -0.43690693 -0.17644751 -0.28135175 0.41180983 -0.5407363
0.618428 -0.8490247 -0.31214464 0.07052542 -0.8194266 0.29741597 -0.26454 -0.35712585
0.70215565 -0.26894927 0.07358733 -0.35572755 0.057772335 0.11321494 0.81692904 -0.63002604
-0.7028941 -0.4944658 0.13831599 -0.045506336 0.41103348 0.071755685 0.7905813 -0.6034267
-0.64622873 -0.12892075 0.7177571 -0.61586165 0.58423656 -0.007936382 0.34491533 0.44940603
0.6160287 0.3968725 -0.30167195 -0.25577855 0.08041311 0.35675755 0.13128811 -0.21916011
-0.11436657 -0.25239134 0.33952674 -0.70327353 0.50545037 -0.14987324 -0.42865402 -0.2522273
-0.49100292 -0.5234999 0.071150705 -0.16058986 -0.3174139 -0.12042501 -0.042248625 0.2546207
-0.8986073 -0.15744083 0.05094004 -0.6754209 0.70458406 -0.47365728 0.5150622 0.35656852
-0.02306736 0.508459 -0.74510473 -0.22358857 -0.58328617 -0.43045983 -0.018829191 0.42600936
00000000: cdf6 0dbf 5dae 2abf a5b4 f03d 39fb 0bbf
00000010: 3d0f 8fbe 83fd dc3e 9c5d 373f 356b 95be
00000020: 7cc9 db3e f649 e8bd 3fe6 10be 1a61 abbd
00000030: 77ad debe 974d aa3e 0788 55bc 73ed 7abe
00000040: d402 193f 84e3 e7be ee67 5abf 2026 9a3e
00000050: e584 e13d 64b4 c5be 546c ffbe 145a 513d
00000060: fdd0 1dbf a64b 113f 23a6 b6be dfc8 d03e
00000070: 439e c73e 5b28 bb3d 63a8 90bc 4444 a5be
00000080: 9436 9b3e ec76 30bf 983f 04bf 7a40 f93e
00000090: ff69 a6be 8cd9 163f 2dc7 0c3f 5a1e 6abe
000000a0: 4f99 32bf ff30 183f e43b 45be 96e0 223f
000000b0: d557 30bf c38c 6f3e d60c 25bf bee3 6c3d
000000c0: d996 dabe 42a6 7abf 5f88 22be 3bf4 343f
000000d0: 4e95 983d 894c 11be 3aee 373f ddab 4abd
000000e0: 29c5 d7be 3819 263f 1ad5 a93e c257 8d3e
000000f0: 89c2 df3e ba72 be3e fb85 cdbe 6edb 833e
00000100: 7862 d4be 366a 96bd 826b 3f3f 4862 11bf
00000110: bf31 523e 345e b0be a720 7e3b 8d6b acbd
00000120: 38f5 b8be 8948 883e defd 13bf 14d0 2b3f
00000130: 73e0 ffbe 3a38 fa3e 5286 37be 6260 0bbf
00000140: f4c8 013f e7ed 47be d193 9ebe ee34 2d3e
00000150: 11a1 8cbe 872b 723e 61ae 2fbe 07e9 50be
00000160: 8a50 ae3d 37a2 7e3e 48f7 2e3f f1bf ac3d
00000170: b8f7 3bbe d542 1abe f796 16be 9a20 6bbe
00000180: c764 94be fdb5 533d 4dae 963e fc88 833e
00000190: 62fe 2a3f 77bc 5bbf eb60 ea3e c295 6ebe
000001a0: cd91 47bf 8d42 133f 6c5e 49bf 3379 1cbf
000001b0: 3576 8d3e 1d0d fd3c 033f 933e f708 fcbe
000001c0: 8c2a c33e 4ada a93e d59b e03e 64c7 a2be
000001d0: f605 103e 1189 923d a104 303f c2af 33bf
000001e0: f3eb 3bbf 6d0d 2cbf f999 bebb 44b2 dfbe
000001f0: a8ae 34be 560d 90be bdd8 d23e b26d 0abf
00000200: 4c51 1e3f af59 59bf 6cd1 9fbe a26f 903d
00000210: f1c5 51bf e846 983e c971 87be 33d9 b6be
00000220: 79c0 333f b8b3 89be f4b4 963d ec21 b6be
00000230: afa2 6c3d 3cdd e73d 4322 513f 6349 21bf
00000240: def0 33bf 9f2a fdbe b5a2 0d3e da64 3abd
00000250: fb72 d23e a5f4 923d 8963 4a3f 2c7a 1abf
00000260: 3f6f 25bf cd03 04be eebe 373f 1ca9 1dbf
00000270: 8790 153f 9907 02bc be98 b03e 8c18 e63e
00000280: 0fb4 1d3f df32 cb3e bf74 9abe 68f5 82be
00000290: a1af a43d eda8 b63e 6470 063e 826b 60be
000002a0: 0539 eabd 7039 81be 73d6 ad3e bc09 34bf
000002b0: 3265 013f 5f78 19be 8a78 dbbe f023 81be
000002c0: bc64 fbbe 1704 06bf 76b7 913d ab71 24be
000002d0: 1384 a2be 63a1 f6bd e50c 2dbd a55d 823e
000002e0: 210b 66bf 2b38 21be 81a6 503d 62e8 2cbf
000002f0: 9f5f 343f 3583 f2be 1edb 033f 2690 b63e
00000300: c3f7 bcbc 5e2a 023f 2fbf 3ebf 67f4 64be
00000310: 3e52 15bf 3b65 dcbe ad3f 9abc e61d da3e

linear1.bias f4 [100]
-0.41961637 -0.28571323 -0.3276393 0.0134105515 -0.64760077 -0.5596786 0.0091717765 0.6084339
0.07681455 -0.34776583 0.4719231 0.5209538 0.56378716 0.033355072 0.008949556 0.39120868
0.32067755 0.39192566 0.30185586 0.013061065 0.61966896 -0.0030604908 0.7055006 0.5474478
0.40732312 0.37238488 0.28218046 -0.3904471 -0.018673083 -0.17675568 -0.6415649 0.37718567
0.10624703 0.09323342 -0.49880153 -0.62954694 0.032793377 0.40876308 0.3077744 0.49344596
0.4404004 0.23034894 0.011397958 -0.52309984 0.45755777 -0.5210605 -0.42520759 0.27167243
0.25469562 -0.42756787 0.3177845 -0.7523108 0.19458355 0.15993208 0.14763354 -0.5910713
-0.53454626 0.42602956 0.07730868 -0.115792796 0.6620082 -0.24822131 -0.17942807 0.22813793
0.40929988 -0.3901414 0.16364738 -0.31745243 -0.2602371 -0.19061352 -0.07369507 0.10505468
-0.5281658 0.2549114 0.45523164 0.09969471 -0.15591142 0.10214189 -0.690576 0.34024328
-0.018185304 -0.105204456 0.011242222 0.23560885 -0.327181 -0.5193814 -0.7713636 -0.5904548
-0.2425366 -0.54894346 -0.071398616 -0.43043813 0.15864074 0.47942764 0.49577758 -0.62727547
-0.43445966 0.14948899 -0.16147596 0.38216856
00000000: f5d7 d6be 0149 92be 57c0 a7be eeb7 5b3c
00000010: 2ac9 25bf 1947 0fbf 3845 163c 53c2 1b3f
00000020: f250 9d3d 5d0e b2be e89f f13e 3a5d 053f
00000030: 5b54 103f 549f 083d 29a1 123c 814c c83e
00000040: d92f a43e 7baa c83e da8c 9a3e 14fe 553c
00000050: a0a2 1e3f 8492 48bb b09b 343f 8a25 0c3f
00000060: a88c d03e 3ba9 be3e f579 903e afe8 c7be
00000070: 4bf8 98bc 71ff 34be 993d 24bf 7b1e c13e
00000080: 0b98 d93d 2af1 be3d ea62 ffbe fd29 21bf
00000090: 5952 063d 6549 d13e 9b94 9d3e f3a4 fc3e
000000a0: 297c e13e 98e0 6b3e 80be 3a3c dfe9 05bf
000000b0: 0345 ea3e 3964 05bf cfb4 d9be a618 8b3e
000000c0: 7767 823e 2dea dabe a6b4 a23e 7197 40bf
000000d0: e940 473e 3cc5 233e 3f2d 173e 7350 17bf
000000e0: 06d8 08bf 8c20 da3e 0354 9e3d c624 edbd
000000f0: 5f79 293f ba2d 7ebe febb 37be fd9c 693e
00000100: c18f d13e 9dc0 c7be 2e93 273e 2089 a2be
00000110: cc3d 85be 3130 43be 71ed 96bd e826 d73d
00000120: e035 07bf bf83 823e 1f14 e93e bd2c cc3d
00000130: 3ea7 1fbe c42f d13d 97c9 30bf 5e34 ae3e
00000140: 59f9 94bc 6f75 d7bd 4c31 383c 7243 713e
00000150: 4584 a7be 2ef6 04bf 1678 45bf 0c28 17bf
00000160: 845b 78be 8f87 0cbf 7039 92bd 6362 dcbe
00000170: b872 223e 8a77 f53e 8fd6 fd3e 2095 20bf
00000180: 7f71 debe a413 193e f459 25be 99ab c33e

linear2.weight f4 [50, 100]
-0.09173971 0.092733644 -0.06936184 -0.08019153 -0.010604167 -0.044300508 -0.06884101 -0.0022876458
0.08980653 0.05567589 -0.046740245 -0.073619515 -0.11400894 0.037961673 -0.034564596 -0.14661144
0.027575761 -0.06760365 0.007673383 -0.033191215 0.01830533 -0.12955192 0.00062105834 0.018332368
-0.06042612 0.006795769 -0.055794172 -0.0915579 0.09096634 -0.12970936 0.057589166 -0.1493294
-0.09743086 -0.029796243 -0.03886181 -0.09850565 -0.105183 -0.15226378 -0.14304812 -0.15880129
-0.11673546 -0.081293404 0.03679633 -0.070351325 -0.13549235 -0.08140625 0.09355382 -0.071069986
-0.08550043 0.05482923 -0.11701879 -0.026428342 0.032709036 -0.004958462 -0.13544269 -0.027484287
0.009819972 -0.023131596 -0.104419485 0.07001915 -0.057679463 -0.086462274 0.026795924 -0.08540005
-0.0519815 -0.098902844 -0.08393859 -0.02324053 -0.08982678 -0.028285159 -0.054989412 -0.114736035
0.014191342 -0.00650002 -0.0476713 -0.09815593 -0.00031598806 -0.046864428 0.028504109 -0.13978824
-0.12569022 -0.0033197284 -0.0016883474 -0.08519705 -0.005273223 -0.009903467 -0.07824474 -0.007911754
-0.0028144717 0.016552318 0.04475763 0.029781032 -0.003354704 -0.07775571 -0.102453254 0.12895675
0.09895766 -0.0038966357 0.07284639 -0.010546243 0.088397376 0.08698986 0.097002506 -0.24122523
-0.051882304 0.07645831 -0.20799127 -0.05297966 -0.6903489 0.17757209 -0.0124212075 0.18630019
0.1553894 0.039272863 0.016889619 0.023508199 -0.2649668 0.063710615 0.17366883 -0.3070016
0.1982609 0.09056548 0.09435312 0.042593773 -0.018649021 0.13618773 -0.046884313 -0.5423715
0.07654485 0.06416089 -0.042866275 0.009179655 0.11975435 -0.64127445 0.096477866 -0.0911417
0.11831059 0.21362759 0.14083828 -0.15520059 -0.027510908 0.04921707 0.09752555 -0.003737998
0.10395379 -0.35408324 0.018037355 -0.006713221 -0.03804716 0.041503143 -0.2934139 0.069826044
0.08676912 0.4406972 0.07430017 -0.033418827 -0.041324556 0.0384303 0.09153372 -0.36189297
0.025473578 -0.06481276 0.013829673 -0.3863225 -0.23907925 0.014114865 -0.13308856 0.015276742
-0.99265933 0.086687304 0.043520212 -0.50980264 0.073666774 0.0034575223 -0.03019758 -0.59396
-0.05427611 -0.75153077 -0.20919773 0.055623047 0.121307075 -0.072757676 0.014171589 -0.068155065
-0.07914152 0.018718649 -0.019871866 0.07564767 -0.09938361 0.0033477903 0.04409671 -0.0412196
0.07990567 -0.025124686 -0.115632646 -0.017806116 0.010101312 0.2068025 0.07049654 0.0974951
0.010603583 -0.02027681 -0.090716 0.042125177 0.07479089 0.04181203 -0.015603388 -0.089516036
-0.0016528964 0.0260059 -0.0782712 0.085033946 -0.002633345 0.02731247 0.0882185 0.04341178
-0.054186214 0.036877513 0.05879879 0.04989176 -0.04698292 0.0101572275 -0.07185211 -0.011234939
-0.06939198 0.057166386 0.09784217 -0.09685005 -0.04672116 -0.04229852 -0.07002222 0.09099432
-0.077244006 -0.05228075 -0.083073236 -0.00033177139 -0.07401904 -0.06736114 0.09943911 0.04468595
0.042424418 0.07091965 0.017278982 0.016227199 -0.075108364 0.028093243 -0.07812621 -0.00043509007
-0.053964067 -0.05668179 -0.05854993 -0.04840858 -0.059471797 -0.05468872 -0.03642701 -0.09137094
00000000: 07e2 bbbd 23eb bd3d 950d 8ebd 753b a4bd
00000010: 1abd 2dbc 7374 35bd 84fc 8cbd 54ec 15bb
00000020: 7cec b73d 670c 643d b372 3fbd d4c5 96bd
00000030: 857d e9bd b37d 1b3d 9b93 0dbd 4f21 16be
00000040: 90e6 e13c c873 8abd 0171 fb3b 83f3 07bd
00000050: 0ff5 953c 42a9 04be 85ce 223a c32d 963c
00000060: 6181 77bd 0baf de3b 6e88 64bd b582 bbbd
00000070: 8f4c ba3d 88d2 04be 9ee2 6b3d cee9 18be
00000080: d589 c7bd 4017 f4bc 902d 1fbd 55bd c9bd
00000090: 2f6a d7bd 09eb 1bbe 357b 12be ce9c 22be
000000a0: 0013 efbd 287d a6bd c0b7 163d 5b14 90bd
000000b0: 82be 0abe 52b8 a6bd 2599 bf3d 248d 91bd
000000c0: d91a afbd 9d94 603d 8ca7 efbd 4080 d8bc
000000d0: e9f9 053d 987a a2bb 7db1 0abe ba26 e1bc
000000e0: f3e3 203c 797e bdbc e2d9 d5bd 3366 8f3d
000000f0: 4d41 6cbd 2213 b1bd 2083 db3c 39e6 aebd
00000100: 8eea 54bd 938d cabd ffe7 abbd ed62 bebc
00000110: 1af7 b7bd 47b6 e7bc 943c 61bd bafa eabd
00000120: cd82 683c 1ffe d4bb fb42 43bd fa05 c9bd
00000130: 33ab a5b9 eaf4 3fbd 7381 e93c a624 0fbe
00000140: f0b4 00be cd8f 59bb 8a4b ddba ca7b aebd
00000150: 00cb acbb 2742 22bc c73e a0bd 4da0 01bc
00000160: 0073 38bb ba98 873c c753 373d 5af7 f33c
00000170: 98da 5bbb 633e 9fbd 03d3 d1bd 3d0d 043e
00000180: 50aa ca3d b35e 7fbb 7d30 953d 26ca 2cbc
00000190: af09 b53d bd27 b23d 40a9 c63d bf03 77be
000001a0: 8a82 54bd 2d96 9c3d aafb 54be 3301 59bd
000001b0: b5ba 30bf 75d5 353e 5282 4bbc 7ac5 3e3e
000001c0: 661e 1f3e 95dc 203d 195c 8a3c 4494 c03c
000001d0: baa9 87be b67a 823d 3ed6 313e 502f 9dbe
000001e0: e804 4b3e 657a b93d 353c c13d cf76 2e3d
000001f0: d5c5 98bc cc74 0b3e c409 40bd dcd8 0abf
00000200: 8cc3 9c3d c966 833d 8c94 2fbd 4466 163c
00000210: c541 f53d 902a 24bf 3096 c53d 80a8 babd
00000220: d34c f23d 31c1 5a3e e937 103e e7ec 1ebe
00000230: 8e5e e1bc d797 493d 7abb c73d 33f9 74bb
00000240: bae5 d43d 664a b5be 13c3 933c 94fa dbbb
00000250: 57d7 1bbd 33ff 293d 593a 96be f500 8f3d
00000260: 02b4 b13d 10a3 e13e b02a 983d 2ee2 08bd
00000270: f043 29bd 1769 1d3d 0876 bb3d 094a b9be
00000280: f7ad d03c 8dbc 84bd da95 623c 10cc c5be
00000290: 31d1 74be 0942 673c 5e48 08be 4d4b 7a3c
000002a0: ec1e 7ebf 1d89 b13d 4042 323d 6d82 02bf
000002b0: 9bde 963d 9997 623b ea60 f7bc c30d 18bf
000002c0: a050 5ebd 5264 40bf ee37 56be fed4 633d
000002d0: d86f f83d fa01 95bd f42f 683c e294 8bbd
000002e0: f314 a2bd da57 993c 53ca a2bc 2aed 9a3d
000002f0: a289 cbbd 9a66 5b3b c09e 343d e2d5 28bd
00000300: 95a5 a33d 49d2 cdbc cfd0 ecbd 22de 91bc
00000310: f97f 253c 09c4 533e 7d60 903d 83ab c73d
00000320: a7ba 2d3c 8d1b a6bc 4fc9 b9bd 738b 2c3d
00000330: f72b 993d 1743 2b3d 5aa5 7fbc 2f54 b7bd
00000340: 00a6 d8ba 530a d53c a74c a0bd 4726 ae3d
00000350: 3394 2cbb 67be df3c e7ab b43d 8dd0 313d
00000360: 5df2 5dbd e00c 173d 00d7 703d 4d5b 4c3d
00000370: 2a71 40bd 806a 263c 3327 93bd c012 38bc
00000380: 621d 8ebd 4d27 6a3d 7a61 c83d 5259 c6bd
00000390: b05e 3fbd 3741 2dbd cf67 8fbd 3b5b ba3d
000003a0: 1b32 9ebd 5724 56bd 4d22 aabd 9af1 adb9
000003b0: 4b97 97bd a3f4 89bd bba6 cb3d 9d08 373d
000003c0: 3ac5 2d3d 523e 913d a78c 8d3c e7ee 843c
000003d0: 6ad2 99bd cd23 e63c a200 a0bd cd1c e4b9
000003e0: 6d09 5dbd 2a2b 68bd 0dd2 6fbd 1348 46bd
000003f0: b398 73bd 4701 60bd 7d34 15bd b020 bbbd

linear2.bias f4 [50]
-0.0043705427 0.10076891 -0.05146215 0.11837812 0.1420211 0.08158875 0.0030315742 0.11692324
-0.10459001 -0.14819446 0.053265836 -0.06796424 -0.009400285 0.13634248 -0.05005544 -0.04882687
0.004875994 -0.0882628 -0.001608748 -0.11224392 -0.0942585 0.10869031 0.15635677 0.009666435
-0.031202301 0.02155827 -0.14891857 -0.06113767 -0.0685662 0.05371485 -0.078263655 -0.02407126
-0.07738534 0.017527469 0.15121558 -0.04167621 -0.29157707 -0.09968404 0.1591002 0.17801028
0.2365552 0.0051140934 -0.13850571 0.02654194 -0.03761528 0.035362147 0.038217165 0.15504834
0.20554036 0.03813205
00000000: c536 8fbb ee5f ce3d fac9 52bd 3a70 f23d
00000010: fb6d 113e 0118 a73d 60ad 463b 7475 ef3d
00000020: 4a33 d6bd 4ac0 17be 472d 5a3d d630 8bbd
00000030: a703 1abc 5d9d 0b3e ef06 4dbd affe 47bd
00000040: cdc6 9f3b 20c3 b4bd a0dc d2ba 24e0 e5bd
00000050: 9a0a c1bd 0699 de3d fd1b 203e f85f 1e3c
00000060: f89b ffbc f89a b03c 1c7e 18be 7e6b 7abd
00000070: 706c 8cbd 1a04 5c3d b248 a0bd 1731 c5bc
00000080: 357c 9ebd c495 8f3c 42d8 1a3e acb4 2abd
00000090: 9749 95be 2527 ccbd 2aeb 223e 5448 363e
000000a0: 873b 723e 2094 a73b 71d4 0dbe 7c6e d93c
000000b0: 7b12 1abd e6d7 103d 9a89 1c3d fec4 1e3e
000000c0: 2c79 523e 5a30 1c3d

linear3.weight f4 [2, 50]
0.06718796 0.3982509 -0.12501419 -0.20002921 0.19565387 -0.02727286 -0.24950159 -0.44932055
0.27741906 0.030523531 -0.107262485 -0.0032882504 0.070263945 -0.16897923 -0.26956248 0.15632707
-0.091222934 0.10060902 -0.33010995 -0.08057374 0.035235662 -0.20948052 -0.1510875 -0.3246883
0.16368568 0.4817517 0.013808759 -0.13460086 0.14653434 0.5124663 0.0980587 0.16481806
0.24923153 0.019998929 0.043121867 0.4749162 -0.07461024 0.009626223 -0.05598057 -0.19832148
0.37311345 0.047433484 -0.034043472 0.03308486 0.039159298 0.0594183 0.013512633 0.043775108
0.02107173 0.057013568 -0.021996817 0.44460824 -0.09769908 0.18619367 0.0882498 0.10291734
-0.09596751 -0.3178616 0.2890217 -0.08132351 0.057742484 0.13574837 -0.029301105 -0.081792556
-0.02043444 -0.015647626 -0.0640965 0.06660005 -0.1500331 -0.091275275 -0.051413596 -0.1825013
-0.22927167 -0.23360771 0.05916304 0.22750527 -0.029432442 -0.089020155 -0.0068886 0.1446801
-0.060259867 0.035233553 0.3057003 -0.1705231 0.15818402 0.03397494 0.08002278 0.10716235
0.038060613 -0.1907646 0.30597973 -0.14875604 -0.01587206 0.07994883 -0.08720487 -0.03123534
-0.017071266 -0.18920657 -0.022467403 -0.14333811
00000000: d799 893d 8be7 cb3e b803 00be 75d4 4cbe
00000010: 7d59 483e 556b dfbc 587d 7fbe 580d e6be
00000020: df09 8e3e 7c0c fa3c 6fac dbbd b07f 57bb
00000030: 8be6 8f3d e408 2dbe 1804 8abe 3414 203e
00000040: 17d3 babd 1a0c ce3d 2c04 a9be d803 a5bd
00000050: 4553 103d 1082 56be aeb6 1abe 8b3d a6be
00000060: 389d 273e 29a8 f63e 223e 623c cfd4 09be
00000070: 190d 163e fe30 033f 00d3 c83d 11c6 283e
00000080: 8d36 7f3e cbd4 a33c 8ea0 303d 3728 f33e
00000090: 41cd 98bd 4eb7 1d3c e24b 65bd c914 4bbe
000000a0: ba08 bf3e 9d49 423d 2b71 0bbd fd83 073d
000000b0: 8065 203d 9a60 733d 1764 5d3c 874d 333d
000000c0: 9f9e ac3c 0f87 693d ab32 b4bc b1a3 e33e
000000d0: 7516 c8bd 8ea9 3e3e 50bc b43d 54c6 d23d
000000e0: 9d8a c4bd c1be a2be a7fa 933e f18c a6bd
000000f0: 6283 6c3d 9f01 0b3e df08 f0bc db82 a7bd
00000100: 2066 a7bc 732f 80bc 0745 83bd 9b65 883d
00000110: 47a2 19be 88ee babd 1097 52bd 9fe1 3abe
00000120: 31c6 6abe dc36 6fbe f254 723d 24f7 683e
00000130: 4e1c f1bc 3350 b6bd c4b9 e1bb 0527 143e
00000140: 0dd3 76bd 0f51 103d c084 9c3e 9c9d 2ebe
00000150: fefa 213e 4f29 0b3d fce2 a33d ef77 db3d
00000160: 72e5 1b3d cc57 43be 60a9 9c3e 8153 18be
00000170: 1f06 82bc 36bc a33d 7898 b2bd 41e1 ffbc
00000180: 0ad9 8bbc 5ebf 41be 8f0d b8bc 3ac7 12be

linear3.bias f4 [2]
0.13581322 0.013541188
00000000: 9f12 0b3e dcdb 5d3c
