dkl_kernel_for_Width.pth (torch, 50513 bytes, 16 tensors)

likelihood.noise_covar.raw_noise f8 [1]
000000 e8 9d dc 32 69 43 05 c0
       -2.6579154943062697

likelihood.noise_covar.raw_noise_constraint.lower_bound f8 []
000000 2d 43 1c eb e2 36 1a 3f
       0.0001

likelihood.noise_covar.raw_noise_constraint.upper_bound f8 []
000000 00 00 00 00 00 00 f0 7f
       inf

feature_extractor.linear1.weight f8 [100, 2]
000000 a9 1c 48 fe df 11 e5 3f 33 ab d6 81 73 d5 be 3f
       0.6584320036353307 0.12044450683485479
000010 b1 2b 2c 55 82 c5 d7 3f a3 4b c6 89 c0 4f e3 bf
       0.371429999519644 -0.6034853640470498
000020 8d 48 74 89 50 54 ec 3f 26 6e 3f aa 40 27 6c bf
       0.8852923092511148 -0.0034366858471750637
000030 23 93 01 75 13 01 f0 bf 8c 4d c8 54 ba 2c d5 3f
       -1.0002626963188923 0.3308549716905069
000040 85 1e 39 b0 ec 89 e5 bf 75 37 62 90 f5 0a e4 3f
       -0.6730864946229792 0.6263377971642813
000050 99 5e 5d 87 fa 35 65 3f 7c 71 f9 ce 5c 4c cd bf
       0.0025892155780800727 -0.22889289957209857
000060 50 cf e0 d2 39 88 ae bf 4b 9d 87 f2 11 7b e0 bf
       -0.05963307093807535 -0.5150232064160404
000070 ad c5 4e cb 6f bd d8 3f aa b8 be 82 0f e0 de 3f
       0.3865622983385844 0.48242557304446143
000080 a2 5e fd 87 1f 91 ba bf ed b1 a6 da 70 ba b1 3f
       -0.1037769038206258 0.0692511113945284
000090 ac 24 02 fc f2 fb d5 bf c0 6a 92 da 5a cb b5 bf
       -0.3435027562159785 -0.08513419948796308
0000a0 98 54 21 32 36 c2 b2 3f bc 55 32 07 95 0a cf bf
       0.07327593540078892 -0.24251044131658073
0000b0 f0 9f a5 fe 12 ba bb 3f 40 51 f9 51 0e 63 de bf
       0.10830801693884928 -0.4747958946729973
0000c0 ae 9f 20 52 10 0e da bf 03 92 fd d5 b2 75 c3 3f
       -0.40710838337190125 0.15202937554126103
0000d0 6d e5 15 3c 8a c4 d3 3f 43 b7 90 fe ae 51 d4 3f
       0.3088708483479284 0.3174855695714209
0000e0 c2 62 14 28 58 bb e0 3f cc 6b 30 03 e9 b4 bf 3f
       0.5228691847615539 0.12385422065601331
0000f0 b4 87 a6 e3 29 62 da bf 21 44 18 31 f8 ca e7 3f
       -0.41224143249030054 0.743526550186406
000100 20 33 fa 5a c2 73 ad bf 43 56 60 7c 8e 49 e4 bf
       -0.05752379761279358 -0.633979075357907
000110 b9 a7 8c b0 4f 99 e3 3f 9d d8 fe 7d 68 be c5 bf
       0.6124647567969453 -0.16987329628108663
000120 ca 8e 06 58 46 64 d5 3f 02 71 97 20 a5 4a dd bf
       0.3342452869057807 -0.4576809709813149
000130 c3 d7 b1 4d 6e e5 ce 3f 6b 1b af 64 e7 51 e1 bf
       0.2413766745918889 -0.5412480322346317
000140 50 26 03 09 ad db af 3f 66 1a 2d 2e 00 17 d6 3f
       0.062222869253287016 0.3451538515986726
000150 89 28 6d 98 7c cc e8 3f f7 21 d7 d0 ad 63 d0 3f
       0.7749617554739113 0.2560839213806782
000160 19 85 25 9a 48 5a e9 3f 85 7e 41 05 f3 d3 d2 3f
       0.7922709475207369 0.2941863585783511
000170 cb d1 95 30 d0 fe f1 bf 8a e5 a5 e1 93 83 df 3f
       -1.1247102640019075 0.49240586315098567
000180 88 6b b3 2e 6e 08 ba bf d4 6f 69 21 e9 09 c0 3f
       -0.10169113769681648 0.1253024495262013
000190 a4 16 f0 43 f6 b5 be bf ae ad 2d 71 d2 04 e8 bf
       -0.11996401938093953 -0.7505886278644789
0001a0 eb 30 3f cf d4 16 e3 bf 58 df be 73 0c b9 d1 bf
       -0.5965370223798606 -0.2769194727256852
0001b0 d8 b2 33 f4 6f e0 b1 bf b6 7c 17 6e 01 2b d7 bf
       -0.06983089172326673 -0.36199985266825807
0001c0 7a 4d d1 d2 64 1e c9 3f d9 05 2d d0 20 c0 db 3f
       0.1962400464422947 0.4336015732734189
0001d0 78 61 05 90 76 1d d8 bf 2e d7 f9 85 40 18 db 3f
       -0.37679828705360974 0.42335522731387953
0001e0 49 bb 8d ea c0 8a d6 3f 1d bb f7 4a b7 bd c8 bf
       0.35221884637478645 -0.19328967247516796
0001f0 fe 69 c8 70 c9 9a e6 3f 15 1e fa df b1 fb bc bf
       0.7063948824682595 -0.11321555822552683
000200 33 e5 e6 17 0a e4 de bf 10 8c 82 e6 dd 2c a7 bf
       -0.4826684220712025 -0.04526418150751266
000210 f8 bb ff c8 3e ad bc bf c0 23 a7 48 78 be c3 3f
       -0.11201851279450625 0.15425017879013403
000220 9f 34 87 bb 6e 87 92 bf c8 a1 c0 06 d5 d2 d0 3f
       -0.018094759174165472 0.26286817225857506
000230 1b 39 f1 3e b9 ea b0 bf 3e 11 67 5e 9d 79 d8 3f
       -0.06608159815479946 0.3824227735424478
000240 2d b0 d2 fd 3d f2 db 3f 37 2d 4e 9b 22 f7 bd bf
       0.43666028773691573 -0.11705223361621085
000250 67 44 4c bd e2 0c e2 bf 18 82 0a 7e 70 ff d6 bf
       -0.564072961542604 -0.3593407851094823
000260 39 e4 0d b2 32 8a e2 3f ce 02 6a 58 ac c5 da bf
       0.5793698766348206 -0.41831501611890765
000270 33 a6 33 f1 e1 d4 c1 bf 12 c9 9f ce 76 bb f0 bf
       -0.13930916097096854 -1.0457676001793215
000280 63 29 be d7 1c be c4 bf e5 72 fe 2e 23 a2 d0 3f
       -0.16205177816693625 0.25989608372928635
000290 13 58 44 0f 0e 24 67 3f 95 42 88 3d 82 af d3 bf
       0.0028248095133092204 -0.30758720406542156
0002a0 55 15 cd 6b ac cf c4 3f 90 87 f3 50 09 14 67 bf
       0.16258769286847988 -0.0028171712834685406
0002b0 ea ff 12 c0 a4 a5 e9 bf d3 a3 e9 a8 46 24 b1 3f
       -0.8014701606225547 0.0669597780594267
0002c0 88 96 6a 97 98 56 c9 bf 77 34 41 1a 7f 35 f0 bf
       -0.19795520203949857 -1.0130606675695881
0002d0 7d 6d e0 8e 45 6b d1 3f bb c5 97 66 f1 07 cd bf
       0.2721723456649768 -0.2268049002591804
0002e0 71 39 47 b9 92 41 b2 bf 9b 27 53 57 7c 9e e8 3f
       -0.07131306670564698 0.7693463998377753
0002f0 1c f3 d1 23 b2 82 c3 bf 6e 3d ab e3 15 2d e0 bf
       -0.15242602108983128 -0.5055036017092058
000300 5a f1 8c 24 02 59 dd 3f a1 1f e8 75 5f d9 e2 bf
       0.45855763978376773 -0.5890347769609329
000310 a0 e9 75 09 07 57 c6 bf 60 9a 67 c4 1f 8f 97 bf
       -0.1745308681673352 -0.023006912577239524
000320 40 52 d4 9f 9c 19 d5 3f 99 1e f0 f1 f9 31 ec bf
       0.32968822105729956 -0.881100628409473
000330 6c 84 ed ee 82 55 e2 bf ee 4c a2 48 c4 ed da bf
       -0.5729384104307775 -0.4207621297184251
000340 e4 e6 22 01 86 fc c2 bf ef 2f 13 55 ff 89 e0 bf
       -0.1483314042614473 -0.516845384752285
000350 c1 cf 58 49 95 dd d1 bf 64 90 db f8 0d 44 dc 3f
       -0.2791493622091786 0.4416537218332961
000360 df 73 31 5a 2a 9c da bf f0 86 67 bc ec fb b4 3f
       -0.41578158195426157 0.08196906661717285
000370 35 f9 56 a6 90 ee b7 bf e7 b5 06 8f 4d c3 e2 bf
       -0.09348396359471141 -0.5863406938057637
000380 d9 15 2f 5e 3e c7 a6 3f 15 ef 39 99 5d ac d2 3f
       0.044488858220158974 0.2917703625059727
000390 06 74 41 3b 3c 37 e8 3f 46 a9 e8 82 25 cb a8 3f
       0.7567425877892908 0.04842488501556601
0003a0 bf 9f 58 b9 b7 c8 b2 3f 77 d7 f1 84 95 f2 cf 3f
       0.07337520861676604 0.2495905779975904
0003b0 dd f6 bd f7 1f de cd 3f 4f 63 1b 2e a4 8f c3 3f
       0.2333412131956071 0.1528210854655989
0003c0 a7 63 9b 83 ca ca c6 3f 2c 3d ad 11 81 70 db bf
       0.17806369234201933 -0.4287417099594275
0003d0 92 f5 21 3b 65 07 db bf d1 fe 34 c9 1f 16 e4 bf
       -0.4223263814418142 -0.6277007036041714
0003e0 37 e8 88 c6 7d b9 ec bf 0c 5b 6e 2f 47 8d d6 bf
       -0.8976429822571451 -0.35237292892399874
0003f0 2a c3 32 f7 56 2a dd 3f 81 47 4d f4 37 5f ec bf
       0.45570921078165105 -0.8866233607788986
000400 7a 2d 13 7d 6c 52 e2 bf 46 b6 63 88 a0 9f c9 bf
       -0.5725614970082653 -0.20018393191951328
000410 07 20 62 d4 6b d3 c1 3f d5 e9 32 7f ca f3 bd bf
       0.13926456327703837 -0.11700120549622935
000420 eb 2f 8a 0a 59 b7 c5 bf 93 b6 7a b7 19 47 d6 bf
       -0.1696578313316189 -0.34808962743668664
000430 db 63 2b f1 78 17 d2 3f 3a ca 7c 9b 96 7b 9a 3f
       0.2826826434298348 0.025862076988412343
000440 09 36 52 00 12 47 f0 bf f4 0c c9 ab 83 f2 b5 bf
       -1.017351151709024 -0.0857317251584851
000450 94 60 97 90 e3 95 c7 bf 38 52 9f 8c 53 b1 ca 3f
       -0.18426174697993203 0.20853657118154145
000460 00 77 ca c4 37 a1 cd bf 38 01 f7 95 c5 e3 be 3f
       -0.231482478226944 0.12066302214862368
000470 1b b7 35 15 a4 a8 e6 bf 38 f3 0e 30 97 29 c1 3f
       -0.7080860533003234 0.13408174368478298
000480 c8 bd 43 8d dd fc cb 3f cc 56 ba 58 c6 a2 ed bf
       0.218654340721953 -0.9261199696508924
000490 af e1 cc a3 0b c3 d9 3f d4 a9 3d 02 6e d0 c1 bf
       0.4025296306240546 -0.13917327031533822
0004a0 38 68 f0 ca 9d 5d d4 bf ac dd fa f3 a4 2e d7 bf
       -0.31821389024992497 -0.36222194505850314
0004b0 40 3b a9 be ee 92 8f 3f 92 74 23 e1 7e 28 e1 bf
       0.015416970437539868 -0.5361933133350638
0004c0 89 3a 19 10 ba 86 d9 3f b9 6a ff 2c de 84 b2 bf
       0.3988480717861554 -0.07233990286423876
0004d0 ee ea e4 67 ca 4f d2 bf 4c 72 44 38 23 d1 ee bf
       -0.2861200346557514 -0.9630294894191791
0004e0 b4 c2 b8 f4 8b 23 c9 3f a5 6d d2 77 6a 7f d9 bf
       0.19639729928305416 -0.39840184880605484
0004f0 b9 e1 dd 5d 7d 74 b1 bf 4f 27 47 8b d1 24 e7 3f
       -0.06818374196689704 0.7232444496414504
000500 a6 7a 33 30 35 3a ce bf 18 e7 b9 83 50 99 c4 3f
       -0.2361513600689779 0.16092878753607276
000510 47 0e 7f 92 6d 99 d6 bf d0 b9 1e 54 35 01 e0 bf
       -0.35311450296669417 -0.5001474993676371
000520 a9 65 b6 a0 44 9b e0 bf 92 9d dd da 89 6a e3 bf
       -0.5189536227145953 -0.6067551874847814
000530 80 9e a6 9f 74 a4 d9 bf 11 ae 42 6a 4f 36 e5 bf
       -0.40066257086662205 -0.6628796649360443
000540 bc 90 dc 50 b6 66 eb bf 97 d0 0c 90 ea a2 e7 bf
       -0.8562881068542292 -0.738637238834161
000550 95 19 7e f4 a8 56 94 3f 10 40 7a ef e4 73 8d bf
       0.019861831591265384 -0.014381207044863259
000560 a1 9c e2 0f 64 35 d1 bf aa d2 e6 83 64 b3 d6 bf
       -0.2688837199334078 -0.3546992576696463
000570 ad 12 8f 36 d0 b4 ca bf de 96 ac b8 c5 52 d3 bf
       -0.20864298500068426 -0.30192702326381304
000580 4a f1 6c 99 f0 18 22 bf a4 08 4a 0a ec ec e0 3f
       -0.00013807236674690866 0.5289211464844539
000590 b5 d5 f4 9d 0a e8 e4 3f 8c b2 92 60 6c e0 e4 bf
       0.653325375088278 -0.6523954282943847
0005a0 68 48 8f af c3 5f d5 3f 4b e2 74 35 ac f7 dc 3f
       0.3339699949693853 0.4526167413746733
0005b0 58 5b 1d 0a 49 eb d0 3f 12 ef 48 7a 92 45 c6 3f
       0.2643606756950496 0.1739981743902424
0005c0 90 c9 a7 85 a0 df cf bf c2 95 8b 35 a3 39 d0 3f
       -0.24901205564635776 0.25351791600254725
0005d0 35 49 ae 5d f9 70 e6 3f f7 ff 5f a2 f6 54 bb bf
       0.7012907819464888 -0.10676518882974038
0005e0 e3 4f a9 5d 56 b9 f5 bf 37 a5 43 8b 0f 8c cb 3f
       -1.3577483805320234 0.2152118139268084
0005f0 37 6d ff 4d 02 a1 f7 bf 4a 76 c0 bb eb 95 de 3f
       -1.4768088385379323 0.47790044150483324
000600 a1 ad 02 23 a3 2a e5 bf b8 c5 22 bb 30 19 e2 bf
       -0.6614547427938541 -0.5655749945637387
000610 a8 b9 b3 5a 3d 5f d4 bf ec cc f0 56 01 74 c8 3f
       -0.31831296784994345 0.19104019875667377
000620 5f 54 97 3c e0 92 ed bf 39 62 fe 87 3e e9 dc 3f
       -0.924179190008214 0.4517361000121443
000630 b6 f2 4f e0 5e 06 d0 bf 72 4d 0a e0 62 18 d7 3f
       -0.2503888311910417 0.360863417424489

feature_extractor.linear1.bias f8 [100]
000000 a0 b9 85 0c e3 28 b1 bf d3 a0 bb be 0c 05 97 3f
       -0.067030134732454 0.022480200902379743
000010 f6 42 a1 5e 55 64 e7 3f 95 5b c3 86 60 2b cc bf
       0.7309977386704236 -0.22007376270513804
000020 2d b8 6e fc 4f 18 e1 3f 3a 7c c2 71 06 3b d9 bf
       0.5342178278276656 -0.3942276106772088
000030 78 89 b7 dc 70 62 ce bf 3c 56 65 b7 95 80 dd 3f
       -0.23737917687601473 0.4609731951689786
000040 a4 58 fb 16 8d 45 d0 3f e8 8a 19 7c e7 af d5 bf
       0.2542450642043923 -0.33886134261244516
000050 90 01 64 6e 8a 6c ad bf 7c 6b 7d 72 18 77 d3 bf
       -0.057468725181027414 -0.30414401226669674
000060 f3 71 d2 39 f7 19 e8 bf b7 5d 75 8c d8 2f a3 bf
       -0.7531696442925394 -0.03747441019612146
000070 1c d5 f6 1f e9 f1 e2 bf eb a4 30 ba e4 9f e7 3f
       -0.5920301079083035 0.7382682453655013
000080 f9 70 a8 95 4e ba e1 bf a5 05 f1 8f d4 8a ee 3f
       -0.5539925501830388 0.9544470607144616
000090 bc 2e 11 02 9f dd df bf bf 85 58 62 91 a0 de 3f
       -0.4979016800104821 0.4785502872856248
0000a0 71 83 72 ee ed de db bf 60 bb ea 28 5a 78 c8 3f
       -0.4354815319621173 0.19117285726448596
0000b0 01 c8 ec 2a 80 b9 b0 bf 28 8f b5 aa 57 f6 d0 3f
       -0.06533051536533209 0.26503554983922806
0000c0 05 31 14 05 5e 1e dd bf 8a 4f d5 ef cc 8a d7 3f
       -0.4549784707640046 0.36784671231475186
0000d0 bb 50 dd 80 72 41 d5 3f 88 de 9f 9c b3 ec b5 bf
       0.3321195848886977 -0.08564302991714545
0000e0 b4 55 36 1e 4c 69 d8 bf fd 6e 7c bc 33 b5 d6 3f
       -0.3814268393556077 0.3548096981701148
0000f0 9d 84 37 b9 fc 90 e3 3f b0 b7 ac a0 08 42 ec 3f
       0.6114486329571666 0.8830607546021749
000100 73 b3 c6 b1 d1 44 77 bf 68 00 8b d2 ed 15 dd bf
       -0.005680865401171842 -0.45446343956792257
000110 1d 41 c4 48 89 96 c6 3f 86 ed 20 2b ca 0d da 3f
       0.17646900227601572 0.40709165775088996
000120 37 06 a5 2b ee 27 d0 3f d6 71 52 90 db 9c da 3f
       0.2524371553628017 0.41582383245420595
000130 60 fa 15 fa 1a 5b e6 bf fd db 70 53 da f1 d4 3f
       -0.6986212620248118 0.3272615256168477
000140 ce 19 ae 60 d1 09 e4 3f e4 92 84 c7 bd 78 da bf
       0.6261984718592488 -0.4136194656769432
000150 33 93 a1 fd 81 af e5 3f d1 a4 41 0c 79 4b d8 bf
       0.6776742891057438 -0.379606496781503
000160 3e 07 38 e1 d0 8a c3 3f df c8 3f d3 31 41 d9 bf
       0.15267382618918107 -0.39460416440773644
000170 50 85 ea 65 4b 25 d9 3f 04 32 fd ec c5 dc d7 bf
       0.3929012770914442 -0.37284992354833
000180 bd a2 0e 6e 67 15 e5 bf 00 52 2d fd 8a d8 c5 bf
       -0.65886279578725 -0.17067086565170086
000190 57 4e 4b fd 66 39 e7 bf 28 e2 c3 0d 2b 43 cf bf
       -0.7257571169997828 -0.2442373101437323
0001a0 65 77 d6 ea 4c 73 db bf 65 db b5 d1 9c 70 ec bf
       -0.42891238149046834 -0.8887466522126998
0001b0 c8 08 bf c9 88 e0 c3 bf 65 88 f6 b9 bc 77 d7 3f
       -0.15528974390878703 0.36668317947817847
0001c0 ee 6e fd bf 61 ad eb 3f de 55 99 6d fd 39 d3 3f
       0.8649147748760393 0.30041442587875433
0001d0 6e af 2b ed 4e 9e e4 bf 8b 19 4f 4a ff be e0 bf
       -0.6443247444380924 -0.5233150912616095
0001e0 e2 4b f8 3f a0 48 e4 bf 8e e3 c9 aa 2d 43 d0 bf
       -0.6338654755985511 -0.25410024336411474
0001f0 15 f7 2f ec 17 32 d8 bf 7f 78 05 be ef 8d d8 3f
       -0.3780574614064432 0.3836631160428467
000200 8a 31 12 18 5d e0 c6 bf 5c dd 31 19 19 85 ed 3f
       -0.17872203517289292 0.9224973194203971
000210 51 40 ea 56 89 84 e7 3f 61 e0 32 74 41 c1 d3 3f
       0.7349287698325587 0.3086703905823978
000220 8e 69 1f 34 75 88 af bf 8c 57 4f 7d 34 2b e0 bf
       -0.061587965595850766 -0.5052740523776591
000230 27 90 72 74 40 28 d9 bf 35 18 04 8f c0 c3 dc bf
       -0.39308177348925927 -0.4494477650299616
000240 bd 0d 24 3e b8 4d dc bf 3e 9a 6c d7 89 eb c3 3f
       -0.4422436339229668 0.15562556284676704
000250 da 7b 54 8c 84 31 d7 3f 22 09 15 ec 25 53 d6 bf
       0.3623973246012021 -0.3488249593248317
000260 c9 c3 30 e9 5f f9 e4 bf 93 64 bb df 07 0f b3 bf
       -0.6554412416936596 -0.07444810116011728
000270 2f f4 0e 20 4e ca e5 bf d2 fe 73 60 c3 61 ec 3f
       -0.6809454561367881 0.8869339832162615
000280 1b 8a 09 6f 9b b7 dd bf 95 31 9d a6 c1 fe dd bf
       -0.46433149188502093 -0.46867409964468126
000290 d2 06 cd 86 f4 98 d7 bf 41 0a 85 8d eb 64 ab bf
       -0.36871064342640836 -0.0535043344739461
0002a0 d0 be 52 31 7f 99 b7 3f bd 77 41 e9 1d b7 de 3f
       0.09218592600040698 0.47992656496887404
0002b0 5c e1 08 ec cd e1 d0 bf 3c b8 af a1 90 79 d8 3f
       -0.2637820057893998 0.38241973676383956
0002c0 36 a1 44 d6 30 33 d2 3f 79 c8 10 a2 94 37 e0 3f
       0.28437443661325135 0.5067847409575413
0002d0 66 cd f0 9a b7 2a e5 bf c2 e7 9c 69 84 d5 d9 3f
       -0.6614645029243718 0.4036570578933799
0002e0 b1 0c 11 b2 96 07 d7 3f 13 e6 e1 d4 69 c2 e6 3f
       0.3598381747180595 0.7112321050510125
0002f0 fd c9 17 a3 cd fc d9 3f a3 e1 89 90 0f a6 d4 bf
       0.4060548870758394 -0.32263554682824686
000300 c4 a8 97 58 63 37 c1 bf d8 a8 83 c0 fe b3 e0 3f
       -0.13450280977060036 0.5219720611615015
000310 1f bb 4f 2f c8 11 de 3f 54 89 76 b6 21 16 dc bf
       0.4698353254342908 -0.438850811182552

feature_extractor.linear2.weight f8 [50, 100]
000000 08 d1 b5 2d 99 90 90 3f 50 98 3c 94 94 3e 7c 3f
       0.016176598944597692 0.006895618807709239
000010 cf bc ca 90 d0 f3 b1 3f 7f 66 71 9c e9 ba ae bf
       0.07012656722030218 -0.06001977953628756
000020 d6 9c fd b5 d6 a9 b3 bf 17 fd fa f7 1f de b7 3f
       -0.07681028311855029 0.09323310665330485
000030 40 92 ce fc 8f ab 63 bf 98 ff 59 f0 9c 9f 96 bf
       -0.0024011432892215023 -0.022093250436682504
000040 26 2d 5c b0 56 12 ad bf e4 7f 15 35 92 b0 b7 bf
       -0.05678053763230144 -0.09253801151271507
000050 0e 10 6f fd 45 a8 b2 bf 11 c3 2b cd 92 5b b5 3f
       -0.0728801482901533 0.08342854985290794
000060 11 d4 9d 00 7b 02 b5 3f 62 f5 56 77 11 56 af bf
       0.08206909909297645 -0.06120352346213555
000070 c3 b1 d1 33 fb 6f b5 3f 7e 97 90 15 e3 0d b9 bf
       0.08373994841685488 -0.09786814953312548
000080 3f db 07 1c ed a1 a6 bf d3 dc ea 87 86 06 b4 bf
       -0.044204148933138836 -0.07822457140251808
000090 16 a2 27 a7 13 6a b5 bf d6 a0 b1 5a 17 ed a2 3f
       -0.08364985304763936 0.036965112515476115
0000a0 55 9b 0d 89 d7 0a b9 3f b0 c7 a3 d4 77 d2 86 bf
       0.09782168479942517 -0.01114362352061335
0000b0 84 7e bc 16 14 5f 9c 3f 54 e2 52 fb 62 1c b4 bf
       0.02770644558688541 -0.07855814586481219
0000c0 fd 1d 1f a2 37 7e b6 3f ad 93 11 d2 c6 7b b7 3f
       0.0878634234242028 0.09173243168477425
0000d0 83 4e c4 f0 99 f4 ab bf d0 f2 8b 9f 85 83 a1 bf
       -0.0546005350498975 -0.03420655796614869
0000e0 e7 7b e0 e2 dd 0c b2 3f 4e 1a 42 fc 6f 87 b6 bf
       0.07050883091913783 -0.08800411137244987
0000f0 8b 12 a7 f9 df f3 b0 bf 40 ab 71 ad b5 48 97 3f
       -0.06622123570475417 0.02273830290907175
000100 86 39 80 d5 d6 4c a3 bf 1e 6e 6d dd 16 6c ae 3f
       -0.03769561153613936 0.05941840603801672
000110 f7 a4 68 1a 70 a5 b7 bf 5e 8b 50 2a 71 ef ac 3f
       -0.0923681320642976 0.05651429788146943
000120 c2 f0 29 49 e8 b1 a6 3f d6 cf db 23 48 65 b6 bf
       0.044326075488216 -0.08748293757872658
000130 60 e1 2b 05 04 ae 9b bf 15 23 56 c4 02 6c b3 3f
       -0.02703100472987907 0.07586686414118689
000140 90 af eb 90 f5 3f 8c bf f2 37 f1 0e 04 a3 ac 3f
       -0.013793867573859392 0.0559312122573913
000150 a8 a1 e0 d7 b8 05 88 3f e2 9c 73 eb 41 e9 af 3f
       0.011729663932855086 0.062326488486911705
000160 48 1f b5 9f b4 26 b7 bf 64 34 50 b5 29 9b 9c bf
       -0.09043435000523659 -0.027935649577603874
000170 a9 e9 fb a8 df bd b2 3f 60 f9 99 1b db 9e 93 3f
       0.07320974231325884 0.01916067462888671
000180 dc 51 32 40 b5 6f b7 bf 71 02 25 ef 83 da b8 3f
       -0.0915482789735686 0.09708427990427439
000190 c0 c8 74 7b c3 4f 5b 3f 59 ff 50 65 08 7c b7 bf
       0.0016669663435320697 -0.09173634027046997
0001a0 c4 49 cf 4c 25 72 93 3f e4 44 cc be 9c 9d 9a 3f
       0.01899011880215952 0.025991868157750356
0001b0 83 a6 11 cf 15 93 b1 bf 5c a5 a6 e4 41 5c a5 bf
       -0.068650591901724 -0.041719493066305374
0001c0 00 79 38 4e 89 7c 6b bf 4c 11 92 6d a4 bd a3 bf
       -0.0033552819966323755 -0.03855623090297175
0001d0 13 62 a9 e2 03 7f ab bf 40 0f 79 a2 89 21 56 bf
       -0.05370342389932516 -0.0013507694328760006
0001e0 6e 11 b5 a6 45 fc a9 3f 80 88 f2 2f 06 f9 93 bf
       0.050752808189403406 -0.019504639317013517
0001f0 1b b3 8e 53 15 f5 b0 bf 93 bc 8e 94 2a c2 b4 3f
       -0.06623967447258076 0.08108774306195903
000200 00 60 07 0e 17 55 31 3f 66 0d 3c fb d5 51 b2 bf
       0.00026447117673233933 -0.0715612161985085
000210 a0 5c f6 88 71 24 7c bf dc ea 8c 46 ec 85 9d 3f
       -0.00687069272625887 0.02883118801694705
000220 20 6e 0d 64 c1 b9 a0 bf 75 11 13 17 1a 6c b0 3f
       -0.032667201484141595 0.06414950431196138
000230 73 3e 72 3d 51 0f b5 bf ce 9b 77 d4 63 a2 b8 bf
       -0.08226497411873783 -0.09622787415683762
000240 a5 80 0e 54 b2 cd b3 3f 40 07 a2 af 67 53 84 3f
       0.07735743095554655 0.009924707457915738
000250 40 c2 31 f7 78 64 9a bf 94 50 b0 ca de b2 93 bf
       -0.025773897254511846 -0.019237023469103123
000260 fc 59 04 4e d4 4a a0 bf c0 2c 41 6a 03 9f 82 bf
       -0.03182090237003263 -0.009092356376774524
000270 75 f7 f7 67 75 c8 b8 3f e0 f7 44 f4 a7 64 71 3f
       0.09680875576301935 0.004246383734708176
000280 bb da 63 19 7e e6 b1 3f 50 a1 7a 4c 4f 3f 79 3f
       0.06992328758119985 0.006163892517783445
000290 df b8 e1 93 61 d2 b8 3f 2e 9d 4e 5e 8f 52 a8 3f
       0.09696016178506593 0.04750488306245369
0002a0 8f 2f bb e5 f8 b9 b5 3f 80 d6 6a c0 ee 32 4a 3f
       0.08486896141692866 0.0007995286731190127
0002b0 d2 aa 2c 18 eb 29 a5 3f f4 76 35 eb e9 b9 9c 3f
       0.041335436535822404 0.028052954655655563
0002c0 15 47 f3 d8 80 61 b4 3f 24 cc 1f c4 e4 66 b8 bf
       0.07961278244627253 -0.09532003200710953
0002d0 06 f7 50 0e ff 24 ab bf 69 99 0c 22 1e 55 b4 bf
       -0.05301663446196696 -0.0794237931373566
0002e0 d8 f5 25 7a 99 34 92 bf 61 9c 5f 90 63 c6 b0 bf
       -0.01777877624544097 -0.06552717470877802
0002f0 56 84 1b 81 74 13 a2 bf 1e 31 80 f7 10 bf a8 3f
       -0.03530468059558049 0.048332720005506355
000300 b3 6b 27 fb 59 a4 b3 bf 60 c8 15 72 0f 12 69 bf
       -0.07672655469597948 -0.0030603696511031647
000310 a1 ff dc 06 11 67 b1 bf 7c 56 40 00 9d da 9b 3f
       -0.06797892015037955 0.027201131000842413
000320 cb 42 24 c9 a7 13 c7 bf 5e ef ed dd 4f 71 d6 bf
       -0.18028733559960694 -0.3506660144118906
000330 ee f9 5d 7f 03 4d c5 bf 75 e7 82 81 b4 6a d3 bf
       -0.166412770453419 -0.30338776252357685
000340 8f e8 2d c4 32 6c d4 bf 47 81 78 ae 1b 71 d0 bf
       -0.3191039005101936 -0.2569035724464083
000350 1b d4 5a dc 69 17 b3 3f 8f 56 40 ac 12 dd ca bf
       0.07457601194148859 -0.2098716107436087
000360 5a 52 4d 87 1d 46 ce bf d5 b5 27 40 14 f5 b4 3f
       -0.2365147505430681 0.08186461035048549
000370 79 30 7d c6 1e 3a b8 bf 08 2a 43 da 69 1a 90 3f
       -0.09463684411929475 0.01572575945537305
000380 b9 53 3f 0a 42 e2 c5 3f 64 25 50 b5 1f ad cd bf
       0.17096734524116444 -0.2318458209340789
000390 f0 14 7c 86 9e 52 ce bf 56 57 78 44 98 f1 d5 bf
       -0.23689633909831498 -0.3428707760480071
0003a0 ee 1d 2a 14 76 e6 ae 3f af 3d 8d ef 63 2a d5 bf
       0.06035202976368824 -0.330712303101758
0003b0 a8 b3 a4 11 13 15 85 bf 1e ea 10 c3 ec be ac 3f
       -0.010294102645809947 0.056144141017700586
0003c0 f6 fd 92 d0 68 2b b3 bf 3f 24 88 29 3f d1 c6 bf
       -0.0748811253752065 -0.17826070335311958
0003d0 0a 82 ad d2 43 cf d1 bf 6c 78 22 41 fb 2f 9c bf
       -0.2782754475975088 -0.02752678475427965
0003e0 a1 11 4b 90 0c 29 b4 bf 22 1b da 3d 18 05 d2 bf
       -0.07875135920318722 -0.28156095543129045
0003f0 1c b7 49 1f 19 be a0 bf 90 d6 68 cd ed 06 88 bf
       -0.03270033366139399 -0.011731965857602306
000400 dc e6 08 9b b5 51 d3 bf 1b 28 ef 9c 51 88 c8 3f
       -0.301862145806451 0.19166011965563787
000410 26 d4 d7 ed 90 57 d2 bf f1 cc 89 72 8a aa d2 bf
       -0.28659461237777106 -0.291658984998505
000420 16 96 61 dd 80 16 d2 bf e0 b2 57 17 3e 39 90 3f
       -0.2826234971929308 0.015843362974851227
000430 2f f8 96 27 1f f5 c8 bf 06 b3 94 72 80 b7 ce bf
       -0.19498052056400314 -0.23997502894180672
000440 60 62 1b ab 21 c8 d1 bf 10 f7 74 05 13 64 c5 bf
       -0.27784005841889403 -0.16711652533006616
000450 4b c3 b6 9c 86 2f b0 bf 71 0f bb d6 f8 28 d5 bf
       -0.06322518659613967 -0.3306257340411696
000460 c6 9a c7 b6 76 21 ac 3f 4e 9b b7 e6 ae d8 d3 bf
       0.054942807971931226 -0.31010029345491297
000470 77 24 fe 0f 2b 9e d6 bf 2b 63 3d d5 37 7a d4 3f
       -0.3534038215808048 0.31995960067938495
000480 2e ce 17 a4 ba 11 ab 3f 48 ca 68 8b e3 f1 c5 bf
       0.05286963704193358 -0.17144436175438416
000490 62 25 4d 0e 52 39 d4 bf 10 8a 69 0d 3a e3 b3 bf
       -0.315998567548908 -0.07768595530937028
0004a0 2f bb 35 36 d8 65 b5 3f 40 4b f6 c1 06 f7 6d 3f
       0.08358527492030697 0.0036578304277069817
0004b0 b0 fa 19 ab d0 24 75 3f 7c a4 16 81 a3 8e b8 bf
       0.005162062750626958 -0.09592649365971967
0004c0 36 cb c3 1f 1d 63 a1 bf 0f 3f 15 87 a7 66 c5 bf
       -0.03395930302385468 -0.1671952638230256
0004d0 80 c7 6c d1 f1 00 98 3f 42 98 7d 48 d4 e7 c9 bf
       0.023441103369982397 -0.20238736667232798
0004e0 8a e0 16 00 61 2d d0 bf ec ca 13 2c 04 fe d5 bf
       -0.2527697087166493 -0.343628924412015
0004f0 39 70 da df 7e 8e d6 bf 9a bb bd 1d f2 bf d0 bf
       -0.3524472414080751 -0.2617154398384912
000500 69 76 7b c9 c7 32 d6 bf 75 7f c4 f5 1d b3 b3 3f
       -0.3468493907547328 0.07695185899910746
000510 5a 44 d9 70 b1 30 a4 3f 5e b9 0e 30 28 6c d4 bf
       0.03943399908588026 -0.3191013783752136
000520 22 0a c1 cc 16 32 ab 3f eb bc f6 18 84 4d d4 bf
       0.05311652421416492 -0.31723120153306067
000530 fc 97 bc 31 65 4c c6 bf 8b 99 c8 08 fa e0 cf bf
       -0.17420639923619763 -0.24905324391256686
000540 64 19 40 eb 2f 75 ca 3f 46 a5 9d 8a e7 08 a9 3f
       0.20670126902423214 0.04889606062972489
000550 f4 d2 ca 91 7b 11 9b bf 6d f9 10 8c 44 eb d4 3f
       -0.026433878682570147 0.32685960462904157
000560 2b dc cc c4 ba 3d c7 bf 07 ad 66 1e 36 c1 cd bf
       -0.18157133683573198 -0.2324588440363657
000570 d2 72 b2 64 25 c0 c9 bf c5 c5 bf 77 75 63 b2 3f
       -0.20117633263443807 0.07183012174188892
000580 63 a5 93 3f 00 fb c6 bf d0 82 80 bf 86 70 a1 bf
       -0.17953494171460269 -0.03406163299246645
000590 13 af f3 48 d6 65 a8 bf db 16 99 9f 22 0d d3 bf
       -0.04765195503736499 -0.29767671190016437
0005a0 fd ca b0 40 00 2b b2 3f d3 d1 cd a4 21 d1 a8 bf
       0.07096864299164092 -0.04847054611937875
0005b0 0e 77 db e8 2a 7c a6 3f 24 31 2a 6c cb 8a 93 3f
       0.0439160737275711 0.01908414695439932
0005c0 b9 e2 8d bc cb c8 a7 bf ab e4 51 f9 2f 0a d2 bf
       -0.04645382572829732 -0.2818717894329647
0005d0 24 44 7f 33 a2 2e 91 3f 27 9f bd 71 83 09 d2 bf
       0.016779455559859838 -0.2818306551694029
0005e0 e7 30 56 43 67 12 ca bf 3b 40 ce 29 c5 5b d4 bf
       -0.20368662631916054 -0.31810120661339497
0005f0 d1 5b b2 34 14 f5 c7 bf 7c 4d 7b 8b f6 8b ce bf
       -0.18716671536523546 -0.23864633379580968
000600 a5 8f 31 37 09 20 d2 bf 8a 5f b6 98 46 d7 cf bf
       -0.2832053221702558 -0.24875719505939414
000610 e6 ca c1 50 f6 16 a0 bf cf 77 bd da bb e7 c6 3f
       -0.03142518745234728 0.17894695454282192
000620 50 9f 6e 49 c1 a0 77 3f 7d 58 c6 98 71 02 d2 bf
       0.005768542315230565 -0.2813991538945471
000630 c0 d6 c6 f7 17 b5 d0 bf fa 22 e9 76 2e 98 aa 3f
       -0.26105307766861685 0.05194230271860607
000640 ca 42 9f 23 b7 63 ce bf 4c b6 03 d0 b9 20 c6 bf
       -0.23741807212220173 -0.17287371308286692
000650 97 82 c4 92 1c d9 d3 bf 2c 9b cc 79 23 1d d3 3f
       -0.3101264413144604 0.2986534776159029
000660 05 2f 92 5d 35 ee d3 bf d3 ea c5 8e 62 f9 d5 bf
       -0.3114140905170049 -0.3433462518948264
000670 54 a5 1c 95 b2 ca 9b bf bb 09 08 7f ba 2f c6 bf
       -0.027140417433803535 -0.173331558253336
000680 2c 92 94 78 90 2e d0 bf 4c b5 01 95 84 2f 94 bf
       -0.25284206176209767 -0.019712516398091837
000690 a6 8c 3d 1a 3e 3c ac 3f d9 fd 76 47 67 61 b3 bf
       0.055147114470650835 -0.07570500845667229
0006a0 60 36 26 1c c1 aa 7a 3f 2f 42 26 de 42 13 d2 bf
       0.006510500274442416 -0.282425610487766
0006b0 2a 5e a9 a5 76 a3 d3 bf 7d a0 ee de 73 c9 d6 bf
       -0.30685201814546537 -0.3560456921645779
0006c0 cf e4 83 35 92 5a a8 bf 6f 08 ba c9 bc 2a cb bf
       -0.04756600287687151 -0.21224174356399625
0006d0 7e cd 72 22 9d 66 a3 3f 72 4c 2a dc 70 bb d1 3f
       0.037892256217129536 0.27706548214445725
0006e0 86 8e 94 99 03 73 a7 bf a7 ba b5 80 4c 5d d5 bf
       -0.04579936265716093 -0.3338195092136779
0006f0 f5 e3 05 3d 1f 50 d6 bf 29 bc 43 e3 fc 51 d0 bf
       -0.34864026030805856 -0.25500414079482653
000700 d0 51 ce 10 c0 77 89 3f fd d2 14 69 da 5e cf bf
       0.012435436737896405 -0.2450821889011862
000710 c7 15 8f 17 09 2d d2 bf 6a 84 36 46 69 85 a9 3f
       -0.2839987497394216 0.04984597189037106
000720 fe 3b 0c 9e f9 ce c8 bf d1 6c e7 8e 84 fb ce bf
       -0.19381637780358568 -0.24205071428045824
000730 d3 7b 2d 23 fa be d2 bf 89 3e 20 e7 b1 1f c8 bf
       -0.2929063170940342 -0.18846725259253486
000740 01 72 d2 fc 10 f5 ca bf 30 9b 60 a8 a7 da 81 3f
       -0.21060383171870004 0.008717832399339182
000750 d6 3d 68 05 75 31 d0 bf f0 2c 35 0a 0f 34 c7 bf
       -0.2530186226658463 -0.18127620695518187
000760 1a 29 25 fb da 62 d3 bf 2c 33 1d d8 75 5e c9 bf
       -0.3029086544598997 -0.1981952004665798
000770 a1 1f a5 ba 09 c0 b7 3f 25 d6 2b 67 20 63 cf bf
       0.09277401739848169 -0.24521260297449135
000780 20 f6 26 db 3a 5c c8 bf 8d 49 29 08 35 af ca bf
       -0.1903146333769863 -0.20847189806461267
000790 ef dd 80 f1 46 8f d0 bf f2 d3 e0 d2 42 9f d5 bf
       -0.25874494156184275 -0.33784552186563055
0007a0 18 6d e5 e2 b1 08 ca bf 3d ad 06 2a a0 ab cb bf
       -0.20339034632602515 -0.21617509891562206
0007b0 22 f9 57 8c 54 10 d4 bf 74 df 81 fb 2e 30 b1 bf
       -0.3134967203658495 -0.0671414722472699
0007c0 29 08 6f 54 d0 b4 af bf 29 e5 e6 68 d4 09 b4 bf
       -0.061926374728060125 -0.07827498971063974
0007d0 fa c2 c5 ed cf d4 c6 bf f1 f5 fb ec 9d 87 b1 3f
       -0.1783695136068884 0.06847559962985607
0007e0 57 e9 a0 32 55 6e b2 3f 00 45 52 a2 58 f3 7e bf
       0.07199604497956123 -0.007556291796519732
0007f0 5d f5 60 83 65 10 b8 3f 07 22 1a c2 03 17 ca bf
       0.09400019128311983 -0.2038273523105689

feature_extractor.linear2.bias f8 [50]
000000 c0 9a ea 9c f4 d9 a8 bf dd 79 eb a0 09 87 d1 bf
       -0.048537868647419824 -0.27386704172923065
000010 bf 77 a2 40 88 0a d3 bf 80 e1 9f cc da de 7f bf
       -0.29751783668495685 -0.0077808901642061334
000020 80 7a c0 9e 1e 89 71 bf 62 7a 70 f6 bf 9f d2 3f
       -0.004281158075200353 0.29100035730690454
000030 68 d2 41 aa f9 70 a4 3f 3c be 30 90 54 54 b4 bf
       0.03992443278631158 -0.07941177864335541
000040 56 8a 22 e1 81 6b dc 3f 20 42 19 77 ca f8 d5 3f
       0.44406172738869054 0.34330999022225406
000050 59 64 d1 4a c9 0b af 3f 89 b9 5a 96 b2 91 d4 bf
       0.06063679731659794 -0.321392676191771
000060 26 0e e3 32 76 f7 b2 bf 0d d7 e6 30 4a 65 cd 3f
       -0.07408846609455874 0.22965361964968914
000070 ab 5a 84 d7 74 ec d1 3f 19 ae c9 43 0e 8c d3 bf
       0.280057154146031 -0.30542332286742774
000080 e4 ec 4f 51 40 83 a2 3f d0 a9 0a 61 b5 16 b6 3f
       0.036157617498213473 0.08628400439435002
000090 7f b4 f8 af ac 45 ef 3f ad cf a2 82 da d1 a8 bf
       0.9772551953261795 -0.04847605557134158
0000a0 98 48 45 68 02 09 d5 3f 74 92 52 69 51 b5 91 bf
       0.3286748903530081 -0.01729323582971394
0000b0 f8 a0 0e 61 32 7f a2 3f 88 00 c3 f7 19 8d b7 3f
       0.03612668452052675 0.09199678706045422
0000c0 51 a0 4c 4a 5b 07 d0 3f 01 84 cc 10 2a 87 a3 bf
       0.2504490113810834 -0.03814059691490713
0000d0 f1 b7 73 ab 95 1d a5 bf 08 fd 0e c7 fd 3f d7 3f
       -0.04124133794708474 0.36328072013198254
0000e0 47 0e f4 4b 2d 54 b6 3f a7 6f 5b 45 e0 3f db bf
       0.0872219381745306 -0.42577368519936915
0000f0 ed 3e 49 4b 17 72 ce bf 87 26 b1 98 00 e1 f8 3f
       -0.23785678077773956 1.5549322094470044
000100 ba b4 c0 07 c6 39 c5 3f 10 5f 37 ca 81 ec 82 bf
       0.16582560900261517 -0.009240163787509498
000110 13 79 5c cd 1d 44 ca bf 25 7a 15 a4 2a 50 b0 bf
       -0.20520374801066818 -0.06372324472383946
000120 2e 6b 2c bc dc ed d3 bf c0 d6 dd 3d 81 9a c6 3f
       -0.31139295936889055 0.17659011383846313
000130 1d d9 d8 3a 2e 1c c7 3f d0 66 f2 09 02 32 af bf
       0.1805475032176184 -0.06092840548917666
000140 a8 24 17 70 35 30 b8 3f 6e 27 33 88 46 84 d5 bf
       0.09448560701925379 -0.3361984567715045
000150 05 66 22 97 10 ce 9a 3f e5 bd 2d 3e 48 f5 cd bf
       0.026176699852475966 -0.23404791866367627
000160 73 f8 94 07 15 79 d3 3f f7 0b 70 e5 79 19 be bf
       0.3042652677576207 -0.11757623530870363
000170 00 a8 e1 63 e9 d0 ca 3f c8 34 eb db ac dd d6 3f
       0.2095004785253991 0.3572799823421744
000180 70 84 4a 24 81 f2 e9 3f 75 d9 db 01 05 f5 cc 3f
       0.8108525952158185 0.22622740355263785

feature_extractor.linear3.weight f8 [2, 50]
000000 fe 09 e7 c1 9f b2 bc bf fb c8 fc 62 a1 ae c0 3f
       -0.11210058673808729 0.1303292973839872
000010 11 89 b5 cf 42 58 c1 3f 46 0d 68 dc 8d d1 bf 3f
       0.13550601141020782 0.12429129248635204
000020 e0 bc c3 3a ad 38 a0 bf 7c 47 72 61 f6 e6 ab bf
       -0.03168240873662298 -0.05449647845774927
000030 00 92 d4 80 50 e1 89 bf 40 12 fc 21 95 22 93 3f
       -0.012636784488287311 0.01868660945821632
000040 47 60 64 b4 c4 09 d9 3f ec 26 7e 20 3e 20 cb bf
       0.3912212144509834 -0.21192146860658256
000050 28 ef 2e 73 e6 20 b1 bf ea 16 0e 4c 29 d5 ce 3f
       -0.06690826713650877 0.24088016713738308
000060 cd b2 01 cf d0 37 b9 bf 9a f2 b9 c2 66 e8 ba 3f
       -0.09850792936203874 0.10510866407453037
000070 05 78 dd e0 09 24 86 3f 7e e3 47 ec 1c ff d1 3f
       0.010810925650442735 0.2811958606176218
000080 d1 83 05 52 6f 45 bc bf 46 92 86 f1 91 62 b7 bf
       -0.11043449165801113 -0.09134781023619451
000090 5f ac 2c 97 fa d0 b7 bf 00 7b 6b ec e5 2e 5e bf
       -0.09303251448425119 -0.0018422360750986466
0000a0 1b 93 91 28 22 a1 cc bf 40 51 53 3c 73 34 7d bf
       -0.22366740208521993 -0.007130098475688407
0000b0 4f c0 92 a1 86 b5 b2 bf 08 2a 02 1c ff f8 d7 bf
       -0.07308236546191547 -0.37457254157257625
0000c0 93 69 20 6e 76 6e 87 3f 73 1a 18 01 c0 16 c7 bf
       0.011441159473226025 -0.18038177541184872
0000d0 8d 41 4c 97 5b 40 d2 bf 57 35 7a 3c 8d f4 cf 3f
       -0.28517808699782493 0.2496506257342996
0000e0 1f 55 fd c4 8d 65 d0 3f 12 b6 d6 81 1a b9 d0 3f
       0.2561983512617462 0.2612978237110336
0000f0 01 08 28 e7 bf 81 d9 bf f8 27 91 6a b8 76 ce 3f
       -0.39854428838600603 0.23799805835216126
000100 02 0c 59 26 ec 35 c9 3f ca e7 11 ff 2a 6a b7 3f
       0.19695808289006328 0.09146374442380459
000110 84 68 06 2c 53 ed d0 3f 1b e0 3d 24 73 1b c0 bf
       0.26448516177482184 -0.1258377005540304
000120 90 dd 6c 59 b3 6d d4 3f f0 c8 91 35 0b f2 a3 3f
       0.3191955922406686 0.038956022538416124
000130 a7 b1 09 a8 cb d4 d3 3f ca a7 0a 21 c6 0d b3 3f
       0.30986300859401655 0.07442892367058032
000140 50 4f 4c b8 07 5c ba bf 61 bc 3b 1d 67 e6 d0 3f
       -0.10296676873650523 0.2640626702768199
000150 e4 84 f1 bf 00 7b ae 3f 41 83 e7 f4 61 2c d8 3f
       0.05953218787250039 0.3777089015621194
000160 e2 96 58 72 ce 92 ca bf 72 a2 d7 3d 26 7a a6 bf
       -0.20760517676642737 -0.043900675820457105
000170 2d e0 4c 19 52 29 cf 3f 53 9e d5 12 9a cc ce bf
       0.2434485076462364 -0.2406189529385637
000180 c2 3f a1 82 a6 c1 84 bf 09 f2 e5 61 d2 c8 cc 3f
       -0.010134983884341756 0.22487859516321887
000190 7e bb f8 48 08 4a a2 bf 75 7a aa 5b 75 a6 c3 bf
       -0.03572107210890517 -0.1535174081409029
0001a0 16 cc de 4c 1e 99 d0 bf e1 cd e0 76 88 91 c0 bf
       -0.25934560305467025 -0.1294413166484523
0001b0 08 94 33 77 d2 91 b8 3f 12 d0 ca 62 cd 06 d4 bf
       0.09597506914322207 -0.3129151787536567
0001c0 34 71 d7 6a 7e 3d b8 3f 22 49 7d f2 95 28 bd 3f
       0.09468832119404597 0.11390053911353396
0001d0 ed aa 80 99 87 c4 b1 bf 95 7b 30 3a d0 be a7 3f
       -0.06940505502340573 0.046377665618130205
0001e0 71 fb 91 88 96 5e c9 bf 47 78 86 82 c3 59 d0 3f
       -0.19819909733265775 0.2554787420903079
0001f0 2a ae db d3 88 92 bb 3f a2 b6 ff 71 fc 1c cd bf
       0.10770468876187836 -0.22744708601333224
000200 db 98 bd d6 02 8a d0 3f a3 5e 7f 80 9b a3 bb 3f
       0.25842352839243937 0.10796520125529212
000210 8b a0 78 59 47 45 c0 3f 0e 1c d1 f0 19 95 be 3f
       0.12711421841345713 0.11946260575597042
000220 8a 28 43 99 b8 da d7 3f 30 60 59 19 0e 6b 84 bf
       0.3727246758177293 -0.0099698163495959
000230 0a f7 3f 3f 78 3f d4 3f ca 57 ec 9c 9a 61 b1 bf
       0.3163738839792677 -0.06789556819089096
000240 22 03 46 95 1a c0 c0 bf b3 0b 7a c0 3b 98 d6 3f
       -0.13086254395241165 0.353041589704101
000250 20 d7 9d 28 cf 00 bb 3f e0 c9 de a8 3f a4 dd 3f
       0.1054810976182492 0.46314994326817605
000260 db e5 3e 7f d4 02 c9 3f a1 96 5d dc ea c7 c8 3f
       0.19539886677902882 0.1936009956363494
000270 63 e9 db 6f 0d 5d d0 bf 13 6f 0f 0f 22 5d cd bf
       -0.2556794731496181 -0.2294046948944631
000280 f9 33 84 8c 6a 98 c7 bf b2 8b 02 66 63 38 c9 bf
       -0.1843388734927485 -0.1970333335967474
000290 39 d8 28 c6 ce 50 cf bf f4 f6 1e 4e 6a 2f a3 3f
       -0.24465355563887828 0.037471124683618046
0002a0 07 08 ee b3 2e 14 d0 3f 3a 20 2d 82 74 70 ba bf
       0.25123183795233256 -0.10327842882281937
0002b0 d4 a4 a2 d0 12 f9 cd bf bd f7 e7 03 6c 71 d3 3f
       -0.23416361987373213 0.30379772550065437
0002c0 6f 11 5b 93 5e 7e d5 bf 1a d7 00 c3 69 b7 be 3f
       -0.33583797826965783 0.11998616228887862
0002d0 23 ed 30 f3 a2 cb b4 bf 70 bc 66 d4 ef 06 c5 bf
       -0.08123224675448575 -0.1642741953960214
0002e0 d8 f7 27 d6 53 f9 d2 bf 77 a1 76 37 be cc c1 3f
       -0.29646774209674964 0.13906076152967348
0002f0 e9 97 76 74 0b 89 de 3f f4 bd 1a a3 62 8b b6 3f
       0.47711454747547904 0.08806435091059212
000300 2b ba 7b f1 15 2b d4 bf f4 10 92 c9 00 ce d8 3f
       -0.3151297434077686 0.3875734299147233
000310 8f 6e 71 aa 41 8e e6 bf 2c c0 13 db 8e 79 d1 bf
       -0.704865296265284 -0.2730443133759788

feature_extractor.linear3.bias f8 [2]
000000 3d ef 8d 48 f4 bf b9 3f c5 2e 12 ef 4b 18 c0 bf
       0.10058523913715774 -0.1257414738978381

mean_module.raw_constant f8 []
000000 58 54 82 e8 72 9a 12 40
       4.650828965143852

covar_module.raw_outputscale f8 []
000000 aa 3e f2 37 ac 76 11 40
       4.365891336594055

covar_module.base_kernel.raw_lengthscale f8 [1, 2]
000000 dd aa 42 6a 4c 6e d4 bf ad 67 8f 3b 4a b4 d4 3f
       -0.31923208596223934 0.3235040265695897

covar_module.base_kernel.raw_lengthscale_constraint.lower_bound f8 []
000000 00 00 00 00 00 00 00 00
       0.0

covar_module.base_kernel.raw_lengthscale_constraint.upper_bound f8 []
000000 00 00 00 00 00 00 f0 7f
       inf

covar_module.raw_outputscale_constraint.lower_bound f8 []
000000 00 00 00 00 00 00 00 00
       0.0

covar_module.raw_outputscale_constraint.upper_bound f8 []
000000 00 00 00 00 00 00 f0 7f
       inf
